output/best_fm/20190227_160224/20190227_160224_model_model.pt (torch_old, 18437 bytes, 6 tensors)

network.0.weight f4 [62, 3]
000000 7a 52 ef 3c 1a a9 10 3c d5 e8 ac be 3e 97 47 40
       0.029214133 0.008829379 -0.33771387 3.118606
000010 44 0a 16 bf 8a 1d 05 c0 8a 5a 84 3f d1 82 68 3f
       -0.58609414 -2.079928 1.034013 0.9082461
000020 dc 02 2b c0 80 6e d7 be 35 01 5b be 9a 64 8a be
       -2.6720495 -0.42076492 -0.21387179 -0.27029878
000030 9e 48 08 3f c2 27 ab be 11 41 a1 bd 6f 7d e5 bc
       0.53235805 -0.3342877 -0.078737386 -0.028013913
000040 1a 52 6c 3e 10 78 26 be f2 7a 2b 40 80 e0 8f 3f
       0.23078194 -0.16256738 2.679379 1.1240387
000050 35 fb 9a 3b f1 17 26 bd f5 bf 1c bd c7 57 ee be
       0.0047296532 -0.040550176 -0.038269002 -0.46551344
000060 2e 6b 9a be cc 4e 36 3f b4 4a a1 be 8e c7 1a be
       -0.30159897 0.71213984 -0.31502306 -0.15115187
000070 a9 9c 2c 3d 65 52 ff be 61 b7 43 3f 8e 71 7a 3e
       0.04214159 -0.4986755 0.7645169 0.2445738
000080 b4 b9 73 bf 44 dc 02 bf 05 5d 4d bf 27 6f 81 bf
       -0.95205235 -0.5111735 -0.8022006 -1.0112046
000090 d4 20 5c 3e a3 e3 d8 bd 4c 58 56 be 4b 35 39 3d
       0.21496898 -0.10590293 -0.2093212 0.04521684
0000a0 c7 10 c6 bd 7e 6c 8f bc 6c b9 a6 3e 07 f3 23 3d
       -0.09671169 -0.017507788 0.3256334 0.04002669
0000b0 49 27 be be 9a c0 f3 bc b7 4a e1 bd be e9 73 3e
       -0.37139347 -0.029754926 -0.11000579 0.23819634
0000c0 43 2f 9c 40 6e 2d 2f 41 fd 8d c2 c1 c0 4b 82 3e
       4.8807693 10.948591 -24.31933 0.25448418
0000d0 c9 90 2f 3e bd 1f 12 3b b4 96 08 be 25 fe ba 3d
       0.17145075 0.002229675 -0.13338739 0.091305055
0000e0 fc 1c 80 3d 29 01 a6 bf e1 be 04 40 45 4a b6 bf
       0.06255528 -1.2969104 2.0741503 -1.4241415
0000f0 fb 63 08 3d bf 95 da be 36 1d 6e bf d5 6b 40 3e
       0.033298474 -0.42692372 -0.9301332 0.18791135
000100 6e ce 7c 3d 77 51 75 be 26 d6 6d 3d 70 6f 29 3e
       0.061720304 -0.23956858 0.058065556 0.16546416
000110 33 5e fe bd 8a 0f 62 be 04 39 11 3e 35 fb 89 be
       -0.12420311 -0.2207624 0.14181906 -0.26949468
000120 6a 62 2b 3b 9f bb 73 be 45 c5 c9 3d 6c fa 8b 3e
       0.0026151189 -0.2380204 0.09852079 0.27339494
000130 c0 95 80 bd 34 f0 9c be d3 aa 73 bf 03 34 04 c0
       -0.062785625 -0.3065201 -0.9518253 -2.0656745
000140 7f b6 12 bd b3 e1 18 3e 33 09 c4 be 37 b6 32 3e
       -0.035818573 0.14929847 -0.38288268 0.17452322
000150 f7 0a 1d bf e2 cf 8d 3e cf 15 f8 be 05 8f c2 3e
       -0.61344856 0.27697664 -0.4845414 0.3799974
000160 92 c5 4e 3c cd cd 84 be 2b 5f b7 3e 5c 63 e3 3e
       0.012620347 -0.25938264 0.35814795 0.44411743
000170 0b a6 30 3e 1c 78 18 3f 66 89 3a 3f de 98 d8 be
       0.1725084 0.5955827 0.72865903 -0.42304128
000180 06 ef 0e bf 02 7b 2c 40 6b e0 8b 3f 56 5b 20 3f
       -0.5583347 2.6950078 1.0927862 0.6263937
000190 74 36 03 c0 c1 ea 99 bf b3 cf a1 bf 43 dc b8 bf
       -2.0501986 -1.2024766 -1.264151 -1.4442219
0001a0 f8 3e 08 c0 49 2a a5 3e 91 b9 3d 3e 57 36 9e be
       -2.1288433 0.32258824 0.18527819 -0.30900833
0001b0 4c 75 14 3e 28 1c fe bd 36 02 5a be f4 8d 96 bf
       0.1449787 -0.12407714 -0.21289906 -1.1762071
0001c0 b0 a7 9d bf 71 66 56 3f 6d 12 23 be 7d dd c6 bd
       -1.2316799 0.83750063 -0.15924998 -0.09710214
0001d0 75 05 93 be 0b d1 f1 3d 7d a4 c2 3d 00 41 34 be
       -0.287151 0.1180745 0.0950403 -0.1760292
0001e0 f0 e6 91 3e 6b f4 97 3e 4e bd ba bd 62 bd 83 be
       0.28496504 0.29678664 -0.09118138 -0.25730425
0001f0 c8 a7 9b 3f aa 0e 1b c0 7b 86 aa be e3 88 da 3e
       1.2160578 -2.42277 -0.33305725 0.4268256
000200 aa 2c a0 c0 ab 9b dd 3e fb 2b fa 3c e9 6d c3 bf
       -5.005452 0.43282828 0.03053855 -1.5267917
000210 d1 77 ae bd 94 35 d0 be 95 77 06 be 52 0b 3f 3f
       -0.08518947 -0.40665877 -0.13131554 0.7462665
000220 bb 28 13 bd a8 27 0b bf 17 8e ac bf 62 11 f4 3f
       -0.035927515 -0.54357386 -1.3480862 1.9067805
000230 45 10 a2 3f d2 6f 98 3d 1e 09 81 be e0 14 21 3e
       1.2661215 0.07443203 -0.25202268 0.1573062
000240 56 ee ab bf 44 c8 e2 be 48 70 80 bf 91 e2 b0 bd
       -1.3432109 -0.44293416 -1.0034266 -0.08636964
000250 5c e3 69 3e 26 88 e5 be bf a3 3d bf bd 83 b7 bd
       0.22840637 -0.44830436 -0.7407798 -0.08960674
000260 1c 7b 82 bf 79 c4 25 3d 38 03 bc bd b6 b1 31 3e
       -1.019382 0.040470574 -0.091803014 0.17352948
000270 34 25 61 3e dd cb de 3d 3f 43 62 be 3e 94 1e bf
       0.21986848 0.108787276 -0.22095965 -0.6194495
000280 59 11 59 be 0f 51 8a bf fa 4a 08 3e 91 1b 52 be
       -0.21198024 -1.0805987 0.13309851 -0.20518328
000290 e3 44 64 be b7 1f 3f 3e 56 b9 d6 3b 87 99 ba 3d
       -0.22291903 0.18664442 0.0065528555 0.09111314
0002a0 0a ed df bd 17 69 a2 3d 49 b1 a5 3e 3b c8 3f bd
       -0.109338835 0.079302005 0.3236182 -0.046821814
0002b0 78 b6 83 be 6e f2 c3 bc b8 e6 e9 be 4e 7f c0 3f
       -0.2572515 -0.02391931 -0.45683837 1.503885
0002c0 18 59 f6 c0 f2 61 3a 3e fc f1 89 be 19 0e 6d c0
       -7.6983757 0.18201426 -0.26942432 -3.7039855
0002d0 3c e9 b3 3e 4e bf 10 40 14 b4 3c bf 1b 89 a9 3f
       0.3513888 2.2616763 -0.7371228 1.3244966
0002e0 e8 5a 01 3f 65 95 25 3e
       0.50529337 0.1617027

network.0.bias f4 [62]
000000 24 cc 8f bf 32 d8 1f c1 c5 77 00 c1 cd 4f f6 bf
       -1.1234174 -9.990282 -8.029241 -1.9243103
000010 7a 82 d7 bf a9 a5 33 bf bd 5a 13 c1 e5 04 a0 bf
       -1.6836693 -0.7017465 -9.209653 -1.2501494
000020 4c e9 e5 c0 98 7e 88 bf 28 45 ad c0 d8 66 88 c0
       -7.1847286 -1.0663633 -5.414692 -4.262554
000030 a9 0e 7c bf 7f bd 01 bf a6 cb b8 bf 55 4d 86 bf
       -0.9845987 -0.50679773 -1.4437149 -1.049235
000040 34 0b 4f c1 5a 62 6d bf ec e4 8a bf 5c a5 dc c0
       -12.940235 -0.927282 -1.0851111 -6.8951855
000050 44 01 34 c0 2b 25 a4 bf 25 16 62 bf 51 35 92 bf
       -2.8125772 -1.2823843 -0.8831504 -1.1422521
000060 f0 af 58 c0 80 20 9d bf 72 ef b6 c0 f9 3e 25 c0
       -3.3857384 -1.2275543 -5.716729 -2.5819685
000070 6a 66 04 c0 a5 a6 82 bf 77 07 da bf 4b 7f 9a c0
       -2.0687509 -1.0207106 -1.7033528 -4.8280387
000080 4c 7b fe c0 34 5b e2 c0 9f f3 38 c1 c8 f2 a6 bf
       -7.952551 -7.073633 -11.559478 -1.3042841
000090 4e 5a 47 bf 28 16 0a c1 ea 8b 72 bf 92 52 27 bf
       -0.7787217 -8.630409 -0.9474474 -0.6536037
0000a0 ac f1 98 bf b5 0b 09 c1 82 37 42 c1 f3 0c ad c0
       -1.1948752 -8.565358 -12.138552 -5.4078307
0000b0 8b 77 ae bf 6f ee 09 c0 51 90 e8 c0 9f 2f 91 bf
       -1.3630232 -2.1551778 -7.2676167 -1.1342658
0000c0 17 41 96 c0 3b 23 96 bf a4 e3 91 c0 da 7a 0a bf
       -4.6954455 -1.1729501 -4.559038 -0.54093707
0000d0 60 34 66 bf 23 61 da c0 9e fe 6d bf 82 e5 b7 bf
       -0.8992367 -6.8243575 -0.9296664 -1.4366915
0000e0 26 c6 6a bf e9 22 37 bf 9c bf 49 c1 8e a4 d7 c0
       -0.917086 -0.71537644 -12.60928 -6.7388372
0000f0 8d f1 a9 c0 e4 3d 57 c0
       -5.310736 -3.3631525

network.2.weight f4 [62, 62]
000000 09 42 a1 3d 1e be 98 40 32 26 07 bf fe 08 db 3e
       0.07873923 4.7732077 -0.52792656 0.42780298
000010 36 31 5f 3e e8 74 11 bf 58 77 39 3d 62 c8 0a 3f
       0.21796116 -0.5681901 0.04527983 0.5421201
000020 97 c5 b6 3f 51 3b e1 3e 71 ab 88 be 99 bd 0c 3f
       1.427905 0.43990567 -0.266933 0.54976803
000030 ea 65 51 3e ba 03 80 3d 27 ec 37 3e 45 d0 fd 3e
       0.20449033 0.06250711 0.17961179 0.4957296
000040 65 4f 07 c0 c5 fb 21 3e 2d 0d b9 3e a5 a0 66 bf
       -2.1142209 0.15818699 0.36142865 -0.90088874
000050 78 62 f4 3e d2 31 e7 3e 25 0a db 3d ee 47 c8 3e
       0.47731376 0.45155197 0.10695294 0.39117378
000060 31 b3 a8 3e dd 8b 04 3f c1 33 27 c0 f9 d9 12 3f
       0.32949212 0.51775914 -2.6125338 0.5736385
000070 09 3f f1 3e 9c 82 17 3e f2 39 54 bc 99 d5 3e 40
       0.47118405 0.14795917 -0.012953268 2.981787
000080 2c 36 2c 3f 12 2d 85 bf 4e 65 1b 40 14 d0 2e 3e
       0.6727016 -1.0404379 2.4280581 0.17071563
000090 f3 3c c3 3e ec 77 ad bf a1 23 47 be 28 f2 9e 3e
       0.38132438 -1.3552222 -0.19447185 0.31044126
0000a0 e1 e9 f0 bd 42 97 fd 3f 98 a6 10 bf f3 53 b0 be
       -0.11763359 1.9811785 -0.565042 -0.34439048
0000b0 0e c9 18 3e 9e 32 4d 3e 9c 89 9d bc a2 b0 a1 3e
       0.14920446 0.2003884 -0.019230656 0.31580073
0000c0 51 86 9a be 78 c8 9a 3d 30 87 8b 3e d4 2c fa 3e
       -0.301806 0.07557768 0.27251577 0.48862326
0000d0 ec 2e 49 be 94 11 2e bf ea 19 81 be ef ac c5 3e
       -0.19646806 -0.6799557 -0.25215083 0.386085
0000e0 3e d0 c1 3e b5 5d 94 3e 24 e2 1c be 53 bd fb be
       0.3785419 0.28977743 -0.15320641 -0.4916788
0000f0 78 e7 d7 be 72 71 4b 3e ac 88 5e 3e 4e dc 9f 3f
       -0.42168784 0.19867495 0.21731824 1.2489107
000100 81 43 00 bf 14 0c e5 be fe 55 61 bf d7 31 38 bf
       -0.50103 -0.44735777 -0.8802184 -0.7195105
000110 34 49 2e c0 b5 38 0c 3f 90 19 18 3e 0e e6 cb bf
       -2.723218 0.5477403 0.14853501 -1.5929582
000120 72 c2 f2 bf db 49 02 be ca 58 eb be fe 08 d5 be
       -1.896559 -0.12723486 -0.45966178 -0.41608423
000130 e5 34 b4 bf 24 7c d2 be d7 ed dd 3f b7 8c 25 bf
       -1.4078642 -0.41110337 1.7338208 -0.6466784
000140 3a fb 2a 3e 99 ad a9 bf f1 e3 66 3f 53 34 41 be
       0.16697398 -1.3256103 0.9019156 -0.18867616
000150 d5 a3 c1 be 08 b8 76 bd f1 1d f9 bf 4a 65 1b 3f
       -0.37820306 -0.0602341 -1.9462262 0.6070143
000160 14 de 99 be 03 11 f7 bf 69 ce a7 bf 97 c7 fc be
       -0.30052245 -1.9302067 -1.3109866 -0.49371025
000170 c2 46 57 bf 35 89 23 c0 ab 4c c2 be 45 5d af 3d
       -0.8409234 -2.5552495 -0.37949118 0.085627116
000180 2f b8 8a 3f ed c4 58 bf 0d 75 63 3e 77 85 e9 3e
       1.0837458 -0.84675485 0.2221262 0.45609638
000190 fd a7 e9 be af 15 b1 be 60 02 95 bf c6 c6 ad bf
       -0.45635977 -0.34586856 -1.164135 -1.3576286
0001a0 5f 36 ef 3f c7 b7 c2 3f 6a 9f e8 be a9 7d ee be
       1.8688468 1.5212334 -0.45434123 -0.46580246
0001b0 f2 a7 15 40 6a 93 0d bf 3d 8e b0 3f e4 14 f3 be
       2.3383756 -0.5530306 1.3793408 -0.47476876
0001c0 5d 63 05 bf 59 76 18 bf 97 84 d3 be 08 20 1a 3f
       -0.5210474 -0.59555584 -0.41312096 0.60205126
0001d0 fb 48 cc bc a8 61 0e bf 7e b3 2d bf db 30 bd be
       -0.024937144 -0.5561776 -0.6785201 -0.36951336
0001e0 d6 d8 6a 40 7e 84 45 bf fd 40 f7 3e 2f 43 ee bf
       3.6694846 -0.7715529 0.4829177 -1.8614253
0001f0 f9 5d 3e 3e 86 e3 28 3f 51 9c 07 3e 1b 54 20 bf
       0.18590535 0.65972173 0.13243224 -0.62628335
000200 ef 1b d6 3d af b1 76 3e 7d ce 5a c0 43 c4 1b bf
       0.10454547 0.24091218 -3.418853 -0.60846347
000210 8e 00 23 40 ef 6c 86 be 3f f6 11 3f 84 77 10 bf
       2.5469089 -0.26254985 0.57016367 -0.56432366
000220 fe c8 58 bc 92 0b a6 3e 66 2f b1 3e 42 47 fa be
       -0.013231514 0.32430702 0.34606475 -0.4888249
000230 22 e0 39 c0 53 f1 b1 3e 58 b2 7f be e6 fd d7 3e
       -2.904305 0.34754428 -0.24970376 0.42185897
000240 dc 25 cc be a5 85 f2 be aa 47 74 3e 3c 5c cd bd
       -0.39872634 -0.47367588 0.23855463 -0.10027358
000250 1d 3e 0f be b7 fa 03 bf 08 27 62 3f 35 f1 fd be
       -0.13988538 -0.51554435 0.88340807 -0.4959809
000260 ca 05 2a be 2e c1 42 3e 45 4b ef 3c 32 aa ec bf
       -0.16603771 0.19019005 0.029210696 -1.848944
000270 b0 23 a5 3e 4c 70 c7 3f a2 d5 03 40 83 1a 72 3d
       0.3225379 1.5581145 2.059914 0.059107315
000280 bc 51 b8 3c b6 fb 76 be 84 6c 7a 3d 45 11 82 3e
       0.022499911 -0.24119458 0.061138645 0.254038
000290 d6 de a6 3e 9c 09 69 40 65 c9 73 40 95 c8 d1 3e
       0.32591885 3.6412115 3.8091671 0.40973344
0002a0 25 ff fe 3d 10 c2 3c 3e c9 da 59 3f 71 7c b4 bd
       0.12451009 0.18433404 0.85099465 -0.08812798
0002b0 1a 9c ab 3f 04 1c 7f 3e 84 b0 f9 3d 38 ad 82 3e
       1.3407013 0.24913031 0.12191871 0.2552278
0002c0 12 5a c5 3e da 2a 56 bc 93 24 0a 3e bc 30 bf be
       0.3854528 -0.01307174 0.13490514 -0.3734187
0002d0 29 6e bd be ce 44 2f 3e f4 72 7f 3f de 60 0b 3e
       -0.36998108 0.1711609 0.9978478 0.1361117
0002e0 bb 89 1e bf 7f 7a 76 bf 0c 42 c6 be 61 63 a0 c0
       -0.6192891 -0.96280664 -0.38722265 -5.012131
0002f0 e4 e0 9e bf 01 79 1c 3f 93 b2 f1 3d a3 ca 9f be
       -1.2412381 0.6112214 0.118016385 -0.31209287
000300 32 80 6a 3d 3c 3a a2 3e ab 33 34 c0 8f 19 5a bd
       0.057251163 0.31685054 -2.8156536 -0.05324703
000310 8b 0a df ba 89 eb 31 bf 95 e8 05 bf 5c 32 d5 be
       -0.0017016692 -0.69500023 -0.52308017 -0.41639984
000320 e5 e0 fa be 69 a4 cb 3e 95 91 06 c0 ba 57 c3 be
       -0.48999706 0.39773872 -2.1026356 -0.38152868
000330 4e b0 2c be c3 47 cd 3e c3 6b 0b bd f5 e6 5a bd
       -0.1686413 0.40093812 -0.034038316 -0.053442914
000340 06 c4 95 be ea c3 1f 3e 04 38 f8 bd 38 1e 8e bc
       -0.29251117 0.15602079 -0.12120059 -0.017348394
000350 27 e2 4c 3f 21 79 9e 3e 74 49 df 3c cc f1 2a 3e
       0.8003258 0.3095179 0.027256705 0.166938
000360 75 3c 22 be c2 1f 1b c0 73 81 26 3f 0d d2 5f 40
       -0.15843375 -2.4238133 0.65041274 3.4971955
000370 35 5b 43 bf 15 94 a8 be 92 9e 8f be 6c e8 d7 bf
       -0.76311046 -0.32925478 -0.28050667 -1.6867805
000380 a8 62 63 be 9f ff 8b 3c ee 67 fc be d4 0d 30 40
       -0.22205603 0.017089663 -0.49298042 2.750844
000390 98 d1 bb 3f c0 81 00 be bc 96 38 bb c9 8d f8 3d
       1.4673338 -0.12549496 -0.0028166017 0.12136418
0003a0 15 7a a7 bf b2 10 80 be 43 10 c2 3f 0a 28 a5 be
       -1.3084131 -0.25012738 1.5161213 -0.3225711
0003b0 72 b5 f1 be 2c c0 8f be 49 54 11 be 3d 3e 9e 3f
       -0.47208744 -0.28076303 -0.14192308 1.2362744
0003c0 8a ad 8e be e4 68 2b 3e 15 ae 36 3d 37 2d 4d be
       -0.27866775 0.16739231 0.04459961 -0.2003678
0003d0 56 7a df bf 2d 93 cd be c9 f0 83 bf 40 40 7e bf
       -1.7459209 -0.4015135 -1.0307857 -0.9931679
0003e0 a6 87 70 bf 0f 0f 97 3d 99 6a 33 bf 11 7b c6 3e
       -0.93956983 0.07375919 -0.7008453 0.38765767
0003f0 cf bb 4b 3f 89 a9 9b 3e ec 8b a0 40 d7 e8 50 bf
       0.7958345 0.30402783 5.0170803 -0.81605285

network.2.bias f4 [62]
000000 1d bd 5b bb aa f5 10 3c 80 9e 14 3e 30 26 ef bb
       -0.0033529468 0.008847633 0.14513588 -0.0072982535
000010 17 67 34 3d 8d 6f 25 3c 3b d6 1d bc b7 4a 96 3d
       0.044043627 0.010097397 -0.009633596 0.073384695
000020 89 62 ac 3e ec 92 06 bd 80 fe 6c 3d 19 73 54 bd
       0.33668926 -0.03285496 0.057859898 -0.05186758
000030 58 bb 69 3d 77 99 9c bc 60 63 28 3b f7 b7 9a bd
       0.05706343 -0.019116146 0.0025693998 -0.0755462
000040 c9 b0 54 3b 35 b8 96 3c b5 70 c2 bd 47 88 8a 3c
       0.0032454005 0.018398384 -0.094941534 0.016910685
000050 d7 59 15 3c 1e a9 6d be f5 0e e5 bc c3 5f 81 bb
       0.009115658 -0.23209044 -0.027961234 -0.0039481833
000060 c9 3d a1 3d 7b 7b 7c 3d 97 8e f4 bd 5f c6 80 3c
       0.07873113 0.061641198 -0.11941259 0.01571959
000070 64 bf 1e be 65 ad 52 bd 8f 43 84 bd d3 f6 dd bc
       -0.15502697 -0.051434893 -0.06458198 -0.027095234
000080 82 02 75 3d b6 9c a9 3d a2 1f a3 3c ae a1 7e bd
       0.059816845 0.08281843 0.019912545 -0.06216591
000090 5a 60 ad bb c9 10 9c bb 1c 6e 7b bc a4 00 50 bc
       -0.005291027 -0.004762743 -0.015346076 -0.012695465
0000a0 ce bc 45 3c f5 5b 7c 3c 3e 06 96 bc 38 d0 12 3c
       0.01206894 0.015402784 -0.018313523 0.008960776
0000b0 88 32 12 3d 11 08 b7 3a ac 57 2b 3e 64 37 a4 bb
       0.03569272 0.0013964196 0.16732663 -0.005011486
0000c0 3c dc 03 bc d6 1b 46 bc 8b 21 0b bc 28 75 36 bc
       -0.008048113 -0.012091598 -0.008491884 -0.011136331
0000d0 61 8e 19 3c d8 a0 a6 bc a1 da 3c bb 71 08 b0 3b
       0.009372325 -0.020340368 -0.0028816836 0.0053721
0000e0 0c 22 ae 3d 6c af ea bc 76 0e e0 3d f3 0d 18 3c
       0.08502588 -0.0286481 0.10940258 0.0092806695
0000f0 7c de 81 bc e6 1c b3 3c
       -0.01585316 0.021864366

network.3.weight f4 [3, 62]
000000 dc 32 b1 3e 1b 47 87 be 9f b1 59 3f b6 cc 49 bf
       0.34609115 -0.26421437 0.85036653 -0.7882799
000010 9f 99 9f 3e 4e 98 0e bf a4 0c cd 3e 77 65 30 40
       0.3117189 -0.5570115 0.40048707 2.756193
000020 e5 43 22 c1 bb af fd 3e bf 25 9f bf 99 a7 41 c0
       -10.141576 0.49548134 -1.2433394 -3.0258543
000030 b3 d9 34 3f f0 0f 76 3e 63 10 5d 3f fd d0 18 c0
       0.7064468 0.24029517 0.8635313 -2.3877556
000040 46 1d 93 be 17 e6 05 40 a2 27 aa bf 85 1f 98 3f
       -0.2873327 2.0921686 -1.3293345 1.1884619
000050 93 f5 61 bf f5 b0 9f 3f 0e 0a 18 40 67 39 6f 3f
       -0.8826534 1.2475878 2.3756137 0.93446964
000060 ef 51 4a be a8 12 00 40 ac 05 9c bf 0c f9 dd 3f
       -0.19757818 2.0011387 -1.2189231 1.7341628
000070 4e 65 e8 bf e1 d0 32 40 fd 1c af 3f 7a a9 36 c0
       -1.8155916 2.793999 1.3680722 -2.854094
000080 a3 e0 26 c0 64 7f cd 3f 30 30 d9 bf 13 89 9e bf
       -2.6074607 1.6054502 -1.6967831 -1.2385582
000090 56 5f d5 3f 87 26 e2 3f f3 6d 13 bc b6 3b dc 3f
       1.6669719 1.7668008 -0.008998382 1.7205722
0000a0 b9 92 34 bf 9e 7c 99 3e 09 88 ee bf b1 56 43 c0
       -0.7053638 0.29977888 -1.8635265 -3.0521662
0000b0 a5 88 89 be 8d 79 2c c0 13 01 f7 3f 2d 64 26 be
       -0.26862064 -2.6949189 1.9297203 -0.16249152
0000c0 17 44 1d 40 12 45 da 3f 25 7f d0 bf b5 5b 2a 3f
       2.4572809 1.7052329 -1.6288801 0.66546184
0000d0 47 70 bf 3f 4e 5b f6 3f 0b 1e 34 3f 1f 8b 2d c0
       1.4956139 1.9246614 0.7035834 -2.7116163
0000e0 ab 69 0f 3e ea b3 83 bf 44 f7 f2 3f 9d 7b f0 be
       0.14005153 -1.028928 1.898171 -0.4696931
0000f0 4b 31 81 bf e2 a6 ef 3f 7d 07 be 3f c2 77 e0 be
       -1.0093168 1.8722804 1.4846035 -0.43841368
000100 f1 59 83 40 b4 72 72 3f d6 dc 5b 40 a7 d5 3e bf
       4.104729 0.94706273 3.4353538 -0.7454476
000110 4d 42 10 3f 02 19 64 3f c0 20 44 c1 ca b6 4a 40
       0.56351167 0.8910066 -12.257996 3.1674066
000120 8e 64 5f c0 f7 7f e8 bf 0e c5 36 40 e3 3b 75 3f
       -3.4905124 -1.8164052 2.8557773 0.95794505
000130 74 8d 14 40 ca a7 92 be ea 8f cb bf 26 ee 92 3f
       2.3211336 -0.28643638 -1.5903294 1.1478927
000140 7b 3c 6c c0 b8 b9 a3 bf af bf d0 c0 58 8a d0 40
       -3.6911914 -1.2791052 -6.523399 6.5168877
000150 71 9f 25 bd 61 31 7c 3f 74 a1 00 c0 d5 3b 7e 40
       -0.04043526 0.98512846 -2.0098543 3.9724019
000160 ff b0 8e c0 af c2 b2 3f 05 18 32 3f 64 96 4a 40
       -4.459106 1.3965663 0.695679 3.165429
000170 9c dc da 3f 94 52 96 c0 4a 4d dc 3e 5a bb 76 40
       1.7098575 -4.6975803 0.43027717 3.855185
000180 7b 05 01 c0 31 9b 74 3f e8 9a 3c bf 47 76 e4 3f
       -2.0159595 0.95549303 -0.7367387 1.7848595
000190 01 54 2a 3f 79 25 8f bf 03 66 cb bf 72 59 27 be
       0.6653443 -1.1183311 -1.5890507 -0.16342714
0001a0 12 78 74 bf ba c0 b0 3c 1a 3c 91 bf 9a 2a 76 c0
       -0.9549571 0.021576274 -1.1346467 -3.8463502
0001b0 7b 68 fd 3c a7 21 be bd b3 23 5f 40 14 9b fc 3f
       0.03093361 -0.092837624 3.486554 1.9734826
0001c0 05 b1 7d c0 0f 42 d5 3e 27 ca 4c 40 0a 23 03 40
       -3.9639294 0.4165196 3.1998384 2.0490136
0001d0 51 f7 18 40 25 82 72 c0 00 eb dd bf 3e 42 26 c0
       2.390095 -3.7891934 -1.7337341 -2.597793
0001e0 ae a2 8e 40 f0 6b c2 bf 19 c1 35 3f 9b c5 81 3f
       4.4573584 -1.518919 0.7099777 1.0138429
0001f0 0b 52 f3 3e 18 cb ac be 8d e8 55 3e f6 30 59 bf
       0.4752353 -0.33748698 0.20889492 -0.84840333
000200 82 ac b9 be e3 f5 22 bf 57 dd f4 3e d4 8a 25 40
       -0.36264426 -0.63656443 0.4782512 2.5865984
000210 dd 77 a5 c1 91 1a 53 3e de 6d 9a bf a6 39 2d c0
       -20.683527 0.20615603 -1.2064779 -2.7066436
000220 85 84 08 3f 0b 49 be 3e 90 ad a9 3f 18 16 12 c0
       0.5332721 0.37165102 1.3256092 -2.2825985
000230 63 c3 b6 be d6 d0 fc 3f f4 cb 9d bf 0a 87 bb 3f
       -0.35695943 1.9751232 -1.2327867 1.4650586
000240 e9 97 64 3f d3 2f 09 40 ab 98 2d 40 f3 48 79 3f
       0.89294297 2.143544 2.712443 0.97376937
000250 c9 f7 df be 80 6d 0a 40 50 23 02 bf 3c 61 cd 3f
       -0.43743733 2.1629333 -0.5083513 1.6045299
000260 b3 68 ab bf 61 0d 52 40 25 03 2c c0 8a 1a 31 c0
       -1.3391327 3.2820666 -2.687692 -2.7672448
000270 99 2e 50 c0 83 ba c1 3f 4c af f0 bf 75 30 9e bf
       -3.252844 1.5135044 -1.8803496 -1.2358538
000280 c6 41 fc 3f 77 1e e8 3f 7f 8b 2d 3e 84 86 0d 40
       1.9707572 1.8134297 0.16947745 2.2113352
000290 3c 1e 5c bf 40 44 5b 3e d5 fe de bf ed 85 68 c0
       -0.85983634 0.21412754 -1.7421519 -3.6331742
0002a0 bf 02 fe be ad c6 3b c0 51 75 d6 3f 97 0e e1 bd
       -0.4961147 -2.9340012 1.6754552 -0.10989111
0002b0 ac 2f 2d 40 7f a4 e7 3f f7 3f ac bf 50 db 53 3f
       2.7060347 1.8097075 -1.345702 0.8275652
0002c0 a4 a3 b8 3f 23 6a 07 40 3b a0 27 3f a1 5a 36 c0
       1.4424939 2.115853 0.6547887 -2.8492815
0002d0 75 6b 61 be 95 bf 9b bf 3e e2 d9 3f 87 0c 17 bf
       -0.22013648 -1.2167841 1.7022169 -0.5900349
0002e0 21 c8 86 bf ef 93 df 3f
       -1.0529824 1.7467021

network.3.bias f4 [3]
000000 64 a0 34 c0 0f cb 08 3f 17 20 92 40
       -2.8222895 0.5343484 4.566417
