output/best_fm/20190228_223719/model.pt (torch_old, 167491 bytes, 6 tensors)

network.0.weight f4 [200, 3]
0	0xbdfac9d2	-0.122455254
1	0x3d64127c	0.05568169
2	0x3db3b735	0.08775178
3	0xbea703c3	-0.32620057
4	0xbe9aedc7	-0.30259535
5	0x3d378bc6	0.044811033
6	0x3b1f48be	0.0024304832
7	0x3a5baf91	0.00083803484
8	0xbb19b1c4	-0.0023451904
9	0xbc833f96	-0.016021531
10	0xbcfd97f6	-0.03095625
11	0x3ec8b691	0.39201787
12	0x3d244ac9	0.040110383
13	0xbeba9922	-0.36444956
14	0x3de6632d	0.11249385
15	0x3c8cd760	0.017192543
16	0x3cd86360	0.026414573
17	0x3d237000	0.039901733
18	0xbed7e820	-0.42169285
19	0x3ec3f9f3	0.38276634
20	0x3ebacf69	0.36486366
21	0xbf1ec3f0	-0.62017727
22	0xbe4bd3e4	-0.19905049
23	0x3b8ff663	0.0043933853
24	0xbc0a05b8	-0.008424215
25	0xbf3ba21e	-0.73294246
26	0xbdecc17e	-0.11560343
27	0x3d813176	0.06308262
28	0x3d14e8f2	0.036354966
29	0xbccbddf5	-0.02488611
30	0x3effa6cf	0.49931952
31	0x3ec48d74	0.3838917
32	0x3e918d26	0.28428
33	0xbbe4e7a9	-0.006985624
34	0xbf0df46f	-0.554511
35	0x3e313baa	0.17307916
36	0xbe4307f9	-0.1904601
37	0x3e2bc283	0.16773419
38	0xbe9475c7	-0.28996107
39	0xbeb2a476	-0.348911
40	0x3e735b62	0.23765329
41	0xbe90fcd7	-0.28317901
42	0x3ae8e69f	0.0017768926
43	0x3bbbd109	0.005731706
44	0xbc16a6b4	-0.009195019
45	0x3cf1c4a6	0.029512715
46	0x3e21fc7e	0.15818974
47	0xbdcc5817	-0.09977739
48	0xbdf53107	-0.11972242
49	0xbde2fdf7	-0.11083596
50	0xbdc84440	-0.09778643
51	0xbeb4d10a	-0.35315734
52	0x3f038425	0.5137351
53	0xbe4acf75	-0.19805701
54	0xbebcde1a	-0.368882
55	0xbebe3798	-0.3715179
56	0x3e6e0af8	0.23246372
57	0xbcbfc731	-0.023410412
58	0xbe807b30	-0.25093985
59	0x3dfdf21e	0.12399696
60	0xbb33288c	-0.00273374
61	0x3e24d77e	0.16097829
62	0x3e41b301	0.18915941
63	0xbd109a7e	-0.035303585
64	0xbed8e8de	-0.42365164
65	0xbea3722c	-0.31923044
66	0x3dc93108	0.09823805
67	0x3d6c31c0	0.057664633
68	0xbc1dad80	-0.009623885
69	0xbdc18b84	-0.094504386
70	0xb90cb3ff	-0.00013418494
71	0x3e35f633	0.17769699
72	0xbe0037ca	-0.12521282
73	0x3e2b7981	0.16745569
74	0xbd3411db	-0.04396234
75	0x39074050	0.00012898562
76	0xbe50d82c	-0.20394963
77	0x3c1456bf	0.009053885
78	0xbed61301	-0.41811374
79	0x3ecbbc8e	0.39792293
80	0x3eb4d713	0.3532034
81	0x3e944af7	0.28963444
82	0xbeb19cb2	-0.34689862
83	0xbd35f511	-0.044423167
84	0x3b86e943	0.0041171624
85	0xbf1dcabc	-0.61637473
86	0x3e1f3a98	0.15549695
87	0x3e60fa6b	0.21970527
88	0xbdcec0f0	-0.10095394
89	0x3c9b66f0	0.018969983
90	0x3e9b7ec3	0.3037015
91	0xbe95047b	-0.2910498
92	0x3deabc60	0.11461711
93	0xb9f757e6	-0.00047177
94	0xbbfb8c70	-0.0076766536
95	0xbb4e32d7	-0.0031463408
96	0xbdc03fe9	-0.0938719
97	0x3e46cb41	0.19413473
98	0xbe2ca0fd	-0.16858287
99	0x3b4ed908	0.0031562466
100	0xbdd5e476	-0.10443966
101	0x3e3125fb	0.17299645
102	0x3eb22978	0.34797263
103	0xbe9d6ba5	-0.3074619
104	0x3d4a7c1c	0.049434766
105	0xbe865eaa	-0.26244098
106	0xbead2b17	-0.33821937
107	0x3dab9d06	0.08379559
108	0x3c2d63de	0.010582892
109	0xbe6d2a61	-0.23160698
110	0xbdc557a8	-0.0963586
111	0xbe23877d	-0.15969653
112	0xbd8d37f3	-0.06895437
113	0x3dd8550f	0.10563099
114	0xbac7b24a	-0.0015235629
115	0x3b3b280f	0.0028557812
116	0xbb87793a	-0.0041343244
117	0x3b733316	0.0037109307
118	0x3b7eacd3	0.0038860335
119	0xbc3020d2	-0.0107500125
120	0xbc029cba	-0.007971937
121	0xbad5cbd8	-0.001631136
122	0x3c184326	0.009293353
123	0xbc3334f1	-0.010937915
124	0xbb6e28a6	-0.0036340146
125	0x3c0590a8	0.0081521645
126	0x3e4e2052	0.20129517
127	0xbe482589	-0.19545569
128	0xbde46d02	-0.11153604
129	0x3ec38674	0.38188517
130	0xbdc39f37	-0.09551852
131	0xbd21a44d	-0.03946333
132	0x3bbbcab1	0.00573095
133	0x3ae8e9f6	0.0017769921
134	0x3acb16a6	0.0015494421
135	0x3d228ce8	0.03968516
136	0x3f241d7f	0.6410751
137	0x3ea788aa	0.32721454
138	0xbf3002ec	-0.6875446
139	0x3eb8e6b7	0.3611352
140	0x3ebfc0e2	0.37451845
141	0x3c0fc00d	0.008773816
142	0xbf06444c	-0.5244796
143	0xbed87ec2	-0.4228421
144	0xbe493cef	-0.1965215
145	0x3e1d8344	0.15382105
146	0x3acc05c4	0.0015565683
147	0x3d9815fe	0.0742607
148	0x3edc5013	0.43029842
149	0x3e6ad3ea	0.22932401
150	0x3ca72eab	0.020407995
151	0xbf184c18	-0.5949111
152	0xbf2f7929	-0.6854425
153	0xbe2a3967	-0.1662346
154	0x3dce72a4	0.1008046
155	0x3e43aecf	0.19109653
156	0x3e8c9f5a	0.27465326
157	0xbcfe7c66	-0.031065177
158	0x3d0bc8e2	0.034127124
159	0xbed44d22	-0.41465098
160	0x3dc1484c	0.09437618
161	0x3e5f5ae0	0.2181201
162	0xbea5bf29	-0.32372406
163	0x3e9495c1	0.29020503
164	0x3e92d90b	0.28681216
165	0x3d613a27	0.0549871
166	0xbe0d875b	-0.13821165
167	0xbe8ddc70	-0.27707243
168	0x3d4fdf1f	0.050749894
169	0x3f19abca	0.60027754
170	0x3f039d94	0.5141232
171	0xbe08c9fd	-0.13358302
172	0x3e1d98fc	0.1539039
173	0xbae04ba0	-0.0017112382
174	0xbd57d22b	-0.052690666
175	0x3e1557c7	0.14584266
176	0x3e5ef10b	0.21771638
177	0xbeb69e0c	-0.35667455
178	0xbe99f70c	-0.30071294
179	0xbe2cc4f7	-0.16872011
180	0xba3cc572	-0.00072010525
181	0x3f07e0b9	0.53077275
182	0x3f09e5d3	0.5386631
183	0x3edaa01f	0.42700288
184	0x3ec2c7ee	0.3804316
185	0x3ec6aad3	0.38802204
186	0xb9e03fc0	-0.00042772107
187	0x3b872e57	0.004125397
188	0xbc3fb035	-0.011699726
189	0xbd8ec850	-0.069718
190	0xbe5aa1fa	-0.21350852
191	0xbe128742	-0.1430941
192	0xbdbf4540	-0.0933938
193	0x3eaa4c1e	0.33261198
194	0x3b5e0f55	0.003388365
195	0x3e3ad164	0.18243939
196	0x3d9bbef4	0.07604781
197	0x3d139a21	0.03603566
198	0x3d990aa4	0.07472733
199	0xbc9290f8	-0.017891392
200	0xbe221082	-0.1582661
201	0x3eb87c91	0.36032537
202	0x3db0954a	0.08622225
203	0xbdd67399	-0.10471267
204	0x3b9428e6	0.004521477
205	0xbcbb9ea4	-0.022902794
206	0x39e03d89	0.00042770457
207	0x3dd53659	0.104107566
208	0xbe9621b7	-0.29322597
209	0x3cea993b	0.02863752
210	0xbe80d771	-0.2516437
211	0x3d9f764c	0.07786235
212	0x3e0b7e51	0.13622405
213	0x3ebd865b	0.37016568
214	0x3e87420b	0.26417574
215	0x3eb9eda4	0.36314118
216	0x3e9d45b2	0.30717236
217	0x3f0ae2f3	0.5425255
218	0xbc19f242	-0.009396138
219	0xbef31742	-0.47478682
220	0xbea9e969	-0.3318589
221	0xbf0857f9	-0.53259236
222	0xbecb6cc7	-0.39731428
223	0xbe6e8727	-0.23293744
224	0xbd3fa351	-0.04678661
225	0x3b83e9ad	0.004025659
226	0x3bb2fc7a	0.0054622265
227	0xbb8823f0	-0.0041546747
228	0x3c2e8a74	0.010653127
229	0xbee3ec7e	-0.44516367
230	0xbf066372	-0.5249549
231	0x3f425c65	0.7592223
232	0x3be712d2	0.007051804
233	0x3baf2561	0.005345032
234	0xbcda4984	-0.026646383
235	0x3eab34a7	0.33438608
236	0x3e48413d	0.19556136
237	0xbe035d1c	-0.12828487
238	0xbd282961	-0.041055087
239	0xbe10d060	-0.14141989
240	0x3ec63cd9	0.38718298
241	0xbe82d965	-0.25556484
242	0xbd3c360c	-0.04594998
243	0xbe9aa515	-0.30204073
244	0x3e82e981	0.25568774
245	0x3e2cb022	0.16864064
246	0x3dbed6fb	0.09318348
247	0x3ee6e6f7	0.45098087
248	0xbe951ed8	-0.29125094
249	0x3e33d9f6	0.17563614
250	0x3e3527e4	0.17690998
251	0x3d44e6c8	0.048071653
252	0x3d5c6e59	0.053816173
253	0xbbec5cdc	-0.007213218
254	0xbe233959	-0.15939845
255	0xbe0e748e	-0.1391165

network.0.bias f4 [200]
0	0x3e1175e1	0.14205123
1	0x3d9c5aa0	0.07634473
2	0xbc1bb072	-0.009502517
3	0xbee4156d	-0.44547597
4	0x3d288038	0.041137904
5	0xbef60644	-0.48051655
6	0xbe9ee1a0	-0.31031513
7	0xbeb46ddf	-0.35240075
8	0xbf1eb637	-0.6199679
9	0x3bb7d2d7	0.005609851
10	0xbf245738	-0.64195585
11	0xbe959d50	-0.29221582
12	0xbe55afa4	-0.20867783
13	0xbee949eb	-0.45564207
14	0xbc8a55b7	-0.016886575
15	0x3ced450c	0.028963588
16	0x3e152609	0.1456529
17	0xbef00312	-0.46877342
18	0xbedcb4ae	-0.43106598
19	0xbcf7ab80	-0.030233145
20	0x3e21555f	0.15755223
21	0x3d6985c2	0.057012327
22	0xbeca8712	-0.39556175
23	0x3dc6a2d5	0.096990265
24	0x3d0a619e	0.0337845
25	0x3e481972	0.19540957
26	0xbe6c6fc4	-0.2308951
27	0x3d31bff2	0.043395944
28	0xbeea1b0a	-0.45723754
29	0x3c26d4cc	0.010182571
30	0xbecace48	-0.39610505
31	0xbc684d4e	-0.014178587
32	0xbcea331b	-0.028588822
33	0x3e32d423	0.17463736
34	0x3e6a6750	0.22890973
35	0xbde638dc	-0.11241314
36	0x3dd59711	0.10429204
37	0x3c1394d8	0.009007655
38	0xbc18123f	-0.009281694
39	0xbca59cab	-0.020216307
40	0xbc9a693c	-0.018849008
41	0xbcbfbd4d	-0.023405695
42	0x3e6de312	0.23231152
43	0xbe86bc71	-0.26315644
44	0xbc1fa9fc	-0.009745117
45	0xbefcd4eb	-0.49381194
46	0xbf4db680	-0.803566
47	0x3e1fea2b	0.15616672
48	0xbcc62dd9	-0.024191784
49	0x3eca77ae	0.39544433
50	0xbf27e72b	-0.6558711
51	0x3dfd7c42	0.12377216
52	0xbdf70c80	-0.12062931
53	0xbe6489e2	-0.22318223
54	0xbe98c5c7	-0.29838392
55	0x3e26baf8	0.1628226
56	0xbec4a3f9	-0.3840635
57	0x3d334218	0.043764204
58	0x3d6536cf	0.055960473
59	0x3ecfd2fe	0.40590662
60	0xbf0f2155	-0.55910236
61	0xbeea9090	-0.45813417
62	0xbc88b48f	-0.01668766
63	0xbef35cd0	-0.47531748
64	0x3bce0598	0.006287288
65	0x3d8d309b	0.068940364
66	0xbcbcb481	-0.02303529
67	0xbe453579	-0.1925868
68	0xbce470b7	-0.027885778
69	0x3e1d40d0	0.15356755
70	0xbd805e88	-0.062680304
71	0x3c1d9fc0	0.009620607
72	0xbf20ecc2	-0.62861264
73	0xbf3b5e70	-0.73190975
74	0xbec9375d	-0.3930005
75	0xbc75a1da	-0.014992202
76	0xbec91fad	-0.3928198
77	0xbf2abbe6	-0.6669296
78	0x3e9f3d11	0.31101277
79	0x3cfe8f7c	0.031074278
80	0xbed860f9	-0.42261484
81	0x3da4bfd5	0.080444016
82	0xbe0cb08c	-0.13739222
83	0x3d1d3297	0.038378324
84	0x3cd1fc5b	0.025633028
85	0x3d876f06	0.06612973
86	0x3e9ac748	0.30230165
87	0xbedaacbc	-0.4270991
88	0xbea3e03a	-0.3200701
89	0x39d2aee0	0.00040184613
90	0x3d87108a	0.065949515
91	0xbf0c44d3	-0.5479252
92	0xbca2e112	-0.019882713
93	0x3e652c83	0.22380261
94	0xbe880f88	-0.2657435
95	0xbe49d8d4	-0.1971162
96	0xbcf6bf0a	-0.030120391
97	0x3d2ff8ac	0.04296176
98	0xbd91f59f	-0.07126927
99	0xbf299e99	-0.66257626
100	0xbd1c0b17	-0.038096514
101	0xbe2f7bf9	-0.17137136
102	0xbce0f6e2	-0.027461473
103	0xbcf84a9e	-0.030309018
104	0x3dfa245e	0.12213968
105	0xbede0ded	-0.4337
106	0x3d8c676a	0.06855662
107	0x3e7e4da2	0.24834302
108	0xbf05eaac	-0.52311206
109	0x3cdbadbc	0.026816241
110	0x3eb5b326	0.35488242
111	0xbed1a5fc	-0.4094695
112	0xbc2cb5c8	-0.010541387
113	0xbf00d3fd	-0.5032347
114	0xbeb103e4	-0.3457328
115	0x3e58724a	0.21137348
116	0x3b64e37b	0.0034925628
117	0xbf34ea39	-0.70669895
118	0x3e082c72	0.13298205
119	0x3eb348b2	0.350164
120	0x3da5c689	0.08094508
121	0x3e1b6ca1	0.15178157
122	0x3c2b3f60	0.0104521215
123	0x3ca3b1f1	0.01998231
124	0xbe0c1f95	-0.13683923
125	0x3d2ab208	0.04167369
126	0xbe56c8a5	-0.20974977
127	0xbee0626f	-0.438251
128	0xbe1de1e9	-0.15418209
129	0x3e243d9e	0.1603913
130	0x3bdcd91c	0.0067397486
131	0xbd407d84	-0.0469947
132	0x3d81abcc	0.06331596
133	0x3e9b9478	0.3038671
134	0xbf137de6	-0.5761398
135	0xbec3480a	-0.381409
136	0xbdf306ea	-0.11866553
137	0xbe92ba24	-0.2865764
138	0x3e4e8f9f	0.20171975
139	0x3dcfcea7	0.10146838
140	0xbdd410c9	-0.10354764
141	0xbc45a2c8	-0.012062736
142	0xbe5e61ee	-0.21717045
143	0x3c98832f	0.01861724
144	0xbd1ec9ae	-0.038766555
145	0xbf3ba30f	-0.7329568
146	0xbc60c513	-0.013718861
147	0xbf02c093	-0.51075095
148	0xbe6830e6	-0.22674903
149	0xbe78d598	-0.2430023
150	0x3e4a5e21	0.1976247
151	0xbec58b18	-0.38582683
152	0xbe651d1e	-0.22374389
153	0xbeb48100	-0.3525467
154	0xbd9cdce8	-0.07659322
155	0xbf122b0f	-0.5709695
156	0xbe9dd8cd	-0.30829468
157	0xbec3770f	-0.38176772
158	0xbf0a5310	-0.54032993
159	0xbee4bf8a	-0.44677383
160	0x3e7387e6	0.2378231
161	0x3e186a0f	0.14884208
162	0xbebd0a87	-0.36922094
163	0x3e0671ab	0.13129298
164	0xbe28338b	-0.16425912
165	0x3d5b1b4a	0.05349282
166	0xbd915f10	-0.0709821
167	0xbe925083	-0.2857705
168	0xbdaea8be	-0.08528279
169	0x3d0b85c7	0.034063127
170	0xbe8bb974	-0.27289927
171	0x3e8784bc	0.26468456
172	0xbeb80cce	-0.3594727
173	0xbe92d899	-0.28680876
174	0xbc829f31	-0.015945049
175	0xbe787e7e	-0.24267003
176	0xbf05d683	-0.52280444
177	0xbde7bb89	-0.11315066
178	0xbd1d0b43	-0.038340818
179	0xbf2143f3	-0.6299431
180	0xbe1c1025	-0.15240534
181	0xbc866724	-0.016406603
182	0xbe0db7f7	-0.13839708
183	0xbe593e09	-0.21215071
184	0xbbeb99ac	-0.00718995
185	0xbedbae6c	-0.4290651
186	0xbdf7c809	-0.120987006
187	0x3dab5381	0.083655365
188	0x3e875832	0.26434475
189	0xbe8512b6	-0.25990838
190	0xbee84fac	-0.45373285
191	0xbe43407b	-0.19067566
192	0x3c645561	0.013936372
193	0xbb6e90d7	-0.003640225
194	0xbf05a9f6	-0.52212465
195	0xbda4eb1e	-0.080526575
196	0x3dfe784f	0.12425291
197	0x3e66989a	0.2251915
198	0xbc6c751c	-0.014432218
199	0x3d60357a	0.0547385

network.2.weight f4 [200, 200]
0	0xbd26515e	-0.04060494
1	0x3cff2036	0.031143289
2	0x3ba3f357	0.0050033736
3	0xbcb9cfc0	-0.02268207
4	0x3ddc0924	0.10743931
5	0xbd8b80bb	-0.06811663
6	0xbd35e097	-0.04440364
7	0xbf2990ed	-0.66236764
8	0x3c91c880	0.017795801
9	0x3c27a968	0.010233261
10	0xbe261ec4	-0.16222674
11	0xbe4e9b22	-0.20176366
12	0x3f76327c	0.96170783
13	0x3f2c9897	0.67420334
14	0xbc92650c	-0.017870449
15	0xbd92c7a9	-0.071669884
16	0xbe82a773	-0.2551838
17	0xbcca9ada	-0.024732042
18	0xbcadefa3	-0.021232432
19	0x3d23877c	0.03992413
20	0x3dc33b39	0.0953278
21	0xbd30e0d1	-0.04318315
22	0xbd5a778b	-0.05333666
23	0x3da0ab16	0.07845132
24	0xbd456197	-0.048188772
25	0xbd6dcf07	-0.058058765
26	0x3d3c0c4c	0.045910165
27	0x3d1ed5a9	0.03877798
28	0x3e451cf8	0.19249332
29	0xbd64bf8e	-0.055846743
30	0xbea9d5f0	-0.33171034
31	0x3f1cdea9	0.6127725
32	0x3e3690b5	0.17828639
33	0xbcb882ba	-0.022523273
34	0xbe459722	-0.19295934
35	0x3ee5c6c2	0.44878203
36	0xbfc8e7a0	-1.5695686
37	0xbd314396	-0.043277346
38	0xbd3a2e15	-0.045454103
39	0xbc9e10f8	-0.0192952
40	0xbd26fc07	-0.040767696
41	0x3e057812	0.13034084
42	0xbe6513a2	-0.2237077
43	0xbefd5bd6	-0.49484128
44	0x3dbe1e9a	0.092831805
45	0x3e80c808	0.25152612
46	0x3e67c751	0.22634627
47	0xbd41230d	-0.047152568
48	0xbd3f7551	-0.04674274
49	0x3d881b88	0.06645876
50	0x3d52d427	0.051471855
51	0x3bd004e9	0.0063482416
52	0xbd5d4609	-0.05402187
53	0xbe0a7c8d	-0.13524075
54	0xbda7e8b9	-0.08198685
55	0xbe82a821	-0.25518897
56	0x3e3043ec	0.1721341
57	0xbb8011c6	-0.0039083688
58	0x3d2cf694	0.042227343
59	0xbe409aa9	-0.18808998
60	0x3eaa05d4	0.33207572
61	0x3e853044	0.26013386
62	0x3d048bde	0.03235995
63	0xbd084344	-0.033267274
64	0x3c9df441	0.019281508
65	0x3d774b05	0.06037428
66	0x3f4d2db2	0.8014785
67	0x3d81fa1a	0.06346531
68	0x3d495c3e	0.049160235
69	0xbcb575ac	-0.022150837
70	0xbdac76f4	-0.08421126
71	0x3e056030	0.13024974
72	0x3ec720ac	0.38892114
73	0xbd9fe84a	-0.078079775
74	0xbc8daad9	-0.01729338
75	0x3c144b61	0.009051175
76	0xbce82538	-0.02833806
77	0xbee6ebbf	-0.45101735
78	0xbd024c19	-0.031810854
79	0xbdf7c645	-0.12098364
80	0xbbc315bf	-0.00595352
81	0x3c3d2072	0.01154338
82	0xbe5ae57e	-0.21376607
83	0x3d0017d5	0.031272728
84	0x3d8ffa96	0.07030217
85	0x3b8f8d77	0.0043808776
86	0x3d38fb58	0.045161575
87	0x3e257e63	0.16161494
88	0x3e38d1b5	0.18048747
89	0x3da16ea0	0.07882428
90	0xbe56b79d	-0.2096848
91	0x3b274fc0	0.0025529712
92	0xbd93caf8	-0.072164476
93	0xbe88d14d	-0.26722184
94	0x3d5859c6	0.05281999
95	0x3e350e18	0.17681158
96	0xbe00c76c	-0.12576073
97	0x3d8ecf95	0.06973187
98	0xbe5131c7	-0.20429145
99	0xbe768a67	-0.24076234
100	0x3e2ed571	0.17073609
101	0x3e549960	0.20761633
102	0xbd83c2f5	-0.064336695
103	0xbc9d7dd8	-0.019225046
104	0x3d82665a	0.06367178
105	0x3d892902	0.06697275
106	0xbacbf2a7	-0.0015559987
107	0xbda33d8c	-0.079707235
108	0xbd070d7b	-0.03297184
109	0x3d906096	0.07049672
110	0xbea196be	-0.3156032
111	0xbd979704	-0.07401851
112	0x3dbba40d	0.091621496
113	0x3ca77929	0.020443516
114	0xbdda74c4	-0.106668025
115	0xbedb2d67	-0.42808077
116	0xbd60303e	-0.054733507
117	0xbc65bcc5	-0.014022057
118	0x3d4e6d96	0.050397478
119	0xbedbf113	-0.42957363
120	0x3ddc5fe7	0.107604794
121	0xbd9f677f	-0.07783412
122	0x3e22e55a	0.15907803
123	0x3c855996	0.01627807
124	0xbefe0a80	-0.49617386
125	0xbe9fd55e	-0.31217474
126	0xbd0cb340	-0.034350634
127	0xbdffe87f	-0.12495517
128	0x3e74d254	0.23908359
129	0x3d8a57d8	0.06755036
130	0xbd8fc240	-0.07019472
131	0xbe9035fc	-0.28166187
132	0xbdba2280	-0.090886116
133	0x3da5fdc8	0.081050456
134	0x3f047bb7	0.51751274
135	0x3e0471b5	0.12934001
136	0xbca35534	-0.019938089
137	0x3d844cf3	0.064599894
138	0x3f9e44a7	1.2364701
139	0x3dfe042c	0.124031395
140	0x3e1565e4	0.1458965
141	0xbd01f7e1	-0.031730536
142	0x3d89b8a6	0.06724672
143	0x3b81b6c3	0.0039585545
144	0x3cc90ec1	0.024543168
145	0x3ce08c88	0.02741076
146	0x3e15916b	0.14606254
147	0xbd2f4988	-0.042794734
148	0x3f17a9c1	0.592434
149	0x3f5914e8	0.84797525
150	0xbe86e77b	-0.2634848
151	0x3db1fabb	0.08690401
152	0xbd12bee5	-0.035826582
153	0x3d01168b	0.03151564
154	0xbd750735	-0.059821326
155	0x3e1321ad	0.14368315
156	0x3db314fa	0.08744235
157	0xbe62c1b5	-0.22144206
158	0x3eaee7f0	0.3416133
159	0xbbf45400	-0.0074563026
160	0xbd03062c	-0.031988308
161	0x3e91625b	0.28395352
162	0xbdb9bd07	-0.09069257
163	0xbcf0e779	-0.02940725
164	0xbd7b8f41	-0.061415914
165	0xbe0f7a9c	-0.14011616
166	0xbc8175d5	-0.015803257
167	0xbe878fbe	-0.26476854
168	0x3cb50694	0.022097863
169	0xbd54b648	-0.05193165
170	0xbda6c5b6	-0.08143179
171	0xbe2066a2	-0.15664151
172	0x3e7aa289	0.24476065
173	0xbe4b8f3b	-0.19878857
174	0xbb880c0b	-0.0041518263
175	0x3e17e66c	0.14833993
176	0xbb993a62	-0.004676149
177	0x3f5f454b	0.8721511
178	0x3dda68e2	0.10664536
179	0xbe0785ab	-0.13234584
180	0x3d3cd2e4	0.04609956
181	0xbe0f49a9	-0.13992943
182	0xbd38d3f9	-0.045124028
183	0xbf89f927	-1.077916
184	0xbc346ef0	-0.011012778
185	0x3e6f2955	0.2335561
186	0x3df0b141	0.117525585
187	0x3db843cc	0.08997306
188	0xbe8c5dcd	-0.27415314
189	0x3ce8b5d5	0.028407017
190	0xbd555539	-0.052083228
191	0xbeaaee9b	-0.33385167
192	0x3e08dd6e	0.13365719
193	0x3cbc7f54	0.023009934
194	0x3bcc85c0	0.00624153
195	0xbed5fd88	-0.41794991
196	0xbe9c57d4	-0.30535758
197	0x3cd80e36	0.026373964
198	0xbdaf518a	-0.08560474
199	0xbd0d05c1	-0.034429315
200	0xbd5f6f10	-0.054549277
201	0x3c07b27f	0.008282303
202	0xbd71ff38	-0.059081286
203	0xbccf6da6	-0.02532084
204	0xbca3eef9	-0.020011412
205	0x3d5d6314	0.054049566
206	0xbd49df3e	-0.049285166
207	0x3cd3c5d2	0.025851164
208	0x3d8ff69d	0.070294596
209	0xbbad77d3	-0.005293825
210	0x3d19caa9	0.037546787
211	0xbdc99b96	-0.09844129
212	0x3c2c7793	0.010526556
213	0xbe140ce5	-0.14458044
214	0x3d3cf7cc	0.046134755
215	0xbc09ccbb	-0.008410628
216	0xbcdb4eeb	-0.02677103
217	0xbe687f70	-0.22704864
218	0xbd0bf438	-0.034168452
219	0xbd3635eb	-0.044485014
220	0xbbcf270d	-0.006321794
221	0xbd5314cc	-0.051533505
222	0x3b8d4dc0	0.004312247
223	0xbd18c1df	-0.037294265
224	0x3d0f2f17	0.034957018
225	0x3ce97160	0.028496444
226	0x3ce79fa9	0.028274374
227	0xbbc8ffcc	-0.006134009
228	0xbca2d1b8	-0.019875392
229	0x3d6359fa	0.05550573
230	0x3cdcb645	0.026942382
231	0xbd822041	-0.06353808
232	0xbddc5b89	-0.107596464
233	0xbc2b4217	-0.010452769
234	0x3c32e892	0.010919707
235	0xbd5728ce	-0.05252915
236	0x3b930073	0.0044861375
237	0xbcb2dcd8	-0.021833822
238	0xbb9c8693	-0.0047767847
239	0xbd9bfb89	-0.07616336
240	0xbd4822c3	-0.048861276
241	0x3cc7198c	0.024304174
242	0xb9bb0626	-0.00035672
243	0xbcd21de6	-0.025649022
244	0x3cb19a13	0.021679914
245	0x3bd99258	0.00663976
246	0x3e1aa022	0.15100148
247	0xbd487143	-0.04893614
248	0xbc899c8c	-0.01679828
249	0x3c863ba0	0.016385853
250	0x3dd6d747	0.1049028
251	0xbcb11814	-0.021617927
252	0xbc2939b8	-0.010328703
253	0xba8b738d	-0.0010639295
254	0x3bb0c418	0.00539447
255	0x3c03abf8	0.008036606

network.2.bias f4 [200]
0	0xbe211925	-0.15732248
1	0x3c96715e	0.018364605
2	0xbe789e98	-0.24279249
3	0x3cd63717	0.026149316
4	0x3df417b1	0.11918581
5	0xbd04e84e	-0.032448106
6	0xbd70c95e	-0.05878579
7	0x3db4a3d9	0.08820314
8	0xbba273b0	-0.0049576387
9	0xbd45e0fd	-0.04831027
10	0xbab57537	-0.0013844137
11	0x3b902c1d	0.00439979
12	0x3d910308	0.07080656
13	0xbcdd5a7d	-0.027020687
14	0x3d9d0a37	0.07667964
15	0x3b9ed48b	0.0048471144
16	0x3d0dfc74	0.034664586
17	0xbd8abf09	-0.06774718
18	0xbd115d21	-0.035489205
19	0xbd0c32ed	-0.034228254
20	0xbc6586c4	-0.014009181
21	0x3c8716b6	0.016490322
22	0x3d4bb8b3	0.04973669
23	0x3dba5f78	0.091002405
24	0xbdc9bc7e	-0.09850405
25	0xbde55bfc	-0.11199185
26	0x3dc0ba62	0.0941055
27	0xba92a8ac	-0.0011189184
28	0xbcabeb56	-0.02098624
29	0x3d180bdf	0.037120696
30	0xbcc5b7bb	-0.024135461
31	0xbe0fc509	-0.14040007
32	0x3d9c3110	0.076265454
33	0xbcb7fe6b	-0.022460183
34	0x3b0c6499	0.0021422266
35	0xbb8acf92	-0.00423617
36	0x3c96caf3	0.01840732
37	0x3ce781c3	0.028260117
38	0xbcb0a9f7	-0.02156542
39	0xbdaaaff2	-0.0833434
40	0xbd93305e	-0.0718696
41	0x3d0af573	0.033925485
42	0xbe0257b4	-0.12728769
43	0xbd3d48e3	-0.04621209
44	0x3ddcfb1f	0.10790085
45	0xbd86f6bd	-0.0659003
46	0xbe5ca395	-0.21546777
47	0x3cf008a6	0.029300999
48	0x3c5682eb	0.013092737
49	0x3e3dd873	0.185396
50	0xbb76b098	-0.003764188
51	0x3d2df2e3	0.042467963
52	0x3dfbc8fd	0.12294195
53	0x3dd9e1cb	0.1063877
54	0xbc5a1a61	-0.013311953
55	0x3d8d7c0e	0.06908427
56	0xbd8edd1b	-0.06975766
57	0xbca84fcf	-0.020545868
58	0xbe08c629	-0.13356842
59	0xbc8ccbbc	-0.017186992
60	0x3d17121b	0.0368825
61	0x3cfde709	0.030993955
62	0xbd26cf83	-0.040725242
63	0xbd2c67b5	-0.04209109
64	0xbe548440	-0.20753574
65	0xbc858569	-0.016298966
66	0xbd86a69a	-0.065747455
67	0xbc8c94a0	-0.017160714
68	0x3c68926f	0.014195069
69	0x3c4b8360	0.012421459
70	0x3e02678b	0.12734811
71	0xbda2e85f	-0.079544775
72	0x3cbd0617	0.023074193
73	0xbc802631	-0.015643211
74	0xbd98249b	-0.07428857
75	0xbc41ede9	-0.011836507
76	0x3d95f15a	0.07321425
77	0xbc8abc88	-0.016935602
78	0x3e0b0304	0.13575369
79	0xbcf0441a	-0.029329348
80	0x3d277c7a	0.040890194
81	0xbbc249fa	-0.005929229
82	0x3c4a171c	0.012334611
83	0xbab01b75	-0.0013435917
84	0x3c81dca5	0.015852282
85	0x3d1e0d8d	0.03858714
86	0xbd1929f5	-0.03739353
87	0xbc0a4fbe	-0.008441864
88	0x3bdda6d8	0.006764274
89	0xbddfaae9	-0.109212704
90	0xbcd9651b	-0.026537469
91	0xbe08a7b9	-0.13345231
92	0xbd0b5ae5	-0.03402223
93	0xbcf218ba	-0.029552806
94	0x3dedb156	0.1160609
95	0xbd6c74a2	-0.057728417
96	0xbd56bb9c	-0.052425012
97	0x3dee3af4	0.11632338
98	0xbe3bd504	-0.18342978
99	0xbc424c2d	-0.011858982
100	0x3b90ecb7	0.00442275
101	0x3cc864b1	0.024462076
102	0xbd91fa3b	-0.07127806
103	0x3dbba060	0.091614485
104	0xbae630fe	-0.0017562208
105	0xbd4e2a4b	-0.050333302
106	0xbd7bf95a	-0.061517097
107	0xbc851269	-0.01624413
108	0xbd583810	-0.05278784
109	0xbc434625	-0.011918579
110	0x3d8e9cdb	0.069635116
111	0xbdb5d07a	-0.088776544
112	0x3d86fe4a	0.065914705
113	0x3d207d97	0.03918227
114	0x3de5cb24	0.112203866
115	0x3cffca33	0.031224346
116	0xbaf66fdc	-0.0018801647
117	0x3db18ae3	0.08669069
118	0xbd12c7da	-0.035835125
119	0xbdaaf57c	-0.08347604
120	0x3d470391	0.048587386
121	0xbcfedc43	-0.031110888
122	0x3ce41723	0.027843064
123	0xbe2c1529	-0.16804947
124	0xbdcbc358	-0.09949368
125	0xbda96836	-0.0827183
126	0xbdc7893c	-0.09742972
127	0xbe837a16	-0.25679082
128	0xbd58d49f	-0.052937146
129	0xbcad5aa1	-0.02116138
130	0xbdc5dffd	-0.09661863
131	0xbe3d1e78	-0.18468654
132	0x3d300ca7	0.042980816
133	0xbd6f34c4	-0.05839993
134	0x3c854bd5	0.016271511
135	0xbe7f819b	-0.24951784
136	0x3b6bc5b1	0.0035975988
137	0xbd572004	-0.052520767
138	0x3d5c2b71	0.053752366
139	0x3d88ac3f	0.06673478
140	0xbdde8d05	-0.10866741
141	0xbd85bf31	-0.065306075
142	0xbdac40a8	-0.0841077
143	0xbd0cc26f	-0.034365114
144	0x3e084a68	0.13309634
145	0xbc725aee	-0.014792187
146	0x3daaeb5e	0.08345674
147	0xbc205536	-0.009785941
148	0x3b95158d	0.004549688
149	0xbd19e8c8	-0.037575513
150	0xbe99ad21	-0.300149
151	0x3d69fc3e	0.057125323
152	0xbbde99d3	-0.0067932396
153	0xbd153538	-0.036427706
154	0xbbc1920f	-0.005907304
155	0x3c5dee9e	0.01354566
156	0xbd86b8e7	-0.06578236
157	0xbddb2998	-0.10701293
158	0xbdb71b24	-0.089407235
159	0x3df263db	0.11835452
160	0xbdc18d03	-0.09450724
161	0x3cb6ce85	0.022315273
162	0x3d06258d	0.032750655
163	0x3d9bfae0	0.0761621
164	0x3e07d018	0.13262975
165	0x3dae2799	0.085036464
166	0xbc7e415f	-0.015518515
167	0xbd490e85	-0.049086113
168	0xbc3b2726	-0.011422908
169	0x3e445929	0.19174637
170	0xba627544	-0.000863869
171	0x3d2c78f5	0.04210754
172	0x3d70c307	0.058779743
173	0x3db36a20	0.08760476
174	0xbcc6e128	-0.024277285
175	0x3d6bbdcb	0.057554048
176	0xbd89f2b2	-0.067357436
177	0xbc0a0ed0	-0.008426383
178	0x3e00da48	0.12583268
179	0x3d542ede	0.05180251
180	0xbdcad8fa	-0.09904666
181	0xbd8afaef	-0.06786143
182	0xbc20d58a	-0.009816537
183	0x3cd73154	0.026268639
184	0xbc483b27	-0.012221134
185	0xbccd40fb	-0.0250554
186	0xbd68b3b4	-0.056812003
187	0x3c36996f	0.01114498
188	0xbd6ccd5e	-0.05781304
189	0xbdb724d4	-0.08942571
190	0xbd4439a0	-0.047906518
191	0xbc2ccfef	-0.010547622
192	0xba23795c	-0.00062360405
193	0x3d86aaa8	0.06575519
194	0xbd83e34d	-0.064398386
195	0xbc998ef8	-0.01874493
196	0xbdcab2b4	-0.09897366
197	0xbe49d06e	-0.19708416
198	0x3d8271ad	0.06369338
199	0x3db7ed95	0.08980862

network.4.weight f4 [3, 200]
0	0x3d7703b9	0.060306285
1	0x3ce981fb	0.028504362
2	0xbd4c7a0f	-0.04992109
3	0x3c953155	0.018212
4	0xbd8b1db1	-0.067927726
5	0xbcab92e2	-0.020944063
6	0x3ae1d825	0.0017230554
7	0x3d7c116f	0.061540063
8	0xbca83763	-0.020534223
9	0xbd34c4ad	-0.044132877
10	0xba9e6bde	-0.001208659
11	0xba907ea3	-0.0011024069
12	0xbd5aa06f	-0.053375658
13	0x3ab31837	0.0013663833
14	0xbd3217c7	-0.043479707
15	0xb9afcc34	-0.00033530744
16	0xbc5b6154	-0.013389904
17	0x3bc6d7b6	0.006068195
18	0x3b878ca9	0.004136641
19	0x3d50bb47	0.05095985
20	0x3d54fc44	0.05199839
21	0x3b1d6d51	0.0024021456
22	0x3cc509c9	0.024052517
23	0xbbc8c2fa	-0.0061267586
24	0x3c31c469	0.0108500505
25	0x3a98ab0c	0.0011647656
26	0xbd0215ab	-0.031758945
27	0xbcd03f86	-0.025420915
28	0xbd0652c4	-0.032793775
29	0xbbc6ffd6	-0.0060729785
30	0x3b9b64a3	0.0047422214
31	0xbb23dc4c	-0.0025003133
32	0x3c011a0c	0.007879745
33	0xbcb51ab4	-0.02210746
34	0x3ca4fa84	0.020138986
35	0x3b034738	0.0020031463
36	0x3bb9a0a4	0.005664902
37	0x3bd683ab	0.0065464578
38	0x3d464466	0.048405074
39	0xbcb773a0	-0.022394001
40	0xbc77f43a	-0.015133912
41	0x3d3ba922	0.045815594
42	0xbd536937	-0.051614013
43	0x3d27698f	0.040872153
44	0xbdbf5c20	-0.09343743
45	0x3d3613af	0.044452365
46	0x3ba7c084	0.005119385
47	0x3c3a3e27	0.011367357
48	0xbd1ea2c5	-0.038729448
49	0xbd0707c9	-0.03296641
50	0x3c098ac0	0.008394897
51	0xbd6e9f0d	-0.05825715
52	0xbd7f5086	-0.062332653
53	0x3d0acc58	0.033886284
54	0xbcddd39e	-0.027078446
55	0xbaada54a	-0.0013248113
56	0xbcbb26e4	-0.022845693
57	0x3db1aeb7	0.08675902
58	0xbd9faeb4	-0.07796994
59	0xbd33bb91	-0.04388005
60	0x3d99b844	0.07505849
61	0xbbdb8cb9	-0.006700125
62	0xbc23f469	-0.010007002
63	0x3d3d073b	0.046149474
64	0x3cd5d26b	0.026101312
65	0xbb93da2d	-0.0045120926
66	0x3b78efc0	0.00379847
67	0x3c8714cb	0.016489407
68	0x3bf23deb	0.007392635
69	0x3d091624	0.03346838
70	0xbd26396b	-0.0405821
71	0xbc4c9eb1	-0.012489007
72	0x3d2650a0	0.040604234
73	0x3c8599b4	0.016308643
74	0x3cfe4844	0.031040318
75	0x3cbddd40	0.02317679
76	0xbd03a4bb	-0.03213952
77	0xbb7b4837	-0.0038342604
78	0xbd9c06bd	-0.07618473
79	0xbba137d5	-0.004919986
80	0xbcc42cd8	-0.023947164
81	0xbb98c958	-0.004662674
82	0x3be606b4	0.007019842
83	0xb9b0d4ca	-0.00033727876
84	0x3c1ca121	0.0095599005
85	0x3cf5eb4d	0.030019427
86	0xbc6f6c84	-0.0146132745
87	0x3cf07bf4	0.02935598
88	0xbc984ffa	-0.018592823
89	0x3c2fe11b	0.010734822
90	0xbd42eecb	-0.047591012
91	0x3d2361ca	0.03988818
92	0xbd81af1b	-0.06332227
93	0x3d35675e	0.04428803
94	0x3d6193a1	0.05507243
95	0x3cafc0b3	0.02145419
96	0x3b5d9d68	0.0033815745
97	0xbd9159e5	-0.07097224
98	0xbcb0a29c	-0.021561913
99	0x3c85cad5	0.01633207
100	0xbd6ac7a2	-0.05731929
101	0x3bb90027	0.00564577
102	0xbaa7c189	-0.0012798767
103	0xbdbca6e8	-0.09211522
104	0xbbff695b	-0.007794542
105	0x3d4150eb	0.04719631
106	0xbd209ee4	-0.03921403
107	0x3d07b29b	0.033129316
108	0xbcfa3962	-0.03054494
109	0x3ccefbf8	0.025266632
110	0x3dc44e78	0.09585279
111	0xbbc47c72	-0.0059962803
112	0xbc2977a9	-0.010343471
113	0x3a8491c1	0.0010114239
114	0xbd856fc5	-0.06515459
115	0x3b285459	0.002568504
116	0x3caddddb	0.021223953
117	0xbd89bcab	-0.06725439
118	0x3c0d7d15	0.008635779
119	0xbcd580bc	-0.026062362
120	0x3d06693c	0.032815203
121	0xbbdab810	-0.006674774
122	0x3b26b005	0.0025434506
123	0x3c7a0659	0.015260302
124	0xbd73b5bf	-0.0594995
125	0x3c662d14	0.014048833
126	0xbd9d2c2c	-0.07674441
127	0xbc5dbb49	-0.013533422
128	0x3c3be7a7	0.011468804
129	0x3c864544	0.01639045
130	0x3b7e1a3f	0.0038772968
131	0xbd68b5a9	-0.05681387
132	0xbb999071	-0.004686408
133	0x3984a53d	0.00025300114
134	0xbc806216	-0.015671771
135	0xbd6ebad0	-0.058283627
136	0xba2e4e23	-0.00066492165
137	0x3d259e04	0.0404339
138	0xbceb0ecc	-0.02869358
139	0x3d35e659	0.04440913
140	0xbc591fb8	-0.013252191
141	0x3d187b6b	0.037227076
142	0xbd10ca15	-0.03534897
143	0xbd3fc4f2	-0.04681868
144	0x3d0cbdb6	0.03436061
145	0xbbc857e3	-0.0061139925
146	0xbd84cbd7	-0.06484192
147	0x3d2bf931	0.041985694
148	0x3cccb369	0.024987893
149	0x3d0596ae	0.032614402
150	0xbd96c16a	-0.073611096
151	0x3d069d69	0.03286496
152	0xbc63916b	-0.013889651
153	0x3d9dac16	0.076988384
154	0x3c9b0984	0.018925436
155	0xbd5987df	-0.053108092
156	0xbbcf0454	-0.0063176546
157	0x3d89979a	0.06718369
158	0xbbf183e9	-0.0073704612
159	0xbbb9cd62	-0.0056702355
160	0xbc4108f9	-0.011781924
161	0x3dda26e4	0.10651949
162	0x3d9575ee	0.07297884
163	0xbc88bc58	-0.016691372
164	0x3d25e8a4	0.040505067
165	0xbb4c59dd	-0.0031181492
166	0x3cfb9ff6	0.030715924
167	0x3df277da	0.11839266
168	0xbc5cf7b5	-0.013486792
169	0xbd183cee	-0.037167482
170	0x3cd99b11	0.0265632
171	0xbb45b4fc	-0.003016769
172	0x3b9fb123	0.0048734113
173	0xbc343b45	-0.011000459
174	0x3cf52256	0.0299236
175	0x3b25b2f7	0.0025283673
176	0x3cb2aaee	0.021810021
177	0xbc8b489f	-0.017002402
178	0xbd6ba9bd	-0.057534922
179	0xbc0290fd	-0.007969138
180	0xbc659a0c	-0.014013778
181	0xbc12db1b	-0.008963372
182	0x3d1b9c36	0.03799077
183	0x39818801	0.00024706128
184	0x3d30af32	0.04313583
185	0x3a9b96a6	0.0011870458
186	0xbd50442b	-0.05084626
187	0xbd40fa5e	-0.04711377
188	0xbd825605	-0.06364063
189	0x3d04bf15	0.032408793
190	0x3d805931	0.06267012
191	0x3d3a8b71	0.045543138
192	0x3afa637d	0.0019103136
193	0xbc09220b	-0.008369933
194	0x3ac0e206	0.0014715798
195	0x3d530374	0.051516965
196	0x3d14db7d	0.036342133
197	0x3bd0352e	0.0063539958
198	0xbc15a248	-0.009132929
199	0xbc69eead	-0.014278096
200	0x3d3185cc	0.04334049
201	0x3cd38c13	0.025823629
202	0x3be55c0c	0.0069994982
203	0xbcfede07	-0.03111173
204	0x3cef3e41	0.02920449
205	0xbbe4655c	-0.006970091
206	0xbb97ee4c	-0.0046365615
207	0xbd6c50ed	-0.057694364
208	0x3d84bb69	0.06481058
209	0x3d17e4b8	0.037083358
210	0x3934c1e6	0.0001723837
211	0x3b5f9116	0.0034113578
212	0x3ceef6a1	0.029170336
213	0xbd5af3be	-0.053455107
214	0x3dce8a1b	0.10084935
215	0x3b0b75d2	0.0021279943
216	0x3e156ab5	0.14591487
217	0x3cc08c2e	0.023504343
218	0xbb2f3d3b	-0.0026739377
219	0xbd257ec2	-0.04040409
220	0x3b71bf40	0.0036887676
221	0xbaea14db	-0.0017858999
222	0x3c400a83	0.011721256
223	0x3dca253d	0.09870384
224	0x3d0d3639	0.03447554
225	0xbb9df554	-0.004820505
226	0xbde2c3a4	-0.11072472
227	0x3ce8d048	0.028419629
228	0x3c822aef	0.015889613
229	0x3bd46030	0.006481193
230	0xbd0866ac	-0.03330104
231	0xbc215bd3	-0.009848553
232	0xbb12218c	-0.0022297828
233	0x3d68d026	0.05683913
234	0x3d7ec20c	0.062196776
235	0x3d4baefd	0.04972743
236	0xbb678fc0	-0.0035333484
237	0x3a4beed9	0.00077794265
238	0x3d9f8ea7	0.07790881
239	0xbcc1d9ac	-0.023663364
240	0x3a726ff5	0.000924825
241	0xbdd1a799	-0.10237045
242	0x3dae2073	0.08502283
243	0xbd8090fe	-0.06277655
244	0x3c6a643c	0.014306124
245	0xbda4cbd0	-0.08046687
246	0x3c34c5ae	0.011033459
247	0xbd848c5d	-0.06472085
248	0xbd10a65b	-0.0353149
249	0xbd549fc0	-0.051910162
250	0x3c669630	0.014073893
251	0xbd0b14c9	-0.03395537
252	0xbd146099	-0.036224935
253	0xbc653fbb	-0.013992245
254	0xbcd1106a	-0.025520522
255	0xbce780e1	-0.028259696

network.4.bias f4 [3]
0	0xbd34186f	-0.043968614
1	0xbbdceabe	-0.0067418506
2	0x3d606ee4	0.054793254
