test_save.pt (torch_old, 1080 bytes, 4 tensors)

network.0.weight f4 [8, 3]
000000 6d 39 8d 3d 5a a9 d0 40 f2 58 90 40 4c d5 e8 be
       0.06895719 6.520673 4.5108576 -0.45475233
000010 7e 0b ac 40 96 c8 2b 40 f8 24 26 bf c8 5e cb 40
       5.376403 2.6841178 -0.6490016 6.35532
000020 9a c7 86 40 98 33 37 c0 28 05 50 c0 61 70 0b 40
       4.2118654 -2.862524 -3.2503147 2.178734
000030 d2 fa d2 3f 7d 49 7c 40 81 6b 3c 40 3c 24 d5 40
       1.6482794 3.9419854 2.9440615 6.660673
000040 cd 69 a0 c0 68 59 e9 3f b7 eb 86 c0 58 67 2f c0
       -5.012915 1.823041 -4.216274 -2.7406826
000050 36 e6 24 40 ef 46 31 3f c7 aa d8 40 c8 78 a0 40
       2.576551 0.6924886 6.770847 5.014744

network.0.bias f4 [8]
000000 7a 94 f9 40 be cd 04 41 e4 8e 07 41 da 22 ef 40
       7.7993746 8.30023 8.472385 7.4730043
000010 06 b6 04 41 0a ef 9f 40 58 6e e0 40 d4 66 f1 40
       8.294439 4.9979296 7.0134697 7.5438023

network.3.weight f4 [3, 8]
000000 08 0b 01 40 93 94 81 3f 1c 87 e2 3f 58 1b a3 c0
       2.0162983 1.0123466 1.7697482 -5.097088
000010 39 8d 15 3d 48 02 b1 c0 6d 75 8f c0 03 82 16 40
       0.036511634 -5.5315285 -4.483084 2.3516853
000020 92 31 8f 3c 56 24 f4 3e cf 9a ed 3e d7 ac 13 40
       0.017479692 0.47683972 0.46407172 2.3074243
000030 2f 9a 90 bf ac 3e 9b c0 44 24 40 40 cb 2f 1b bf
       -1.1297053 -4.8514004 3.0022135 -0.606198
000040 2b 2f d8 40 77 13 f2 40 14 fd d9 40 75 cd b1 40
       6.755758 7.564876 6.8121433 5.55633
000050 7d c7 f5 40 88 20 91 40 82 02 bc 40 d9 54 da 40
       7.6806016 4.535221 5.875306 6.8228574

network.3.bias f4 [3]
000000 f7 9f 47 c1 6b 72 c0 be 86 d3 28 41
       -12.476554 -0.37587294 10.551641
