test_save_model.pt (torch_old, 1600 bytes, 6 tensors)

network.0.weight f4 [8, 3]
00000000: e028 d93f 31bc 11c0 78e2 54bf 47c7 e1bf
00000010: eefa 11c0 6755 8dbf c2f1 8dbf 4c81 50bf
00000020: 82d6 c5bf 60cd 6abe 7c2e 9fbf 0cfc 97bf
00000030: f918 efbf 630e 0bc0 415f fa3d 5e10 393f
00000040: 3600 f53f f77d ce3f 5162 d73f 7fc6 33c0
00000050: 7d57 b9bf 1218 f2bf b099 f43f 2579 963c
1.6965599 -2.2771113 -0.83158064 -1.763894 -2.2809405 -1.1041688 -1.1089404 -0.8144729
-1.5456088 -0.22929907 -1.2436061 -1.1873794 -1.8679496 -2.172753 0.122251995 0.722906
1.9140689 1.6132191 1.6826879 -2.8089902 -1.4479824 -1.8913596 1.9109402 0.018368313

network.0.bias f4 [8]
00000000: 2b4a 07c0 a308 19c0 fe60 f6bf d32b e6bf
00000010: 9c1a 1c40 67ad c83f 7fdc 01c0 d91d 23c0
-2.1139019 -2.3911521 -1.924835 -1.7982124 2.439124 1.5677918 -2.029083 -2.5486968

network.1.weight f4 [8, 8]
00000000: f9b7 08c0 8f73 05c0 8280 ffbf 7610 eebf
00000010: ca95 95bf c703 0e40 5667 09c0 bc94 89be
00000020: 9d6d f8bf e1af eebf a274 ccbf 402e f1bf
00000030: e284 ac3e 1f46 0240 8a0d fdbf 06b5 22bf
00000040: 45b8 d0be 6e9c 08c0 3871 babf 8e6a c6bf
00000050: 5a6d 9f3f e82b 943f 2ec9 8cbd 1a4d 3fc0
00000060: d179 c7bf 1c77 8c3e 63ed 47bf 4d9d 8dbf
00000070: 7d17 9840 b9c1 d83e a75a 98bf 142a c9bf
00000080: 86b8 333f ac53 a9bf 03b2 dfbf 3f5a 91bf
00000090: ed96 1d40 6a3b 483f 2bcb 5a3f f0eb 5fc0
000000a0: 340d 04c0 a3b5 d6bf ca60 2abf e716 d6bf
000000b0: 0c94 a53f f61a 823f 8bdb 0ec0 6164 943e
000000c0: 9579 c4bf f8b4 ecbf 8631 f7bf 284b ffbf
000000d0: a73a 13bf 8288 0b40 d4c9 e0bf 9f76 da3e
000000e0: 3f18 c9bf 163f d9be 06a7 a6bf 9b53 a0bf
000000f0: b59f 7840 5ddd b33e 0eee a2bf 90d0 1dc0
-2.1362288 -2.0851781 -1.9961092 -1.8598773 -1.1686337 2.2189806 -2.1469321 -0.26871288
-1.9408451 -1.8647424 -1.5973094 -1.8842239 0.33695132 2.0355299 -1.9769757 -0.6355747
-0.40765586 -2.1345477 -1.4565802 -1.5501268 1.2455246 1.1575899 -0.068743095 -2.989081
-1.558405 0.27434623 -0.780966 -1.1063629 4.752867 0.423353 -1.1902665 -1.5715966
0.70203435 -1.322866 -1.74762 -1.1355666 2.4623368 0.7821566 0.8546626 -3.4987755
-2.0633059 -1.6774181 -0.6655394 -1.6725739 1.2935805 1.0164478 -2.2321498 0.28982833
-1.5349604 -1.8492727 -1.9311988 -1.9944811 -0.5751137 2.1802068 -1.7561593 0.42668626
-1.5710524 -0.42430943 -1.3019722 -1.2525514 3.8847477 0.35129824 -1.2728899 -2.4658546

network.1.bias f4 [8]
00000000: 1c14 7d3f a911 e23f 681c 0540 7f71 ee3f
00000010: da7f d23f df6e c93f 2c68 e53e 62b9 f73f
0.9885881 1.766164 2.0798588 1.8628386 1.6445267 1.573696 0.4480604 1.9353449

network.4.weight f4 [3, 8]
00000000: 0b19 813f 8b15 f63e a120 41bf cdc8 a2bf
00000010: 0c4d ccbf 8e6b 313f 6b76 8a3f a84e 84bf
00000020: 61e5 e0bd 90e0 32bd e182 3bbf de03 5e3f
00000030: fb3f 44bf 905c ff3e 0d08 ffbd aab6 d63e
00000040: c756 ef3f 72f4 0640 3345 0c40 8563 f83f
00000050: 69f8 e13f b74f 1f40 f9f1 0040 cefb f83f
1.0085768 0.4806331 -0.7544041 -1.271753 -1.5961013 0.6930474 1.0817388 -1.0336504
-0.109812506 -0.04367119 -0.7324658 0.8672465 -0.76660126 0.49875307 -0.124527074 0.41936237
1.8698357 2.1086698 2.1917236 1.9405371 1.7653934 2.4892404 2.0147688 1.9451845

network.4.bias f4 [3]
00000000: 1166 44c1 b436 c03e 610c 2a41
-12.274919 0.37541735 10.628022
