output/learn_fm/best_model/model.pt (torch_old, 167491 bytes, 6 tensors)

network.0.weight f4 [200, 3]
000000 3f 51 00 bf eb f8 74 3d 7d a9 4a 3e 24 f0 34 3f
       -0.5012397 0.0598077 0.19791217 0.70678926
000010 0d bf f3 3e 9f 39 e3 be 87 4b 84 be 3b 7a 14 bf
       0.47606698 -0.443799 -0.25838873 -0.5799901
000020 15 fc 92 3e a2 bc ce 3c bf fe 12 3f 59 20 2a be
       0.28707948 0.025236432 0.5741996 -0.16613902
000030 bd 8b 35 be 7c 8f e8 be 44 cb 10 bf 6b aa a3 bd
       -0.17729087 -0.4542197 -0.5656016 -0.07991489
000040 fd 1b dd be d8 08 ff bc bf df d0 be 52 3d 7b be
       -0.43185416 -0.031132147 -0.40795705 -0.2453511
000050 33 e9 ba bb 17 07 26 bf b1 31 22 bf 2c 03 19 bf
       -0.005704069 -0.6485457 -0.63357073 -0.59770465
000060 2c eb 00 bf 70 a4 ca 3e b0 ef f1 be 61 9b 9e be
       -0.50358844 0.3957858 -0.4725318 -0.3097792
000070 3f b9 24 3f ba 8c 9a be 17 0b 6d bd 5d 41 67 be
       0.64345163 -0.3018549 -0.057871904 -0.22583528
000080 cd 13 d6 be 06 ab d8 3e c0 85 97 bd 26 ab 1c bf
       -0.41811982 0.4231798 -0.07398558 -0.6119865
000090 a6 18 23 bf 63 0d 1e bf f6 81 e4 3c ba a7 f1 be
       -0.63709486 -0.61739177 0.027894001 -0.47198278
0000a0 6f 48 ac be 1b 20 1d bf 0a a9 b1 be 31 62 24 bf
       -0.33649012 -0.61377114 -0.3469928 -0.6421233
0000b0 b5 6c 94 3e db 75 9d be ea 24 19 3d 88 c9 f3 be
       0.28989187 -0.3075398 0.03738872 -0.47614694
0000c0 68 00 81 3d 8c ad c5 3e 6a 89 e2 be fc 13 a8 3c
       0.062989056 0.38608968 -0.44245464 0.020517342
0000d0 d2 93 a6 3d 22 32 27 bf c4 78 71 be bb 9e 21 3f
       0.08133663 -0.6531087 -0.23581225 0.6313283
0000e0 5a ae ac 3d e0 31 92 3e d4 73 05 bf c2 30 ed be
       0.084316924 0.28553677 -0.52129865 -0.46326262
0000f0 6a 89 b8 3d 67 f7 cb be 48 69 d7 be c3 92 bd be
       0.09010585 -0.3983719 -0.4207251 -0.37026033
000100 75 6f 26 3f 0f c4 d3 be 26 48 17 3f 5e 52 eb 3c
       0.6501382 -0.41360518 0.59094465 0.0287258
000110 1b d5 f9 bd 2c a2 17 3f 29 58 5e 3e b6 c7 58 be
       -0.1219885 0.5923183 0.21713318 -0.21169934
000120 23 f3 c6 3e 11 d7 d4 be e7 60 1e be e7 d7 81 bd
       0.38857374 -0.41570333 -0.15466653 -0.06340008
000130 0d b7 d9 bd a7 13 bf bd cf fa 17 3f 64 89 07 be
       -0.10630617 -0.0932992 0.5936708 -0.13236004
000140 dc a4 a4 3e b5 81 f0 be c5 98 e3 bc 86 ab f7 bd
       0.32157028 -0.4697396 -0.027782807 -0.120932624
000150 40 c1 fc be 49 d7 18 be 64 b8 50 bb 15 22 a6 bd
       -0.49366188 -0.14925875 -0.0031848187 -0.081119694
000160 5c 3a 96 be 5d ab 01 3f 79 2c 17 3f 37 68 b9 bc
       -0.293414 0.50652105 0.59052235 -0.022632701
000170 45 57 5c 3e 73 df 17 3f a9 11 e4 3e d2 be 94 be
       0.21517666 0.5932533 0.44544724 -0.29051834
000180 d6 27 56 3d cc 3d 8b 3e 0f bf 62 3e f2 95 2c bf
       0.052284084 0.27195585 0.22143196 -0.674163
000190 bc 73 0c bf f9 31 b8 3e 14 d2 80 be 8f 14 6c be
       -0.54864097 0.35975626 -0.25160277 -0.23054717
0001a0 01 1f c5 be 3a b1 b2 3e d1 f8 22 3f 3d 71 a2 bd
       -0.38500217 0.34900838 0.63660914 -0.07931755
0001b0 37 c0 89 3e b4 7f 12 bf 9f 37 d5 3e 91 27 36 3f
       0.2690446 -0.5722611 0.41643998 0.71154124
0001c0 fd d4 b0 be 5e 4f e1 be 4b 8c b9 be c0 ef 7f bd
       -0.34537497 -0.44005865 -0.36239848 -0.062484503
0001d0 d0 ed 0b 3f c7 96 16 be 2e d4 03 3f ee ea 9d 3e
       0.5465975 -0.14705954 0.51495636 0.308433
0001e0 9d 00 b2 3e 49 1c 72 3e 1c 12 24 3f 1d 42 e8 3d
       0.34766093 0.23643602 0.6409013 0.11340735
0001f0 7d db fd be 8e 98 8b 3e 59 b0 25 3f a0 e9 7f 3e
       -0.4958152 0.27264827 0.6472221 0.24991465
000200 2c 3f ef 3c a3 dc f8 bc 39 86 00 3f 51 64 02 bf
       0.029204927 -0.030378645 0.5020481 -0.5093432
000210 d9 b7 2b bf 74 df 71 3d a5 4c 11 bd 00 98 25 be
       -0.67077404 0.059050992 -0.035473485 -0.16171265
000220 56 c4 2a bf 9b 8c b4 3c 83 53 e2 bd 8a 6e d6 be
       -0.66705835 0.022039702 -0.11051085 -0.4188121
000230 7f b4 5b bd ed da 29 3f ed 15 ca bd 24 26 2b 3d
       -0.05363893 0.6634968 -0.09867463 0.04178442
000240 30 bd f9 bd 7e ad 4a be d4 e6 75 3e d7 29 dd 3c
       -0.12194288 -0.19792745 0.24013835 0.02699749
000250 07 44 8d be 14 3a 86 be ac 35 2f 3e 19 b7 ce be
       -0.27590963 -0.26216185 0.17110318 -0.40374067
000260 61 5e a0 be 83 40 90 3e 44 c9 e0 be 9d 69 d7 be
       -0.31322005 0.2817422 -0.43903553 -0.42072764
000270 f1 ee 04 3f 83 0a 1f 3f 21 19 dc 3e 38 14 23 bf
       0.51927096 0.62125415 0.42987922 -0.63702726
000280 8f 7c 1f bf ab 61 15 3e 58 5c 89 3b 53 ee 9d 3e
       -0.62299436 0.14588039 0.0041919164 0.3084589
000290 34 85 33 3f 61 96 35 bf 17 2b 2b bf f9 05 05 be
       0.70125127 -0.70932585 -0.66862625 -0.1299056
0002a0 8d b8 29 3f c6 9d c2 be 8f 10 93 bd 41 9f 36 bf
       0.6629723 -0.38010997 -0.07180893 -0.7133675
0002b0 2e c5 c5 3e 38 7e eb be a9 0f 25 3e 94 af 0b bf
       0.38627 -0.45994735 0.16119255 -0.54564786
0002c0 af d9 32 3e 1c fb ec 3d 5f c5 b6 be dc 59 1c bf
       0.17465852 0.11571333 -0.35697457 -0.61074615
0002d0 43 61 14 bf 93 63 e4 be 94 1a ca be 3b d9 0d bf
       -0.5796091 -0.4460722 -0.39473403 -0.5540959
0002e0 9c c1 68 3e a3 da 8a be 39 a6 fb be d6 9f d0 3e
       0.22730106 -0.27119932 -0.49150255 0.40746945
0002f0 81 3d c1 bc 6f d5 9d be 4e 56 cd 3e ae 0e 1e 3f
       -0.023588898 -0.308269 0.40104908 0.6174115
000300 aa 04 ee 3e 43 32 db bd 3f b0 54 be 67 be c5 be
       0.46487933 -0.10702946 -0.20770358 -0.38621828
000310 25 87 15 bf 77 66 cf 3c 50 53 af 3d d6 57 87 3d
       -0.5840934 0.025317414 0.085608125 0.0660855
000320 ef 17 a1 3e 26 37 28 bf 91 46 81 3e c9 2f 39 be
       0.31463572 -0.6570915 0.2524915 -0.18084635
000330 23 4b dc bb bf 78 f1 be 80 7d d4 be 33 7a 2e 3e
       -0.006722824 -0.47162434 -0.41502 0.17038803
000340 e5 a5 03 bf bd d7 a5 be 8e 10 78 3d 23 8a a4 be
       -0.5142501 -0.32391158 0.060562663 -0.3213664
000350 a1 ed 9e be c3 d0 18 3f 93 89 5a 3e a3 34 ce be
       -0.3104067 0.59693545 0.21341543 -0.40274534
000360 d7 92 cd 3e 01 33 b4 be 1e 9f fd bd db 54 50 3f
       0.40151092 -0.35195163 -0.12383865 0.8137948
000370 1d 17 96 3d 06 8d 49 bb 92 da 3a bf ad 69 5d 3e
       0.07328627 -0.0030754223 -0.7298976 0.21622343
000380 4c d2 8d be 7a 0a 41 3e c2 1a 11 bf b2 7e b1 3e
       -0.27699506 0.18851653 -0.56681454 0.34666973
000390 18 c8 be 3e 9b 31 00 3f 5e 1b 4d be 57 b6 02 be
       0.37262034 0.5007569 -0.20029971 -0.1276487
0003a0 38 b1 9e be 8f f6 16 3f de cf 82 3e 91 c3 2e be
       -0.30994582 0.5896997 0.25549215 -0.1706679
0003b0 84 3c 08 bf 30 0a 97 3e c8 1a b0 3e d1 81 d3 bc
       -0.5321734 0.2949996 0.34395432 -0.025818737
0003c0 7a 30 ab bd f6 a6 25 3f 1d a0 6e 3c f7 42 fb 3e
       -0.083588555 0.6470789 0.014564541 0.49074528
0003d0 31 ea 2a bf 75 6c dc be e2 e5 0b bf d8 16 24 bf
       -0.667636 -0.43051496 -0.5464765 -0.64097357
0003e0 38 be 03 bf 27 e9 c3 be c7 97 bb be ce 8b cd 3e
       -0.51462126 -0.3826382 -0.36639234 0.40145725
0003f0 d7 86 c1 3c 3e 9c 05 bf 1c ba ae bd 75 f4 17 bf
       0.023623867 -0.5219153 -0.08531591 -0.59357387

network.0.bias f4 [200]
000000 7a 1a 21 bc 2f f5 06 bf 0d 82 22 bf 1e f2 67 be
       -0.009832973 -0.5271787 -0.6347969 -0.22650954
000010 4d 51 d0 3e d1 e5 f8 3e b9 f3 08 bf ed e4 cb 3d
       0.40687028 0.48612836 -0.5349689 0.099557735
000020 dd e0 52 be 6a 11 de 38 4e db 89 3e 8a 10 9c be
       -0.20593591 0.000105890285 0.2692513 -0.30481368
000030 9a aa e0 be c3 a2 e7 3e 58 a2 b1 3e 45 d2 da 3e
       -0.4388016 0.45241365 0.3469417 0.42738548
000040 88 07 0c 3f f2 d2 04 bf 13 1d 02 bf 9c 66 e0 3e
       0.5469899 -0.51884377 -0.50825614 0.43828285
000050 a4 28 fe bd b5 0e f3 be 37 31 46 be fe 68 14 3c
       -0.12410095 -0.47472158 -0.19354711 0.009058235
000060 27 17 f2 3e 24 9f 01 3f 05 78 ed bd 72 43 00 bf
       0.4728329 0.50633454 -0.115951575 -0.50102913
000070 84 10 0e bf d9 87 01 be 0e 57 99 3e 5d 3b 39 bd
       -0.5549395 -0.12649478 0.2994923 -0.04522263
000080 80 fb 1f bf ec 74 a5 3e 56 d1 84 bb a3 21 8e 3e
       -0.62493134 0.32315767 -0.004053275 0.27760038
000090 53 5c 0a bf de fc c2 3d cc be 0d bf 37 04 69 be
       -0.54047126 0.09520887 -0.5536926 -0.22755514
0000a0 45 64 5b 3e cb 73 a0 be 60 69 58 3b 2f 10 77 3d
       0.21424969 -0.31338343 0.0033021793 0.06031817
0000b0 3a 1a 71 be e1 47 e4 3d 8e 24 02 3e 93 b2 c8 be
       -0.23545161 0.11146522 0.12709257 -0.3919874
0000c0 b4 e7 f7 be 47 cd 42 bc 4a 8d c6 bd 73 ab b9 3e
       -0.48418963 -0.011889762 -0.096949175 0.36263618
0000d0 a4 4b 21 bf 71 eb 99 bd 90 63 0c 3e ed 32 4e 3d
       -0.63006043 -0.0751561 0.13709855 0.050341535
0000e0 48 3f d0 be 11 0c cc 3e 5b aa fc be 03 20 00 3f
       -0.4067328 0.39852956 -0.4934872 0.50048846
0000f0 86 f3 5d be 2f 56 d8 3e bf c8 19 bf 62 5d 35 bd
       -0.21674928 0.42253253 -0.6007194 -0.04427851
000100 45 e2 99 3e d8 04 b4 3e 7e 05 b6 3e a1 b0 ce be
       0.30055442 0.35159945 0.35551065 -0.40369132
000110 40 14 19 3f 41 6c 76 be a3 62 84 3e 40 ba 6d 3e
       0.59796524 -0.24064733 0.25856504 0.2321558
000120 01 78 0c bf 3d bd 26 3f b8 9d 0b 3f 5c ef c8 3e
       -0.5487061 0.65132505 0.54537535 0.39245117
000130 3c 8b 64 be b4 b6 59 be b7 47 a9 3e 55 5e f8 3e
       -0.22318739 -0.21261102 0.33062527 0.4850947
000140 93 60 a6 be a6 65 2c be 1b 45 c0 3d 21 95 2c bf
       -0.32495555 -0.16835651 0.09388181 -0.6741505
000150 ea b6 55 be 27 bf a5 3e 35 fb 15 3f 1b e3 27 3f
       -0.20870557 0.323724 0.58586437 0.6558091
000160 f1 49 e5 3e c6 07 01 bf fc 53 8a 3d fd 66 c0 3e
       0.44782975 -0.50402486 0.067543 0.37578574
000170 fc 08 d8 3e 34 ff 94 3e 08 c4 16 3f a0 ad d0 be
       0.42194355 0.29100955 0.5889287 -0.40757465
000180 f5 b1 1a bf 3e 85 ab 3d 00 b6 b1 3e f4 3b 3f be
       -0.6042779 0.08375023 0.34709167 -0.18675214
000190 9e 1d 12 3f 64 5c db 3e ed 1f 01 3f ea 75 fa 3e
       0.5707644 0.42843926 0.5043934 0.48918086
0001a0 09 2d 1b bf 35 8f 0c 3f 20 f7 cb 3e 28 80 cb 3e
       -0.60615593 0.54906017 0.3983698 0.39746213
0001b0 2d c5 8c be 09 1d 24 3f 12 f6 f7 bd 8a 35 b9 be
       -0.27494183 0.64106804 -0.12107481 -0.3617366
0001c0 3e 0d b6 be 7f ef bd 3e f6 db f0 bd df 1f dd be
       -0.35556978 0.37096784 -0.11760704 -0.43188378
0001d0 37 b8 c8 3d c5 a7 a0 bd f4 d2 94 3e af 1d 1c 3e
       0.09800761 -0.078444995 0.29067194 0.15245698
0001e0 54 52 1a bf 94 72 1e bf e7 3e ed be 09 f8 9e bd
       -0.6028187 -0.6189358 -0.46337053 -0.07762153
0001f0 db ad 50 3e 19 1a e3 3e f3 1e 7c be fd 1e 05 bf
       0.2037882 0.44355848 -0.24621181 -0.5200041
000200 82 30 79 be 2f 84 c5 3e 6c 83 11 3f b2 e8 0d 3f
       -0.2433491 0.3857741 0.5684116 0.5543319
000210 34 2b d7 3e 06 cf 2a be 87 34 20 3f 3b c6 06 3e
       0.4202515 -0.16680536 0.6258015 0.13161556
000220 c2 43 a1 3e cd 68 d3 3e 9b 0d 8a be 4c 57 c5 3e
       0.31497008 0.41290894 -0.26963505 0.38543165
000230 aa 1a 56 3e 07 f0 da be ba a4 2b 3e d6 23 fe be
       0.20908609 -0.4276125 0.16762057 -0.49636716
000240 27 ce 9c be f8 70 1d 3f 18 71 18 bf 86 3d 16 3f
       -0.30626032 0.615005 -0.5954757 0.5868763
000250 0c 10 3c 3e 6d 29 05 3f 4c 7a ce 3d 6e ae 14 bf
       0.18365496 0.52016336 0.1008192 -0.5807866
000260 dc 33 e1 3e f1 b7 1b 3e fd 5c 7a 3e 2b da 51 3e
       0.43984878 0.15206887 0.24449535 0.2049338
000270 37 ec 06 3f 82 e4 0e bf bd e1 95 be db b0 b4 3d
       0.52704185 -0.55817425 -0.29273787 0.08822795
000280 54 b1 c8 3e 5f 3b e2 be 90 d0 04 bf f7 e8 d9 3e
       0.3919779 -0.44185922 -0.5188074 0.4256055
000290 2a 9f dd 3e 1c b4 b8 be 69 2a 3f 3e ef d6 1e 3f
       0.43285495 -0.36074913 0.18668522 0.6204671
0002a0 25 9e 9c be e2 3d fb be ce 1b 4c be b0 d3 0c 3f
       -0.30589405 -0.4907065 -0.19932482 0.5501051
0002b0 74 7a 8d be 67 e9 e9 bc 9c 7d 0d be 00 f0 0f 3f
       -0.27632487 -0.028553678 -0.13817447 0.56225586
0002c0 3b 90 58 3d a6 e9 7f 3e 8d 12 ba be 46 37 fa 3e
       0.052871924 0.24991474 -0.36342278 0.48870295
0002d0 52 53 2b bf 0c b3 ed 3e 82 dd fa be e5 77 e0 be
       -0.6692401 0.46425664 -0.48997122 -0.43841472
0002e0 7f 6e bf 3e 7d 95 03 bf 6e f8 dd 3e 2a a7 9a 3e
       0.3738899 -0.51399976 0.433536 0.3020566
0002f0 79 34 d5 be 23 ab aa be 4e 87 11 bf c0 b1 ac 3d
       -0.41641596 -0.33333692 -0.56847084 0.084323406
000300 39 5d f0 3e e5 8f 8a 3d 68 62 0a bf 3e 95 fe be
       0.46946123 0.06765727 -0.54056406 -0.49723238
000310 d4 b4 d4 be 86 59 1b 3f f8 23 13 bf df ec 67 3d
       -0.4154421 0.60683477 -0.5747676 0.056622382

network.2.weight f4 [200, 200]
000000 a9 a9 1c bd 1d b1 e0 3d e6 a7 6f 3d 43 56 d7 bc
       -0.038247738 0.10971282 0.05850973 -0.02628625
000010 a1 54 23 3d 1e 25 59 bd ee e6 54 3d 38 9c ec 3d
       0.03987563 -0.053013913 0.051978044 0.11553234
000020 28 49 a1 3c da a6 8c bd bf 3e 99 bd 5a b0 09 bc
       0.019688204 -0.06867762 -0.07482671 -0.008403862
000030 66 24 97 3d 98 56 78 bd 04 a3 bd bd 9f e8 be bd
       0.07379989 -0.060629457 -0.092596084 -0.09321713
000040 5d 91 8f 3c 85 4f 2f 3d 85 10 05 bd 61 f9 d6 bc
       0.01752537 0.042800445 -0.032486457 -0.02624196
000050 7d d9 02 3d c5 76 11 bd 12 1b 3d 3c a4 fb 9a 3c
       0.031945694 -0.035513658 0.011542099 0.01891882
000060 a5 b9 f0 3c 17 f2 12 bd 5f 9c 05 3e 0e 6e b7 3c
       0.029385397 -0.035875406 0.13047932 0.022391345
000070 ac 59 37 3d 1c 8f 14 bd e7 49 f1 bc a1 0c 93 3d
       0.044763252 -0.036269292 -0.029454185 0.07180143
000080 a1 ad 63 3d 53 d6 c8 3a 67 c9 8f bd 79 0f 39 3d
       0.055585507 0.0015322663 -0.07020836 0.04518077
000090 8e 87 3d 3d 6a c3 9d 3d 81 44 49 bd 88 ae 7b 3d
       0.046271853 0.07703288 -0.049137596 0.061445743
0000a0 a3 75 8e bd 69 4a 84 3c 4e 62 37 3d 53 a4 88 bd
       -0.06956031 0.016148763 0.044771485 -0.06671967
0000b0 d4 50 94 3c f9 f7 ea 3c 26 4d d9 bd d4 8e f9 3d
       0.018104948 0.028682696 -0.10610418 0.121854454
0000c0 43 38 e6 ba fd 75 fe 3c 69 c1 f6 ba a0 1c 43 bd
       -0.0017564375 0.03106212 -0.0018825951 -0.04763472
0000d0 17 f4 55 3d e9 1e 1c bd 73 e2 db bc 43 ae 58 3c
       0.052234735 -0.038115416 -0.026841378 0.013225141
0000e0 f9 0b fc bc bf af 21 be 69 8c 87 3d e5 9b 92 bd
       -0.030767428 -0.15789698 0.06618578 -0.07158641
0000f0 8f ed 27 bc 1b a6 af bd cb 75 56 3d ca 56 94 bc
       -0.0102495095 -0.08576604 0.05235843 -0.01810779
000100 f5 a5 83 bb f5 fd d8 bd 68 15 9c bd 76 a9 1d 3d
       -0.0040175864 -0.105953135 -0.076212704 0.03849169
000110 8e c6 20 bd 73 8e ad bc 9e 4a 27 bd 67 37 58 3d
       -0.039251857 -0.02118609 -0.040842645 0.05278721
000120 1c 84 7d 3d 09 ef b1 3c 30 64 1a be 72 c7 c9 bc
       0.061893567 0.021720426 -0.15077281 -0.024631236
000130 95 59 2f 3d 2d 64 5a bd 8b 71 3a bd f8 e7 84 bd
       0.04281004 -0.05331819 -0.04551844 -0.06489557
000140 7d 38 02 3d ee 49 ac bc 4e 42 54 b9 e4 f0 d1 bc
       0.031792153 -0.021031346 -0.00020242596 -0.02562756
000150 62 24 64 bd cd 99 07 bd ff 4a 5a bd 8b 1a bb 3c
       -0.05569876 -0.03310566 -0.053294178 0.022839805
000160 f0 0e 27 3d 6d 3e 45 bd 1e 87 45 3d fd 3f 53 bd
       0.04078573 -0.048155237 0.04822456 -0.051574696
000170 5b 26 81 3d 2a f7 0b bd 08 1e 2d 3d 31 43 7d 3d
       0.06306144 -0.03417126 0.04226497 0.061831657
000180 cb e7 19 bd 87 4e 12 3d c0 55 ab 3c 4a ee 81 3d
       -0.03757457 0.03571942 0.020914912 0.06344278
000190 52 6f 9c 3c 1d 1b 83 bd 70 af 99 bc 5b 8f bf bd
       0.01909605 -0.06401656 -0.018760413 -0.09353515
0001a0 99 37 05 bd a5 4c ca bd 07 06 fd bc e7 f2 fc bd
       -0.032523725 -0.098779 -0.030886663 -0.123510174
0001b0 f2 a0 93 bc 71 62 00 3a 82 21 91 3d 70 44 e0 3c
       -0.01802108 0.00048974814 0.07086469 0.027376384
0001c0 31 d1 0f 3d bb 1b a4 bd 3b c0 93 bd 7c 01 cd 3b
       0.03511161 -0.08013102 -0.072143994 0.0062562805
0001d0 31 9e 24 3d e7 91 66 bd cd 10 7e bd c4 bd fc bb
       0.040189926 -0.056291487 -0.06202774 -0.0077130515
0001e0 69 95 60 bd ab a3 eb 3d 46 85 3a bc c5 c5 a8 3d
       -0.05482999 0.115058266 -0.011384314 0.082408465
0001f0 bb dd 98 bd 70 66 a1 bd e6 c6 58 bc 7d 01 6c bd
       -0.07464167 -0.078808665 -0.013231015 -0.057618607
000200 36 75 e6 3c 22 7d a5 bc 17 59 1d bd ca 76 9c bb
       0.028132062 -0.02020127 -0.03841504 -0.004774903
000210 53 63 c9 bc 77 38 2c 3d da 7a 97 bd 26 6d 24 be
       -0.024583494 0.042046037 -0.07396479 -0.16057262
000220 01 92 d8 bd 15 ae ce bc b1 a6 97 3d a9 16 f6 bc
       -0.10574723 -0.025229493 0.07404841 -0.030040102
000230 39 4a 94 bd 34 46 49 bd fc 5d 33 bd f3 9e bc 3d
       -0.07240719 -0.049139217 -0.043790802 0.09210005
000240 5e b9 9b 3d ab 69 a4 bc b7 fe 94 3d 31 56 40 bd
       0.07603715 -0.020069918 0.072751455 -0.0469572
000250 33 23 e1 bd 54 ef cc bd 13 6a 19 bd 15 b9 a6 3d
       -0.10993042 -0.10006586 -0.037454676 0.0814077
000260 14 92 92 bd f3 ed db bc 5e 5e 72 3d 6b e2 10 3d
       -0.071567684 -0.026846861 0.059172027 0.03537218
000270 3b f9 23 bc 76 da 4e 3d 54 2b ae 3c d6 5a 3b 3c
       -0.010008152 0.05050131 0.021260895 0.011435231
000280 12 be 14 be 52 68 62 bd 89 cc 87 3d 84 84 37 bd
       -0.14525631 -0.05527527 0.06630809 -0.04480411
000290 45 53 0f 3d 55 6c 32 bd b3 af 99 3c a0 29 ff 3b
       0.03499152 -0.043560345 0.018760538 0.0077869445
0002a0 1f ca f4 3b 14 62 9c ba 32 5b a6 bd 29 ed 00 be
       0.007470384 -0.0011931085 -0.08122863 -0.1259047
0002b0 c6 0c 1f bd 3d af f4 bb 62 fc b2 ba 30 19 d7 bc
       -0.03883054 -0.007467179 -0.0013655538 -0.026257128
0002c0 e1 d3 4f bd 0d 1e 0e be 0c 46 24 bc a4 d7 b1 b9
       -0.050739173 -0.13878651 -0.010026466 -0.00033920736
0002d0 ba ba 9b 3d c3 ae 61 bd 79 33 29 b9 ba 15 8b bc
       0.07603975 -0.055098306 -0.00016136271 -0.016978133
0002e0 a7 cf 14 ba 3c bd 9b bb 64 ef c5 ba 51 8d 17 3d
       -0.00056766946 -0.004752783 -0.0015101251 0.037000004
0002f0 c2 73 e3 3c 51 a0 1b 3d 47 16 01 3d 6b 75 19 3d
       0.027765159 0.037994687 0.031515386 0.037465494
000300 cb 63 83 bd 61 28 28 bd e3 d4 a6 3d 02 e2 81 3c
       -0.064155184 -0.041054133 0.08146074 0.01585484
000310 01 b3 9d bc 99 cb 31 ba e4 0d bf 3d b4 2c 88 bd
       -0.019250395 -0.00067823526 0.09328821 -0.066491514
000320 ba 47 8e bd b3 c3 36 3d b0 a3 a0 3d f2 7b c9 3d
       -0.069472745 0.044620227 0.07843721 0.09838094
000330 51 ab ab bc ca 74 4c bc 66 05 c6 ba a9 3b 9d 3d
       -0.020955713 -0.012479017 -0.001510781 0.07677395
000340 b7 63 47 3c f6 2f e5 bb 76 16 63 bd a6 3c a1 3d
       0.01216977 -0.006994243 -0.055441342 0.07872896
000350 8a a7 14 3b b9 0e 6b 3d 96 69 ea bd 4d 81 d9 bd
       0.002268287 0.057387087 -0.1144592 -0.10620365
000360 f4 e7 b5 bd 1e bb 75 bc 7f 86 3e bd be 74 c1 bc
       -0.08882132 -0.0149982255 -0.046514984 -0.023615237
000370 ea 5b 99 bd 01 6a 43 bd 1a 2c 65 3d 2b 40 38 bd
       -0.07488234 -0.047708515 0.05595026 -0.04498307
000380 12 60 15 3d 5e 3c 8e bc 24 30 fa 3d 4d 06 de 3c
       0.036468573 -0.01736277 0.12216213 0.027102614
000390 ee 98 29 3d d8 5f 9e 3c a2 4d 8c 3d 37 3a 16 bd
       0.04140561 0.019332811 0.06850745 -0.03667661
0003a0 27 84 83 bc 29 80 a6 bd 46 8e 6b bd d9 de 1e bd
       -0.016054226 -0.08129913 -0.05750873 -0.038786743
0003b0 2a f1 2b 3d 84 2c 4e bc 5a 27 a2 3d cb 67 a6 3d
       0.04197804 -0.012583856 0.07917662 0.08125266
0003c0 1c 07 ad bc ca 1a 3f 3d 4f cb 4a 3d e6 e2 01 bc
       -0.021121554 0.046656407 0.049510296 -0.007927632
0003d0 e9 3b 18 bd 05 b7 31 3c 1b a5 84 bd 44 e4 50 3d
       -0.03716651 0.010846858 -0.06476804 0.05099894
0003e0 6a 54 2a bd d8 aa 27 bc a0 93 53 3d d4 72 85 3d
       -0.04158441 -0.010233603 0.051654458 0.06516042
0003f0 5e 47 17 bc 81 33 4e 3b fd c7 17 bd fb ce c8 3c
       -0.009233324 0.0031463804 -0.037055958 0.024512758

network.2.bias f4 [200]
000000 ef d5 f7 bc 3f 30 5f bd 64 14 d2 3d f2 35 b6 bb
       -0.030253379 -0.05448937 0.102577955 -0.00556063
000010 96 48 cf 3d 85 4c 06 3e 8e d6 04 3d 62 f0 83 bd
       0.101212665 0.13115127 0.032431178 -0.06442334
000020 f7 65 9b bd 40 c4 4e 3d c9 ef e9 bd 73 00 38 bd
       -0.075878076 0.050480127 -0.114226885 -0.044922303
000030 e6 ff 6e bc 9b f9 af 3c bc 9e c5 3d 33 3d b3 3d
       -0.014587378 0.021481326 0.09649417 0.08751907
000040 2d f9 82 bc 28 fa 89 3d 49 10 24 bd fa 7c 43 bc
       -0.015987957 0.06737167 -0.040054593 -0.011931652
000050 57 4a ad bd 50 d8 a5 3c 4f e9 59 3b f3 e7 97 bd
       -0.08461445 0.020244747 0.0033250635 -0.07417288
000060 94 70 9a bc 20 3b 48 3d 24 f2 80 3d 4b dc 56 bd
       -0.01885251 0.04888451 0.06296185 -0.05245618
000070 15 0e 1c 3d 51 59 94 bc df 08 15 3c a1 d0 83 3d
       0.038099367 -0.018108996 0.009096353 0.06436277
000080 92 9a ac bc dc a3 2c 3d 53 d8 4d 3c 31 20 c8 bc
       -0.021069799 0.042148456 0.012563783 -0.024429413
000090 95 5e c0 3d 1b 9f 89 3d 22 99 ae bd 87 66 0a bd
       0.0939304 0.067198 -0.085253015 -0.033789184
0000a0 c0 bf cc 3d e2 5f b9 3d bc 43 8b bd ab dc 06 bd
       0.09997511 0.09051491 -0.06800029 -0.03292529
0000b0 6a d9 a7 3d f7 06 f4 3c 93 16 00 bd b3 47 4a bd
       0.08195765 0.029788477 -0.03127153 -0.049384784
0000c0 94 f9 91 bc 18 c6 3b 3d 85 99 99 3d 02 57 87 3d
       -0.017819203 0.045843214 0.07499985 0.06608392
0000d0 dc f8 85 3d 9a e3 a1 3d 7d ce c8 3c b0 9a 11 bd
       0.06541607 0.0790474 0.024512524 -0.035547912
0000e0 28 8c 69 bd 35 cc 94 bd 45 c8 4f 3c 39 97 05 bc
       -0.05701843 -0.07265512 0.012682025 -0.00815373
0000f0 38 45 b5 bb 90 d5 b8 b9 52 74 c9 3b a2 db 31 3d
       -0.005531933 -0.0003525433 0.0061478997 0.04342235
000100 1f 85 e3 3d 17 89 d1 bc 2d 55 76 3d 98 15 b1 bd
       0.11109375 -0.025578065 0.060139824 -0.08646697
000110 7a 8d 84 3d 6e b3 cd bb 7f 44 fe bc ef 75 30 3d
       0.06472297 -0.006277493 -0.03103852 0.04308122
000120 bf 1d 85 bd 4e ad ba 3c dd ed 78 3d b8 99 c8 3d
       -0.06499814 0.022787716 0.06077372 0.097949445
000130 4d a3 04 be a6 f1 52 3d 6b 61 27 3d 0c 72 ab bb
       -0.1295292 0.051499985 0.04086439 -0.0052321013
000140 c0 90 8e bc b4 66 85 3d 12 96 54 bc f2 02 91 3c
       -0.017403007 0.0651373 -0.012975233 0.0177016
000150 03 93 8d bd 29 38 4c bd 32 5c 44 bd c4 87 e4 3d
       -0.06912806 -0.049858246 -0.047939487 0.11158708
000160 75 ef c9 bd f1 a1 07 3d 0c a9 1c 3d 94 ff af 3d
       -0.09860126 0.033113424 0.038247153 0.085936695
000170 a3 98 02 3d da 68 38 bd 79 ff c1 3d 8e 9f 2e bd
       0.031883847 -0.04502187 0.09472556 -0.042632632
000180 ee 6e 3f 3c 89 57 a4 3a 6a 27 b7 bd 41 28 08 bc
       0.011684163 0.0012538295 -0.089430645 -0.0083103785
000190 23 70 e9 bc 51 22 e0 bc f7 3f a2 3c 89 d4 25 3c
       -0.028495854 -0.027360113 0.019805891 0.010121473
0001a0 16 ab e9 3d cb fa c1 bd c1 64 14 bd 0a 25 f5 bb
       0.11409585 -0.09471663 -0.0362289 -0.007481222
0001b0 a4 68 8b 3d ee c6 c1 3d fa 13 ea 3d 28 2c a8 bd
       0.06807068 0.09461771 0.114295915 -0.08211547
0001c0 f1 70 d7 bc 05 7d cc bd 43 da 42 bd e3 52 d2 bb
       -0.026298972 -0.09984783 -0.04757143 -0.0064185723
0001d0 92 43 2a bd be 3c 8c 3d 9a 23 ba bd b5 26 4d 3d
       -0.041568346 0.06847523 -0.09088822 0.050085742
0001e0 f0 76 1a bd 2f 13 38 3d c6 96 e7 bc b6 da 85 3d
       -0.037711084 0.04494017 -0.028270137 0.065358564
0001f0 a7 44 7b bd b7 c8 75 bd 65 f4 86 bc 1c bf 74 bd
       -0.06134477 -0.06000587 -0.016473958 -0.05975257
000200 b2 b6 3b 3c 91 01 f7 3c 6d ac 4f bd ea 0b 31 bd
       0.011457132 0.030152114 -0.050701547 -0.043224253
000210 d0 71 bd b8 e3 04 29 bd 13 e2 63 bd b1 b8 b7 3c
       -9.0334215e-05 -0.041264426 -0.055635523 0.022426935
000220 c2 02 36 3a 8f 8c ac 3d bd b9 8b bd 81 23 2f ba
       0.000694316 0.08425247 -0.06822536 -0.0006681011
000230 7c 14 75 bc 5f d1 17 3b ea bc 84 bd 7a 20 9f 3c
       -0.014958497 0.0023165566 -0.06481345 0.019424666
000240 5a e2 96 3c b7 0b cd 3c 8c a9 0d 3c 31 6b 4b 3d
       0.01841848 0.02503 0.00864638 0.049662773
000250 49 23 bc 3d 5d b3 19 bd 24 77 35 3c f1 32 9f bd
       0.091864176 -0.03752457 0.011075769 -0.07773388
000260 b4 4f fa bb 1e 35 35 3d 95 1f 06 bc 6f 34 d6 3c
       -0.007638896 0.04424011 -0.008186241 0.02614805
000270 40 cf 01 bb 39 f5 4c 3c ac 8d 1d bc aa a2 ba 3c
       -0.0019807369 0.0125096375 -0.009616297 0.022782642
000280 8f 47 3a 3d 6a 9e 89 bc 7e bf b1 3c d3 a5 4e bd
       0.0454784 -0.01679917 0.021697756 -0.05045111
000290 df e5 3f bd 23 fd 1c 3d a2 10 95 3d fc 0d 85 bd
       -0.04685008 0.038327347 0.07278563 -0.06496808
0002a0 1f bf 86 3c 51 69 a9 bd f6 1c df bd 27 c3 49 3d
       0.016448556 -0.08272041 -0.10894196 0.049258377
0002b0 35 7d 08 bc 77 62 42 bd 66 7a 9d 3d 8f 2f 3e bd
       -0.008330633 -0.047457185 0.07689361 -0.046432074
0002c0 65 cb 55 3d 25 cd f0 bc 32 66 46 bd 57 be ac 3d
       0.052195925 -0.029394696 -0.048437305 0.08434742
0002d0 f5 92 ea 3d c0 97 31 bd 7b 9c 62 bc 28 40 a7 bd
       0.11453811 -0.04335761 -0.013831253 -0.08166534
0002e0 fd c7 92 3d 7a d8 79 3d 77 2f 38 3d b2 a8 7f 3d
       0.07167051 0.060997464 0.04496714 0.06241674
0002f0 fd 0b 4d bc b9 2b 9d bd e7 9c d7 3d 67 03 d4 bd
       -0.012515065 -0.07674355 0.105279736 -0.103522114
000300 6a f1 8b 3b bb 54 5c 38 65 b6 c2 3d 40 56 d8 3d
       0.004270722 5.2531e-05 0.09507445 0.10563326
000310 50 85 bf 3d 5f d9 76 bd 3c 2e b8 3c 9f 97 af 3d
       0.09351599 -0.060265895 0.022482984 0.08573841

network.4.weight f4 [3, 200]
000000 e4 14 03 be f8 1d f0 bd fe 03 c6 3d 08 44 f9 bc
       -0.12800938 -0.11724466 0.0966873 -0.030427948
000010 35 7d ab bc 2e 4b 1b 3c be c4 1f bb 02 57 00 3d
       -0.020933727 0.009478373 -0.0024378742 0.031332977
000020 3a ca ee bd 8a 6e f4 3c ae 23 f3 bd 26 6f 27 be
       -0.116596654 0.029837865 -0.1187204 -0.16350994
000030 31 96 4a be 19 79 ae bd 34 f3 43 bc 4f 8e 26 be
       -0.19783856 -0.08519191 -0.01195984 -0.16265224
000040 85 0a 8c 3c 99 96 f6 3d 3f 2d d3 3d b2 5b c3 3d
       0.01709486 0.12040443 0.103113644 0.09538974
000050 41 2c 95 bd ec 6f b5 3d 97 cd ba 3d fe 21 ba bd
       -0.072838314 0.08859238 0.091212444 -0.09088515
000060 50 9d 8a bd a4 ca 76 39 f4 2e 8e 3d 09 f2 ff 3d
       -0.06768286 0.00023535878 0.06942549 0.124973364
000070 94 14 ae 3d e1 04 4d 3d cc 0b d9 bc 6a 10 e3 3d
       0.08500019 0.05005348 -0.026494883 0.11087115
000080 53 ee c9 bd ea 95 f0 3d f8 91 96 bd 34 77 40 be
       -0.0985991 0.11747344 -0.0735206 -0.18795472
000090 e5 74 3b be 43 e7 cf 3d e4 d1 4e 3d b0 03 69 3d
       -0.1830631 0.101515315 0.050493136 0.056888282
0000a0 43 b4 94 3c 51 ac d6 3d 10 73 ce bd 21 5a 10 3e
       0.018152362 0.104820855 -0.1008054 0.14096881
0000b0 e0 ef 06 be b3 a7 21 3d 00 de a4 3d 59 53 5b 3b
       -0.13177443 0.03946657 0.08050156 0.0033466427
0000c0 b0 d0 48 be 4c a1 02 be 9b 1c 58 be 6d f4 a4 3d
       -0.19610858 -0.12756842 -0.21104662 0.08054433
0000d0 16 d0 7a 3d 0d 3a 99 3c bd 24 04 3e 75 97 de 3d
       0.061233602 0.018704439 0.1290464 0.10868732
0000e0 23 a2 97 bd 3e ab 5d bc 5e bd c0 bd 0d 06 10 3d
       -0.07403972 -0.013529597 -0.09411119 0.03516202
0000f0 8f 17 1a be c6 42 7d bd ff a7 1c 3e 18 fa 9a 3d
       -0.1504805 -0.06183126 0.1529846 0.07567233
000100 07 10 0b bd cb 71 3d be 5c 23 b4 bd de 6a 11 3e
       -0.03395083 -0.1850044 -0.08795807 0.14200923
000110 83 8c 83 3d 5d 48 05 be e6 bc bd 3d 12 63 2a 3e
       0.06423285 -0.13015886 0.09264545 0.16639355
000120 c5 42 f8 3d 0b 77 68 3d 61 79 ce 3d c5 aa e9 3d
       0.1212211 0.056754153 0.10081745 0.11409525
000130 51 c1 02 bd d7 91 5a be cb 3d 27 3d 4e 46 65 3d
       -0.031922642 -0.21344696 0.040830415 0.05597525
000140 bf 5a 12 be a7 d0 1b 3d 59 6d 88 bd 4a a6 25 3b
       -0.1429243 0.038040783 -0.066614814 0.0025276118
000150 cf ec 37 3e 95 4b ee 3d 7e 64 cd bd ac 14 39 be
       0.17961429 0.1163551 -0.10028933 -0.18074292
000160 e4 80 1e 3e 5b 62 ad 3c df af c6 bd 99 7f f6 3d
       0.15478855 0.021165064 -0.097015135 0.12036056
000170 ae fd d9 bc 5f 1a 32 3e 75 15 b8 bc b4 36 02 be
       -0.026610222 0.17392872 -0.022471169 -0.1271618
000180 59 3b 21 3e eb 98 26 be 55 b7 3c bd 41 74 58 3d
       0.15745296 -0.16269271 -0.046073277 0.052845243
000190 0f df 40 3e b1 50 2c be 41 61 7c bd 26 c9 0c bd
       0.1883509 -0.16827656 -0.061616186 -0.034371518
0001a0 5d 6f 60 3d 69 91 9b 3d d1 dd 14 bd 8e 61 f2 3c
       0.054793704 0.07596094 -0.036344353 0.029587533
0001b0 68 ea 8e 3d ad d4 e6 3d df 99 06 3e ad 54 72 3c
       0.06978303 0.112710334 0.13144635 0.014790696
0001c0 de b3 22 bd a0 2c e3 bd 61 3c 00 be c3 38 e8 bd
       -0.039722316 -0.11092496 -0.12523033 -0.113389514
0001d0 a4 9d 4b be 80 92 e0 3d fc b2 52 be ef fd e3 3d
       -0.19884354 0.10965443 -0.2057609 0.11132418
0001e0 95 a8 6b 3d b3 89 07 bd 85 7c 7f bc e2 1e 5e be
       0.05753382 -0.033090305 -0.015593653 -0.21691468
0001f0 aa e3 35 3d e1 1a 3f 3e 69 3d 52 bd c2 93 68 bd
       0.04440657 0.18662597 -0.051328097 -0.056781538
000200 89 e7 ad bd eb cd a0 3d 36 16 9d 3d c0 75 e6 bd
       -0.084914275 0.07851776 0.07670252 -0.11252928
000210 0a bc 52 3d c4 ec 11 be 31 38 d1 bd 47 2d 88 3d
       0.05144886 -0.14250475 -0.10215796 0.06649261
000220 0e d9 ac bd f9 91 0f be b2 de 63 bd 18 05 d7 bd
       -0.084398374 -0.14020528 -0.0556323 -0.104990184
000230 3f 23 08 bd 59 a8 30 3d 68 da c4 bd b4 aa 2d be
       -0.03323674 0.0431293 -0.0961197 -0.1695965
000240 08 ac 9b 3d 21 d2 c8 bd 0f 3c a8 3d a7 63 a6 bd
       0.07601172 -0.09805704 0.0821458 -0.08124476
000250 ca 85 00 3e 87 00 c0 3d d2 63 29 bc 4f ff cc bd
       0.12551036 0.093751006 -0.01033874 -0.10009634
000260 b1 5f 4e bd f7 e9 a0 b9 ac 81 03 be e2 ba 0b be
       -0.050384227 -0.00030691896 -0.12842435 -0.13645509
000270 c9 30 9c bc f9 59 a3 3d c4 c3 49 be 2c 64 de 3c
       -0.019066231 0.07976145 -0.19703585 0.027147375
000280 6b ad 2c 3d 36 27 a7 3d 1a 81 7a 3d 87 1e 96 bd
       0.04215757 0.08161776 0.061158277 -0.073300414
000290 1d 8a 9a 3d 38 59 f5 bd bc a3 ca 3d 6c b6 a8 bd
       0.07545874 -0.11979908 0.09894511 -0.08237919
0002a0 7e 22 b3 3d 90 bd bf bd dc 7c c7 bd 25 6b d9 bd
       0.08746813 -0.09362328 -0.09740612 -0.10616139
0002b0 83 d7 c5 bd dc a1 06 3e 42 58 df 3d a5 78 bb bd
       -0.09660246 0.13147682 0.10905506 -0.091538705
0002c0 d9 b8 ca 3d e6 e2 d3 bd 11 80 10 3d 51 d1 d2 bd
       0.09898538 -0.10346012 0.035278384 -0.1029383
0002d0 76 e2 3f 3c 09 dd 1e be da f7 95 3d 6f 9e 58 bd
       0.011711707 -0.15514006 0.073226646 -0.05288547
0002e0 d2 66 08 be 3b b7 1e 3d 34 c3 fa 3d e6 1f 8a 3d
       -0.13320473 0.03874896 0.12244263 0.067443654
0002f0 8d 02 82 3d 16 33 7a bd dd c4 9f 3d 0d f2 3b 3e
       0.06348143 -0.061083876 0.078012206 0.18354054
000300 9b bb 50 bd c4 d3 eb bd 30 59 d6 3d da 27 0e 3e
       -0.050960165 -0.115150005 0.1046623 0.1388239
000310 50 f4 16 3e c5 5c b1 bd f3 ed 23 3e b4 d9 c8 3c
       0.14741635 -0.086602725 0.16008739 0.024517871
000320 1f 8f a7 3d c3 3c 3f 3d 99 91 8b 3d 8a f9 ed bd
       0.08181595 0.046688806 0.0681488 -0.116198614
000330 5b 9a 1d be eb 1b f0 bd 6d e4 1d be 43 34 21 3e
       -0.15390913 -0.11724075 -0.15419169 0.15742593
000340 6b 03 8b bd b8 5c 46 be 3b a9 34 ba 9b 41 fa 3d
       -0.06787761 -0.19371307 -0.00068916724 0.122195445
000350 f8 7a 51 3d b5 31 77 bd eb f0 ef bc 87 92 9f 3d
       0.051142663 -0.06035014 -0.029289683 0.0779162
000360 95 0c b8 3d dd 2e 89 3d f8 13 1d bd be 80 82 bd
       0.08986775 0.066983916 -0.03834912 -0.06372212
000370 52 cb ed bd d6 78 7d 3d 06 50 1c be 3b f9 92 bd
       -0.11611046 0.061882816 -0.15264902 -0.07176443
000380 26 a8 04 3e 19 d1 ea bd e4 d2 8c bd 03 b5 f5 bd
       0.12954769 -0.114656635 -0.06876162 -0.11997416
000390 8c 62 3a bd 05 d6 c2 bd aa 89 1c 3e 5d 5c 00 be
       -0.045504138 -0.09513477 0.1528689 -0.12535234
0003a0 45 d2 20 be 72 92 d0 bd ae 7b a5 3d ee 60 a8 bc
       -0.15705211 -0.10184182 0.08080231 -0.020554032
0003b0 87 ef 62 bc ce 21 2e bd 2b 00 f6 3c e0 cf 41 be
       -0.013851053 -0.042512707 0.030029377 -0.18926954
0003c0 93 ca 7b 3d 57 c2 b9 3d fc dd 48 bd 80 12 4e bd
       0.061472487 0.090702705 -0.049039826 -0.05031061
0003d0 80 84 11 3e 4a 48 73 3d a3 07 1a 3e a8 1e e0 3d
       0.14210701 0.059395112 0.15041976 0.10943347
0003e0 7a 95 b7 3c a2 99 9d 3c 2d e0 7c 3d 11 10 d3 bc
       0.022410143 0.019238297 0.06173723 -0.025764497
0003f0 f9 c6 d8 bd a0 d9 df bd 3b e9 40 bd 81 06 5a 3d
       -0.10584826 -0.109301805 -0.047097426 0.05322886

network.4.bias f4 [3]
000000 f1 c8 a3 3d dd e3 95 3c fd b7 0b 3c
       0.07997311 0.01829713 0.008527753
