output/learn_fm/best_model/model.pt (torch_old, 19521 bytes, 6 tensors)

network.0.weight f4 [64, 3]
000000 93 82 b5 bc e3 64 1c bf 5e c8 cf 3d c5 14 35 3f
       -0.02215699 -0.6109144 0.10145639 0.70734817
000010 d9 c2 fc be 52 31 3b be 48 38 40 3d 1c bc 91 3e
       -0.49367407 -0.18280533 0.046928674 0.2846383
000020 ce 5e e3 3e 5c 07 eb 3b cb 79 c1 3e 90 a6 00 3e
       0.44408268 0.007172508 0.37788233 0.12563539
000030 58 0b 85 3e 59 14 b2 3e 5d 6f 57 3f 8e 24 43 bf
       0.25985217 0.3478115 0.841543 -0.76227653
000040 42 53 8f 3e 92 f6 2b 3f 6e cb b0 be 95 db 0a bf
       0.27993208 0.6717311 -0.34530205 -0.54241306
000050 2f a6 9c 3e de 1d 2e bf 6a eb 7e bb 9f af 83 be
       0.30595538 -0.68014324 -0.0038897642 -0.25719926
000060 ad 83 a1 be 11 a8 1b bf b1 0d 92 3c 96 24 5c 3f
       -0.31545773 -0.60803324 0.017828794 0.85993326
000070 09 b2 dc 3e b9 e3 85 be 08 5d 42 3f e6 59 e7 be
       0.4310458 -0.261503 0.75923204 -0.45185775
000080 1d 5d ad 3e d4 29 19 3f b5 a2 cf 3d d5 ad 24 be
       0.33860102 0.5982945 0.10138456 -0.16081937
000090 67 ac 32 be 43 33 a8 3e db 76 76 3e a4 ea ef 3d
       -0.17448579 0.3285161 0.24068777 0.11714676
0000a0 d9 21 23 3f d8 57 5a 3f d2 07 69 3e 4f e1 41 3f
       0.6372352 0.8529029 0.2275689 0.7573442
0000b0 c7 77 b1 be 7a a2 49 3e e6 16 05 3f 35 2d 9c 3e
       -0.34661695 0.19690886 0.51988065 0.3050324
0000c0 4e 76 8e be c7 2c e2 3e 33 e6 04 3f 30 76 1f 3f
       -0.27824634 0.44174787 0.51913756 0.62289715
0000d0 17 cf c7 be 44 05 19 bd e6 e7 d2 3d 96 73 85 3e
       -0.39025185 -0.037358537 0.10298137 0.26064748
0000e0 73 ec e3 3e 9e ce fe 3d 67 6f 83 be 1f 54 cd be
       0.44516334 0.12441753 -0.2567093 -0.40103242
0000f0 0c 7c f7 be 6c ee 08 3f 49 1c 79 be cb b2 1d bf
       -0.48336828 0.534888 -0.24327196 -0.6160094
000100 60 48 89 bd 06 0f a2 3e 69 63 3b bf bb e6 28 3f
       -0.067032576 0.31652087 -0.7319856 0.65977067
000110 93 0a 0a bf c6 2f bd 3d 3f 4b f7 be 18 70 38 be
       -0.53922385 0.09237628 -0.48299596 -0.1801151
000120 70 e9 4b 3f c2 e6 6e bf b0 14 b7 3d 80 7d 01 3f
       0.7965307 -0.9332086 0.08939493 0.5058212
000130 b9 a1 2e 3d b0 18 9b bd 10 18 33 3e 2b 7b 89 be
       0.0426347 -0.07573068 0.17489648 -0.26851782
000140 e1 53 fd be 65 3a 1e 3f 1a 13 b5 be b0 a1 22 bd
       -0.49478057 0.61807853 -0.35366136 -0.03970498
000150 71 bf 25 3e b2 83 78 be 77 4f 3a bf b0 ae 5a bf
       0.1618631 -0.24268988 -0.72777504 -0.854228
000160 af a9 1e bf b8 87 41 bf e9 ea b7 be 42 c7 4f 3f
       -0.61977667 -0.75597715 -0.3592141 0.8116342
000170 e6 3e ce 3e a4 cf 0a 3f bf 20 ab 3d 41 04 33 be
       0.40282363 0.54223084 0.08355855 -0.17482091
000180 04 df ff bd f7 a9 14 bf 47 87 84 be 63 7d cb 3d
       -0.12493709 -0.58071846 -0.25884458 0.09936025
000190 b4 1c c9 be 78 ed d2 be a5 0e aa 3e 3a 43 81 bf
       -0.3927971 -0.411968 0.33214298 -1.0098641
0001a0 07 0a 6e 3e c4 96 27 be e2 f7 9b be 6b 9c c0 be
       0.23246013 -0.16366106 -0.30462557 -0.37619337
0001b0 12 0d d3 3e ba 0f 1d 3f 17 fc 3a 3f 6e c6 a0 3e
       0.4122091 0.6135212 0.7304091 0.3140139
0001c0 1f 64 9c 3d 3b a3 04 3f 5c 46 50 3f 83 3f 22 bf
       0.07636284 0.5181157 0.8135736 -0.6337816
0001d0 03 b2 c4 3d 67 dd 59 3e fa 80 2b 3f 61 67 d1 3e
       0.096042655 0.21275865 0.6699368 0.40899184
0001e0 16 b7 61 3e a9 df 39 bf 63 d1 73 bf ed 96 d8 be
       0.22042498 -0.72606903 -0.95241374 -0.42302647
0001f0 91 0f 3b 3e 9d f3 9c 3d 22 f5 4e bf 00 5a 38 3f
       0.18267657 0.07663653 -0.80842793 0.7201233
000200 ae 99 24 3f 58 39 21 3f b3 52 41 3f c4 de c6 3b
       0.64296997 0.62978125 0.75516814 0.006069036
000210 1f 42 64 bf 70 18 8a be 87 83 6c 3e 69 8c 15 bd
       -0.8916339 -0.2697177 0.23097049 -0.03651086
000220 0b 84 12 3f 57 5d a4 3d a8 7a 65 bf 2e 27 f3 be
       0.5723273 0.08025616 -0.89640284 -0.4749083
000230 26 f4 40 be e2 2a 47 bf 1f 76 58 be 7c d6 0e 3f
       -0.18843135 -0.7779981 -0.2113881 0.5579603
000240 5d 2f dc bc 38 99 15 bf c6 de 1a 3c 13 f4 4d 3f
       -0.026878053 -0.5843692 0.009452527 0.8045055
000250 0e 2d c2 bd cb 5b f4 3c 27 93 34 bf 04 fd 42 3f
       -0.0948125 0.029828927 -0.70537037 0.7616732
000260 64 63 73 3f 56 e4 df be 2a 4c eb be 6e a1 07 bf
       0.95073533 -0.43728894 -0.45956546 -0.529807
000270 7e a1 9b 3d 1c 09 ae be 4f 4e 82 bf 0e da 2b 3f
       0.075991616 -0.33991325 -1.0180148 0.671296
000280 dc 97 0e 3f a5 97 02 bf bc ba 3c 3f 38 8e 74 be
       0.5570047 -0.5101264 0.73722434 -0.23882377
000290 b5 1a 04 3f c5 d1 39 3f 0f 77 0d 3f 1e 50 ab be
       0.5160325 0.7258571 0.55259794 -0.33459562
0002a0 06 45 89 3e 38 56 25 3f a1 5a ca be 7d 31 1d 3f
       0.26810473 0.64584684 -0.3952227 0.6140364
0002b0 e0 be d7 be 1d 0c 44 bf 2c 6f 9b bd 4b 2e 8a bf
       -0.42137814 -0.76580983 -0.07589564 -1.0795377
0002c0 c0 e3 1a 3f a1 f6 de be 3f 6b 79 3c 3c f4 5a 3d
       0.6050377 -0.43547538 0.015223323 0.053455576
0002d0 45 2f 44 bf ac 3c dc be ff 97 58 bf a8 8d 11 be
       -0.7663463 -0.4301504 -0.8460693 -0.14214194
0002e0 21 57 12 bf 2e bc 01 3d 9c 2e 40 bf 7a 21 dd 3e
       -0.571642 0.031673603 -0.7507112 0.43189603
0002f0 ed 37 85 be 00 a0 59 3c c4 3a cb 3c 08 8a 31 3f
       -0.2601923 0.013282776 0.024808295 0.69351244

network.0.bias f4 [64]
000000 4c b9 89 be 7f 02 83 be 79 65 6c be 08 32 df be
       -0.26899183 -0.25587842 -0.23085584 -0.43592858
000010 bf ea 10 3f 10 49 31 3f 5b 4a 1d 3f 19 da 48 3f
       0.56608194 0.6925211 0.6144158 0.7845779
000020 d3 70 07 bf ac bb f4 3e 21 52 e8 be 3a 81 7e 3e
       -0.5290653 0.47799432 -0.4537516 0.24853984
000030 c5 fb 7a be d3 86 af 3e fd 2b 43 3f 04 16 eb be
       -0.24510105 0.3428255 0.76238996 -0.45915234
000040 d0 0a 29 bf 57 0f 98 be 6d f3 e7 be a0 25 bd 3e
       -0.66032124 -0.29699203 -0.45302907 0.36942768
000050 ed fe 9e be 91 25 13 3f 6b d6 eb be 87 4b 1b 3e
       -0.31053868 0.57479197 -0.46062025 0.1516553
000060 1b 8c 2f 3f ec 8b 77 3e c0 ba e3 3e f6 fe 06 bf
       0.6857316 0.2417447 0.44478416 -0.5273279
000070 f9 48 39 3f 76 20 4a 3f f6 05 00 3f 66 ae 06 3f
       0.7237697 0.7895578 0.50009096 0.5260986
000080 45 09 08 3f b7 47 dc 3e 7d 41 33 bf 5b 5c a0 bc
       0.53139144 0.43023464 -0.700218 -0.019575289
000090 30 89 21 3e 53 79 9e be 85 60 8a be 2b a0 04 3f
       0.15774989 -0.30951938 -0.27026764 0.51806897
0000a0 fa f3 85 bc 59 16 6f 3e 17 24 17 bf 84 99 0b bf
       -0.016351689 0.23348369 -0.59039444 -0.5453112
0000b0 b8 0b 4c 3f c9 47 ba 3d 8d 38 9d be 79 02 50 bf
       0.7970538 0.09095723 -0.30707207 -0.8125377
0000c0 55 c4 92 ba 72 24 df 3e 16 89 95 3e 88 34 df 3e
       -0.0011197428 0.43582493 0.2920615 0.43594766
0000d0 f5 63 75 bf 48 00 ec be 29 a3 3d bf 5d 72 8c bd
       -0.9585565 -0.46093965 -0.7407709 -0.068577506
0000e0 ec ae 31 3f 34 2b 10 bf 93 de 92 3e dd 86 4c 3e
       0.69407535 -0.5631592 0.28685436 0.19973321
0000f0 9c 2c 18 bf 0e 25 69 3e 43 19 1d bf 02 95 39 3e
       -0.5944307 0.22768041 -0.6136667 0.18123248

network.2.weight f4 [64, 64]
000000 db fa a1 3d e1 b0 85 3c 82 24 02 be 28 c7 50 bd
       0.07909175 0.016319694 -0.12709239 -0.05097118
000010 99 69 d3 3c 20 e4 c0 bb 68 11 d0 bc de c3 b9 bc
       0.025807189 -0.0058865696 -0.025398925 -0.022676405
000020 82 ed 85 bd 46 ae 2d bd c6 74 e3 3d a2 2a 5c 3d
       -0.06539442 -0.04240253 0.11106257 0.053751595
000030 e5 23 00 be 86 7c c3 3d e1 74 8a bd 1d 19 77 bb
       -0.12513693 0.09545235 -0.06760574 -0.0037704178
000040 f0 ba 2e be 74 b1 e9 3d 2b 8a 94 bd a7 d2 96 3e
       -0.17063498 0.114107996 -0.07252916 0.2945759
000050 91 60 36 be d6 d8 e4 bd 8d 9f 49 bd c9 b2 d7 bc
       -0.17810275 -0.11174171 -0.049224425 -0.026330369
000060 65 50 81 3d 27 c8 1f 3e ac f1 8c 3e a0 a9 26 3e
       0.06314162 0.15603696 0.2752813 0.16275644
000070 da 99 aa 3e 2e 3a 63 3e f9 a2 7f 3d 3a a4 e8 bd
       0.33320504 0.22190163 0.062411282 -0.11359449
000080 15 3f 4b 3d 1b 1b f7 3c 2d 28 15 3e c7 d2 06 be
       0.049620707 0.030164292 0.14566107 -0.13166343
000090 76 7d 84 bc 49 06 36 3e 38 40 5d 3e 89 f5 88 bc
       -0.016173106 0.17775835 0.21606529 -0.016718643
0000a0 cf f6 5e 3d 50 3d 43 be 48 76 9b be e2 cc 8b 3d
       0.054434594 -0.19066358 -0.3036368 0.06826188
0000b0 80 ea 6d 3d 5c 50 75 bd 09 6f b8 bd 32 62 3f bd
       0.058084965 -0.05989109 -0.09005553 -0.046724506
0000c0 34 9c b8 bd 07 de 72 bd 22 87 2a bd 49 1f e4 3c
       -0.090141684 -0.059293773 -0.04163278 0.02784695
0000d0 5b e1 af bd 9b c1 e6 3c 90 19 9a 3e 96 35 17 be
       -0.08587905 0.02816849 0.30097628 -0.14766535
0000e0 37 19 25 bd 87 c8 d0 3d 9e 31 2c 3e fb c0 8a bd
       -0.04030725 0.101944976 0.16815802 -0.06775089
0000f0 9a b8 90 3d 47 d2 95 bd d2 6b 79 bd 55 75 1c 3e
       0.0706646 -0.07315498 -0.06089384 0.15279134
000100 a3 4d b7 be 6f 26 45 3d 28 95 07 3d 8f f7 92 3d
       -0.3580142 0.048132356 0.03310123 0.07176124
000110 b5 10 af bd 85 9f 78 be 47 fc 4a be 5e 7f 98 be
       -0.085481085 -0.24279602 -0.19822799 -0.29784673
000120 bb e2 8c 3c d8 d1 14 be ec 6f dc 3c ad 72 bb bd
       0.017197957 -0.14533174 0.026908837 -0.09152732
000130 42 a3 3f 3e 12 d8 83 bd 8d 54 c2 3d 68 f2 86 3e
       0.18714622 -0.064376965 0.09488783 0.26356816
000140 39 34 8a 3e ea 3b ee 3d 39 ea ba 3e ca a4 33 be
       0.26992968 0.116325215 0.36506823 -0.17543331
000150 f6 30 f4 3d 4c 47 5f be 81 7e 65 3e 6c 6f b0 bd
       0.11923401 -0.21804541 0.22411539 -0.08615002
000160 79 68 a8 be 06 60 24 3d c2 4a 53 be ee 02 11 bc
       -0.32892206 0.040130638 -0.20633987 -0.008850796
000170 56 5c ca be 44 69 39 bd d6 c5 8f 3d 9f ea 38 bd
       -0.39523572 -0.045266405 0.07020156 -0.045145627
000180 7d fc 9b be b4 ff 3f be 01 56 dd bc b6 a9 aa bd
       -0.3046607 -0.18749887 -0.027018549 -0.08333151
000190 f0 04 a1 bd 9f c9 f0 3d ff bb 18 3d 28 c7 33 bc
       -0.0786227 0.11757206 0.037288662 -0.0109727755
0001a0 a7 45 30 3e 33 94 d8 3d 63 2a f4 3d 90 e1 75 3d
       0.1721407 0.10575142 0.11922147 0.060029566
0001b0 94 07 bd be fc 2f 6c 3e 31 e9 42 3e 0c b0 25 3e
       -0.36919844 0.2306518 0.19034268 0.16180438
0001c0 f5 56 b1 be 96 db 84 be 60 ec 67 bd fc 6c 0a be
       -0.34636655 -0.2594878 -0.05662191 -0.13518137
0001d0 23 67 6b 3e 12 ee 81 3e fe 2c 38 3e f2 75 fd 3d
       0.22988562 0.25376946 0.17985913 0.12376012
0001e0 6a 26 4a 3e 96 e1 0a 3e ab d1 20 bf 10 56 18 be
       0.19741216 0.13562617 -0.6281993 -0.1487658
0001f0 f6 20 fb 3d 86 3f 8b be 6b 94 89 3e 0d 05 16 3e
       0.12262146 -0.27196902 0.26871046 0.14650364
000200 5c dc ab bd 67 03 40 3d e4 6b 4c 3e 32 ae 9e bd
       -0.083916396 0.046878245 0.19963032 -0.07748069
000210 35 2e 54 3d 79 1d 6d be f2 07 2f bc d0 6f 90 be
       0.05180188 -0.23155774 -0.010683047 -0.28210306
000220 af 5f 20 3c 4c 56 4f bc a8 de 88 bd 8a 08 15 3d
       0.009788438 -0.012654852 -0.06683093 0.036385097
000230 31 b5 ac bc d0 53 0e 3d 0c 0a 97 bd 79 6d b7 3d
       -0.021082493 0.0347479 -0.07374963 0.08956427
000240 17 af 8a 3e 70 ed 03 3e ac 32 bc 3e 0e 61 46 be
       0.27086708 0.12883544 0.3675741 -0.19372961
000250 06 c2 19 3d 6e 63 de bd 08 70 16 3d 38 94 40 be
       0.03753855 -0.108588085 0.036727935 -0.18806541
000260 2b bf 1f be d7 9a 49 3e 2f 86 3b be 68 ea 9a 3d
       -0.15600269 0.19687973 -0.18312906 0.07564241
000270 96 81 71 be 83 81 8c be 61 77 59 be 18 77 92 bd
       -0.2358459 -0.2744256 -0.21236946 -0.071516216
000280 2e 8a 4d be a2 8d 1d be bf 83 d8 3d 80 0c bf bd
       -0.20072243 -0.1538606 0.105720036 -0.09328556
000290 ce 6f 6a 3e 77 5b fc 3d bf 5f d4 3d 7e b1 a4 3d
       0.22894213 0.12322133 0.103698246 0.080416664
0002a0 ef 9e 9a 3d 12 36 40 be 6d 16 a5 3e 3a 85 57 3e
       0.075498454 -0.18770626 0.32243672 0.21046916
0002b0 77 47 27 3d e7 75 b7 3c 08 c1 92 be 7a fe 5e bd
       0.04083964 0.022395087 -0.28662896 -0.054441907
0002c0 70 8f 05 bd 8b 06 80 3d 4d b0 8c bd b7 82 a4 be
       -0.032607496 0.06251248 -0.06869564 -0.32130978
0002d0 39 a7 4c bd 96 dc 7f 3d 42 9d 36 3e 93 47 1f 3e
       -0.049964163 0.062466227 0.17833427 0.15554647
0002e0 65 2c 7c 3d bc 2e 97 3d d0 22 26 3e 0e 92 57 be
       0.061565775 0.07381961 0.16224217 -0.21051809
0002f0 dc bb 6c bd 96 a9 8c bd bb 31 c2 3d 60 8b 18 3e
       -0.057796344 -0.068682835 0.094821416 0.14896917
000300 2f 9e 86 be 2f f3 46 3c f0 33 12 3e c1 4d b0 3d
       -0.2629256 0.01214294 0.14277625 0.086085804
000310 15 0b 06 3e 5f 2e ee bc 46 1d 79 be d0 0f b0 bd
       0.13090165 -0.029074846 -0.24327573 -0.08596766
000320 f7 7b b5 3c eb e7 6b be b4 69 1d 3e 38 25 b3 3b
       0.022153838 -0.23037688 0.15372354 0.0054670833
000330 26 94 aa 3e 94 25 ee 3d fe 8e 2f 3d ec ad db 3d
       0.33316153 0.11628261 0.042860977 0.10726532
000340 c7 9e 38 3e f0 45 d7 bc e0 13 37 3e b2 e8 9c be
       0.18029319 -0.026278466 0.17878675 -0.30646282
000350 52 ed 11 3e 8a 2b f1 bd c4 38 79 3d 6c d6 80 be
       0.14250687 -0.117758825 0.06084515 -0.2516359
000360 6a 51 4c be 18 e2 5e bd 61 b2 f9 bd 92 74 e0 3d
       -0.19952932 -0.05441484 -0.12192226 0.10959734
000370 70 92 37 be 28 03 47 3e c6 d9 bb bc cf 80 e3 bc
       -0.17926955 0.19434798 -0.02293099 -0.027771382
000380 80 49 10 be 1a ee 4e be 67 8d 05 3e 97 06 9d bd
       -0.14090538 -0.20208016 0.13042222 -0.076672725
000390 62 f7 ee 3c 2b 1b 85 3c dc 0c ee 3d 12 29 e7 bc
       0.029170696 0.016248306 0.116235465 -0.028217826
0003a0 f8 72 57 3d e5 ee e8 bd 44 dd 9a be 66 c7 bb 3d
       0.052599877 -0.113736905 -0.30246937 0.091688916
0003b0 55 51 20 be 45 42 95 3e 2d 4e fd 3d e7 b3 f1 bb
       -0.15656026 0.29152122 0.123684265 -0.0073761824
0003c0 ec 38 b8 be ee 4c e8 bd f0 a4 81 3d 55 d2 02 bb
       -0.35980928 -0.11342798 0.063302875 -0.0019961793
0003d0 9f b7 9e bc f2 0b 38 3e dc 86 2b 3e 50 6a 96 bd
       -0.019374667 0.17973307 0.16750664 -0.07344496
0003e0 ad d4 cd bd 1d 67 6a bd 67 3a 04 be 30 ec 47 3d
       -0.1005033 -0.057227243 -0.12912904 0.04880923
0003f0 59 4d 21 be ce 2f 90 be b5 f3 c3 3d 5d 16 8e 3d
       -0.15752162 -0.28161472 0.09567968 0.06937859

network.2.bias f4 [64]
000000 64 2f b1 bd 5d b4 e4 3d 10 c6 21 be f4 1a 92 bd
       -0.08651617 0.11167214 -0.15798211 -0.07134047
000010 e3 73 25 3c e6 15 55 be 9d 1d 7a 3e ed 5b d7 bc
       0.01009843 -0.20809135 0.24425359 -0.02628895
000020 c2 87 da 3c cf d2 53 3d 14 0a 0c 3f c2 52 90 bc
       0.026676062 0.051714715 0.5470288 -0.017617587
000030 d3 53 b7 3d 63 99 36 3d d5 95 0b 3d 22 97 d9 bd
       0.08951535 0.044579875 0.034078438 -0.106245294
000040 5f 15 b6 bd e6 b5 bc 3d 4e 06 4f 3d e3 ce 30 3d
       -0.08890795 0.09214382 0.050543122 0.043166053
000050 7d 6a 6e bc 70 4f 24 3d dd fd de 3d a6 86 09 be
       -0.014551756 0.04011482 0.10888264 -0.1343027
000060 67 4c f0 bd 09 36 d8 bc 13 6a 64 be 46 7a 8b 3d
       -0.117333226 -0.026392953 -0.22306089 0.06810431
000070 7b d3 a5 bd 33 28 75 3d 57 28 55 be 1d a7 c0 bd
       -0.08096977 0.05985279 -0.2081617 -0.09406874
000080 0f 85 e5 bd cb da 44 bc 34 04 35 be 9f df 11 3e
       -0.112070195 -0.012015055 -0.17677385 0.14245461
000090 16 67 69 bc dc 77 2d be 14 d0 c9 3d c5 4d a4 3d
       -0.014245769 -0.16940254 0.09854141 0.08022646
0000a0 22 09 fe bd fd c5 30 3e 72 ea 1d be d4 8c 30 3d
       -0.12404086 0.17263027 -0.15421465 0.043103054
0000b0 ba 1d 42 be b2 d3 84 3d 66 1f f2 bd 55 97 10 bd
       -0.18956652 0.0648569 -0.11822395 -0.03530057
0000c0 da e5 c7 bd cd 25 35 be 19 2e 65 3d d4 b8 56 bc
       -0.097606376 -0.17690201 0.055952165 -0.01310559
0000d0 92 70 78 be 41 6a bb 3d 1e 4e b6 3d e0 07 12 3e
       -0.24261692 0.09151126 0.089016184 0.14260817
0000e0 e9 e5 d0 bd 05 a8 91 bd b5 66 63 3c b3 06 2b 3c
       -0.10200102 -0.07112125 0.013879468 0.010438609
0000f0 99 65 f8 3d ab 05 97 3e 4d 9b 5e 3e f4 77 4c be
       0.12128753 0.29496512 0.2173893 -0.19967633

network.4.weight f4 [3, 64]
000000 c5 00 bd be 27 e4 98 be c2 ad b5 3e c2 c6 dc be
       -0.3691465 -0.29861566 0.3548413 -0.4312039
000010 88 c8 ad 3e 11 f8 87 be 47 80 51 3e 06 79 72 3e
       0.33942056 -0.26556447 0.2045909 0.2367898
000020 db 8b cb be d3 09 ca be 38 95 ab 3c 04 c1 17 3e
       -0.3975514 -0.3946062 0.020945176 0.14819723
000030 77 78 1a be a8 ef b9 3e c3 81 bd b8 03 71 8b be
       -0.15085016 0.36315656 -9.036392e-05 -0.2723466
000040 06 04 b4 3e 63 2b 8a be 6d 0a ba bd 85 ce 68 3e
       0.3515932 -0.26986226 -0.0908402 0.22735031
000050 18 e1 c5 be 16 a3 54 3e 03 93 d5 bb 61 c4 ea 3c
       -0.38648295 0.20765337 -0.0065177693 0.028658094
000060 4d e5 cc be 19 69 dd 3c 5c cd 7a 3e a9 b9 01 3e
       -0.40018693 0.027027654 0.24492401 0.1266848
000070 22 ce 0e be 52 85 83 be eb a7 b6 be f1 73 b6 3d
       -0.13945821 -0.25687653 -0.35674986 0.08908833
000080 b9 13 a4 3e 08 8d dc be e7 39 60 be 6e 3f 85 3e
       0.32046297 -0.43076348 -0.21897088 0.26024956
000090 85 f1 f8 b9 c0 d3 72 be be a0 dd 3d e4 16 86 bd
       -0.00047482192 -0.23713589 0.10821675 -0.06547335
0000a0 2c 95 c2 3e 8f 74 c1 3e 31 82 ab be f8 f7 fc 3d
       0.38004434 0.3778424 -0.33497766 0.12351984
0000b0 29 74 fe be c8 7e 32 bd 62 0f 8d be 79 be 1d be
       -0.49697998 -0.04357794 -0.275508 -0.15404691
0000c0 38 a2 18 be 97 05 f5 bd 58 71 38 be 5f d3 f2 bd
       -0.14905632 -0.11963957 -0.18011987 -0.11856722
0000d0 fb 8d c0 be 25 06 aa be 7f 37 9d be 60 57 03 3e
       -0.37608323 -0.33207813 -0.30706403 0.128263
0000e0 f4 10 dc 38 38 54 64 bc 0d ed 9d 3d 85 01 3a 3e
       0.00010493575 -0.013936095 0.077112295 0.18164642
0000f0 0a 13 2a 3e d3 0b 58 3e a8 2a c3 3e 0d 0d bc be
       0.16608825 0.2109826 0.38118482 -0.36728707
000100 6a bf 11 bd 6f 55 51 bc c0 72 66 3d 4d 7e a3 bd
       -0.035582937 -0.012776717 0.056261778 -0.07983074
000110 39 93 89 be 68 1c bb be eb b7 d2 bd 59 c0 64 3e
       -0.26870134 -0.3654511 -0.10288986 0.22339
000120 ca 18 94 3d dc f5 91 3e 90 a3 e7 3c d6 c4 a5 3e
       0.07231291 0.28507888 0.028276235 0.32376736
000130 05 10 90 be 9c a3 86 be fc fc c2 be de 99 36 be
       -0.28137222 -0.262967 -0.38083637 -0.17832133
000140 d2 6f 0c 3e ea 05 16 3e 23 19 89 be 48 0d 19 bd
       0.13714531 0.14650694 -0.2677699 -0.03736618
000150 aa 54 d2 3e 6c 46 91 3e 43 2b 9b 3e 1b ea 99 bd
       0.4108022 0.2837404 0.30306444 -0.07515355
000160 18 0a 0e bb f8 ec 96 3e 2d a8 34 bd 42 c7 8e 3e
       -0.0021673497 0.29477668 -0.044105697 0.27886397
000170 3e 9d b4 3e 49 47 8d be e6 cb 2f 3e 52 3c 89 3e
       0.35276216 -0.2759345 0.17167625 0.26803833
000180 c8 80 c5 3e 7d f1 79 be b1 38 4d be 5f 5b 1b 3e
       0.38574815 -0.24408527 -0.20041157 0.15171574
000190 b5 2b 55 3e 01 b6 48 bd 5a 3d 98 3d 47 b7 c7 be
       0.20817454 -0.049001697 0.07433577 -0.39007017
0001a0 95 df 76 3e f5 85 c0 bc 34 c5 1e 3e f5 13 9c be
       0.24108727 -0.023501376 0.15504915 -0.30483976
0001b0 45 08 1b be 89 09 a7 be 09 0d 65 3d b2 4a ce be
       -0.15139873 -0.32624462 0.055920634 -0.40291363
0001c0 d0 8f 67 3e f1 e0 c0 3e e7 43 9b 3e ab b4 d7 3e
       0.22613454 0.37671617 0.30325243 0.42130026
0001d0 10 5e 71 3e 3c 6e 7b bd 28 be a7 3e 8c e6 34 be
       0.23571038 -0.061384425 0.32762265 -0.17666072
0001e0 ae f2 6b be e6 42 86 3e 07 3d 1d 3e c0 5b f7 3c
       -0.23041794 0.26222914 0.15355311 0.030195117
0001f0 96 e0 6a be a4 bd 34 bd 6f 0a 2f 3d 4f da 4d bd
       -0.22937235 -0.044126168 0.04273456 -0.050257023
000200 1a 47 26 bd 0d aa eb be 84 2e 5e bd d6 3c 31 be
       -0.04059515 -0.46028176 -0.05424358 -0.17308363
000210 47 e3 fc bc 83 ea e9 3d df 1b e3 be 63 67 31 be
       -0.030870093 0.11421683 -0.443572 -0.17324595
000220 04 48 ab 3d d1 39 bd bd f8 f5 ef be da 11 c4 bc
       0.08363345 -0.09239543 -0.46867347 -0.023934294
000230 dc 68 33 be f4 61 bb bc e1 b4 4d bd d2 25 29 be
       -0.1752047 -0.022873856 -0.050221328 -0.16518334
000240 85 11 14 bd 1b 73 db bd 31 fd 9a 3e 0d 60 7e bd
       -0.03614952 -0.10715314 0.30271295 -0.06210332
000250 a4 6d 48 bd ea 82 89 be 7f d5 b0 be 8a 59 b6 3e
       -0.048932686 -0.26857692 -0.34537885 0.35615188
000260 ac 57 59 bd af 5c db be 70 c0 ba 3e 87 5f 5b 3d
       -0.053062126 -0.4284415 0.36474943 0.0535579
000270 e6 a1 5f 3c 86 2a 94 3e 3f 3e 33 3e 6a f3 51 3e
       0.013649439 0.28938693 0.17504214 0.20503011
000280 6c 42 c1 bd 99 34 0b bd 4a c8 07 be 91 1a 33 be
       -0.09436497 -0.033985708 -0.13259998 -0.17490603
000290 77 9e 90 3e fc 67 45 3e 2a e1 63 3e 8d 0e 8d bc
       0.282459 0.19277948 0.22253862 -0.017218852
0002a0 c6 41 98 3c cc 93 fe 3a 08 b1 99 3e 9d cf f5 bd
       0.01858605 0.0019422709 0.30017877 -0.1200249
0002b0 ea a9 fa bc 80 8e a7 be 31 7c 3e 3e 22 3b c8 3d
       -0.0305986 -0.32725906 0.18602063 0.09776904
0002c0 9e 79 5e 3c 6a 39 08 be 0c 7d 27 bd 17 fb 74 bd
       0.0135788005 -0.13303152 -0.04089074 -0.05980977
0002d0 ad 52 0d 3e eb a9 96 3e 02 6e c4 3c 45 a6 51 be
       0.1380107 0.29426512 0.023978237 -0.20473583
0002e0 8f 42 0e bf 87 14 c4 3e 69 91 99 be 87 c9 b2 be
       -0.5557031 0.3829691 -0.29993752 -0.34919378
0002f0 22 a2 19 3d fb e8 98 be 61 f8 5d bd b0 d7 11 bf
       0.037508138 -0.2986525 -0.05419195 -0.5696974

network.4.bias f4 [3]
000000 2c ef 3f bd 94 5f 45 3d 19 b0 ae be
       -0.04685895 0.048186854 -0.34118727
