output/best_fm/20190228_215838/model.pt (torch_old, 167491 bytes, 6 tensors)

network.0.weight f4 [200, 3]
0	0xbeabc779	-0.33550623
1	0x3eab87cb	0.3350204
2	0x3eaea04b	0.3410667
3	0x3ee00acd	0.4375824
4	0xbe26b4ff	-0.16279982
5	0x3e305317	0.17219196
6	0x3d4af273	0.049547624
7	0x3f04ed3f	0.5192451
8	0xbd1dcaa2	-0.038523324
9	0xbd432ced	-0.047650266
10	0x3ec68f58	0.38781238
11	0x3efa32c9	0.4886687
12	0xbd85eb0c	-0.06538972
13	0x3edcbff2	0.43115193
14	0x3ec94729	0.39312103
15	0x3d6b85b0	0.05750054
16	0x3eed113f	0.4630222
17	0xbe86b348	-0.26308656
18	0xbe35301c	-0.17694134
19	0xbeda5ae7	-0.42647478
20	0xbe304d6e	-0.17217037
21	0x3f0d1678	0.5511241
22	0xbeb57a29	-0.35444763
23	0x3df126d3	0.11774983
24	0xbe02acde	-0.12761256
25	0x3ecf0d8e	0.4044003
26	0xbd16377d	-0.03667401
27	0xbe3ba6d8	-0.18325365
28	0x3dfa4101	0.1221943
29	0xbe96f958	-0.2948711
30	0xbedb9f90	-0.42895174
31	0xbe2ca8a5	-0.16861208
32	0xbe431eff	-0.19054793
33	0xbf1704a9	-0.58991486
34	0x3ef22096	0.47290486
35	0xbe350212	-0.17676571
36	0x3d22be59	0.03973231
37	0x3d7ea34a	0.062167443
38	0x3f0b48c0	0.5440788
39	0xbf369cef	-0.7133321
40	0x3de7b901	0.113145836
41	0xbe505ca0	-0.20347834
42	0xbeb995bc	-0.3624705
43	0xbedd647d	-0.4324073
44	0x3eac2522	0.3362208
45	0x3e001120	0.12506533
46	0x3e87f632	0.2655502
47	0x3e3225f3	0.17397289
48	0xbe4e3f2e	-0.20141289
49	0xbee1fff5	-0.44140592
50	0x3ee1be59	0.44090536
51	0xbef69509	-0.4816058
52	0x3efaa726	0.4895565
53	0x3eb80e6e	0.3594851
54	0xbe55b36a	-0.20869222
55	0xbe704b18	-0.23466146
56	0xbec2ed7c	-0.3807181
57	0x3d97d1db	0.07413074
58	0x3dff0a19	0.12453098
59	0x3f06a7e1	0.5259991
60	0xbea142d9	-0.31496313
61	0xbea206d5	-0.31645837
62	0xbea9d918	-0.33173442
63	0xbefdd6b7	-0.49577877
64	0xbe6ddd1a	-0.23228875
65	0x3d83ed27	0.064417176
66	0xbd6f35c0	-0.05840087
67	0x3e9b833c	0.3037356
68	0x3e8ec023	0.27880964
69	0x3e4e40fb	0.20141976
70	0x3eb30bb5	0.3496987
71	0xbe8df558	-0.27726245
72	0xbeb3285f	-0.34991738
73	0x3ebd0d73	0.36924323
74	0x3ebfffd1	0.3749986
75	0xbecba54e	-0.39774555
76	0x3ecaf1bb	0.3963755
77	0x3e8b8b32	0.27254635
78	0xbd845b96	-0.06462781
79	0x3ec1c801	0.37847903
80	0x3ec95145	0.39319816
81	0x3ccd0c51	0.025030287
82	0xbe904a3a	-0.2818163
83	0x3dd9255e	0.1060283
84	0x3f20cf5d	0.6281641
85	0x3e1adf61	0.15124275
86	0x3c7a8fb4	0.015293051
87	0x3ebe5173	0.37171516
88	0x3e8db28f	0.27675292
89	0xbe06e920	-0.13174868
90	0xbec6dbd4	-0.3883959
91	0x3e2e2199	0.17005004
92	0xbe5be4cb	-0.21473996
93	0xbc9ec548	-0.01938118
94	0x3c8b5e05	0.017012605
95	0x3eb01b79	0.3439596
96	0x3de2c102	0.110719696
97	0xbe29a43a	-0.16566554
98	0x3e24b143	0.16083245
99	0x3ec5c6e8	0.38628316
100	0x3ebd5c17	0.3698432
101	0x3eb06467	0.344516
102	0xbf1a6258	-0.6030631
103	0x3e7eba3a	0.24875727
104	0x3ea2851c	0.3174218
105	0xbecb7559	-0.39737967
106	0x3db1bdcd	0.0867878
107	0x3eff69b5	0.49885336
108	0x3d29e01f	0.041473504
109	0x3d491ba1	0.049098615
110	0x3c6b57fb	0.014364238
111	0xbea0b68a	-0.31389266
112	0x3eaab1c9	0.33338764
113	0x3e1719c0	0.14755917
114	0xbabaed0a	-0.0014261317
115	0xbed2d9e7	-0.4118187
116	0xbdf3590a	-0.11882217
117	0x3e1f8789	0.15579046
118	0xbd0f9795	-0.03505667
119	0xbf0380e9	-0.51368576
120	0xbe972f3c	-0.29528224
121	0x3e6e7701	0.23287584
122	0x3e4b31a1	0.1984315
123	0xbcc48649	-0.023989813
124	0xbd92f3f5	-0.07175437
125	0xbdff124f	-0.12454664
126	0x3f061215	0.5237134
127	0xbe187e2a	-0.14891878
128	0xbda63e75	-0.081173815
129	0xbee65c57	-0.44992325
130	0x3e1480e8	0.14502299
131	0xbf0080a2	-0.5019628
132	0xbe9ff1bf	-0.31239125
133	0xbdeeb1c0	-0.11654997
134	0x3ea169b7	0.31525967
135	0xbe6b1d5b	-0.22960417
136	0x3e952028	0.29126096
137	0x3e302969	0.17203297
138	0xbc68e45a	-0.0142145995
139	0x3e9803df	0.29690453
140	0x3e58cdac	0.21172208
141	0x3e92cd80	0.2867241
142	0xbea6ddcf	-0.32591102
143	0xbedff741	-0.43743327
144	0x3ef59ccf	0.47971198
145	0xbe943d41	-0.28952983
146	0x3e4bce27	0.1990286
147	0x3ed9046c	0.42386186
148	0xbecd9a5e	-0.40156835
149	0x3dc5bf60	0.096556425
150	0x3e737f71	0.23779084
151	0xbefa1586	-0.48844546
152	0xbf05cf96	-0.52269876
153	0xbe773101	-0.24139787
154	0xbd8a5186	-0.067538306
155	0xbd159bdf	-0.036525603
156	0x3ec46614	0.3835913
157	0xbee29100	-0.4425125
158	0xbdd56237	-0.104191236
159	0x3ea3eba8	0.3201573
160	0xbdc26628	-0.09492141
161	0xbdacb040	-0.084320545
162	0xbb1bde08	-0.0023783464
163	0x3d590a94	0.052988604
164	0x3de48d5f	0.11159777
165	0xbecbd871	-0.3981357
166	0xbe4c5749	-0.19955172
167	0xbe10f20f	-0.14154838
168	0xbee0b8e2	-0.43891054
169	0xbed5503f	-0.41662785
170	0x3e375b4c	0.1790592
171	0x3e4320a5	0.19055422
172	0x3ee16b56	0.44027203
173	0x3eb0f407	0.34561178
174	0x3e66f89b	0.22555773
175	0x3db14ca8	0.08657199
176	0x3d9c6547	0.076365046
177	0xbeaa6872	-0.3328281
178	0xbef19721	-0.47185615
179	0x3e8f087c	0.2793616
180	0xbebbe3a6	-0.3669712
181	0xbd81376a	-0.063093975
182	0x3e5ff216	0.21869692
183	0x3ea5d24c	0.32387006
184	0xbe04fc9c	-0.12986988
185	0x3e581718	0.2110256
186	0x3e3f4a9c	0.18680805
187	0xbefcc734	-0.4937073
188	0x3e7f1f26	0.24914226
189	0x3cb80040	0.022461057
190	0x3ca51940	0.020153642
191	0x3c935ba0	0.017988026
192	0xbe9d6015	-0.30737367
193	0x3ed5f3ff	0.41787717
194	0xbd9b8ee2	-0.07595612
195	0xbe12cd5a	-0.14336148
196	0xbeb1959d	-0.34684458
197	0xbef5ade9	-0.47984245
198	0x3dac3e88	0.084103644
199	0xbee03a78	-0.43794608
200	0xbeef7453	-0.46768436
201	0x3eea89fb	0.45808396
202	0x3d456736	0.048194133
203	0xbe9da050	-0.3078637
204	0xbe0fc5e9	-0.1404034
205	0x3e2e6d22	0.17033818
206	0x3e9e5315	0.30922762
207	0xbe91f724	-0.28508866
208	0xbef9a3f4	-0.487579
209	0xbe9c632e	-0.30544418
210	0xbf2076a5	-0.6268104
211	0x3b24c37e	0.0025140936
212	0x3eddd45b	0.43326077
213	0xbed84df4	-0.42246974
214	0xbe11177e	-0.14169118
215	0x3de9df53	0.11419549
216	0xbdf3d944	-0.119066745
217	0xbefc25c1	-0.49247554
218	0x3e86e3aa	0.2634557
219	0x3d28628d	0.04110961
220	0x3e7db4ee	0.2477605
221	0x3d7451f8	0.059648484
222	0xbe842092	-0.258061
223	0xbedd0183	-0.43165216
224	0xbe73d3b9	-0.23811235
225	0xbeb65cbb	-0.35617623
226	0xbe8afe91	-0.27147344
227	0xbe686e64	-0.2269836
228	0x3ccd9d10	0.025099307
229	0x3ddec017	0.10876482
230	0x3e9291bf	0.2862682
231	0xbd00a285	-0.03140499
232	0x3e8fe097	0.28101036
233	0xbe999708	-0.2999804
234	0xbcfec634	-0.03110037
235	0x3eb5a1d7	0.35475037
236	0x3e81f096	0.25378865
237	0x3da03509	0.07822616
238	0xbf076bf9	-0.5289913
239	0x3eaebfb7	0.34130642
240	0x3e8e1873	0.27753028
241	0xbdf949c7	-0.12172275
242	0xbe0a0423	-0.1347814
243	0x3d09bcb0	0.033627212
244	0x3e0f4c6f	0.13994001
245	0xbe9a897c	-0.30183017
246	0x3cbec6d2	0.023288164
247	0x3ec74d66	0.38926238
248	0x3e51b69e	0.20479819
249	0x3e8b3197	0.27186272
250	0x3d1b7447	0.037952688
251	0xbe7015e2	-0.23445848
252	0xbf07f9db	-0.53115624
253	0x3eb60360	0.3554945
254	0x3dd8de9e	0.10589336
255	0xba99c666	-0.0011732101

network.0.bias f4 [200]
0	0xbecfa9cd	-0.40559235
1	0x3e8b20fc	0.27173603
2	0xbe44f249	-0.1923305
3	0xbefbd082	-0.49182516
4	0xbd99d680	-0.07511616
5	0x3a8e9aa0	0.0010879822
6	0x3e8f6441	0.28006175
7	0xbeeff3d6	-0.4686572
8	0xbe46e291	-0.19422366
9	0x3e8a5dcc	0.27024686
10	0xbd9eb73a	-0.077497914
11	0xbe89ba0f	-0.26899764
12	0xbedf72c9	-0.43642262
13	0xbef7fede	-0.48436636
14	0xbe455c0c	-0.19273394
15	0x3e371ee0	0.17882872
16	0x3f00f025	0.5036643
17	0xbd1a09ee	-0.037607126
18	0x3e080d42	0.13286307
19	0xbea0ba7c	-0.31392276
20	0x3ecc55ba	0.39909154
21	0x3d33e5c6	0.0439203
22	0x3ed32916	0.41242284
23	0xbf070478	-0.52741194
24	0x3eb19d1b	0.34690174
25	0x3d31ee15	0.043439943
26	0x3e57769e	0.21041343
27	0xbe11a6f9	-0.14223851
28	0xbeddf9ad	-0.4335455
29	0x3e2407e0	0.16018629
30	0x3cc5eedc	0.024161749
31	0x3ebfc225	0.37452808
32	0x3b7fbc98	0.0039022323
33	0xbf0c2872	-0.54749215
34	0xbee6585e	-0.44989294
35	0xbee189eb	-0.44050536
36	0x3dbce8d6	0.092240974
37	0x3e6fb14c	0.23407477
38	0xbd82b2bf	-0.06381749
39	0xbea514da	-0.3224247
40	0x3d8d8812	0.06910719
41	0x3ea1f01d	0.31628504
42	0xbee69f41	-0.45043376
43	0xbeb72f53	-0.35778293
44	0xbf0a25f3	-0.53964156
45	0x3d9f5a1d	0.077808596
46	0x3e6e7315	0.23286088
47	0x3ed52685	0.4163095
48	0xbe32c6d5	-0.17458661
49	0x3eb3adc5	0.35093513
50	0x3e7891b1	0.24274327
51	0x3e6ebd7f	0.23314475
52	0xbe159a11	-0.14609553
53	0xbf0cb7d4	-0.54968
54	0x3e24ce09	0.16094221
55	0xbe65bfce	-0.22436449
56	0x3ebd488b	0.36969408
57	0x3ef9a43f	0.48758122
58	0x3e49e32a	0.19715562
59	0xbc63d9e5	-0.013906931
60	0x3ddf9727	0.10917502
61	0x3edb79c1	0.42866328
62	0x3eeda4f5	0.46414915
63	0xbe7c64e8	-0.24647868
64	0x3ea08320	0.3135004
65	0xbef06a55	-0.46956125
66	0x3ec0216d	0.37525502
67	0xbdf371e9	-0.11886961
68	0x3f00a6e1	0.50254637
69	0x3da4b0fd	0.0804157
70	0xbf17c34e	-0.59282386
71	0xbe44d178	-0.19220531
72	0xbe875511	-0.26432088
73	0x3eedbeca	0.46434623
74	0x3b869de0	0.0041081756
75	0x3eb3d8d0	0.35126352
76	0x3d5f83f9	0.05456922
77	0x3e122af4	0.14274198
78	0xbeb6235d	-0.35573855
79	0xbd7d1c5c	-0.061794624
80	0x3e8c4eec	0.27403963
81	0x3ea324c2	0.3186398
82	0xbe5b022d	-0.21387549
83	0x3c98a642	0.018633965
84	0xbf05a319	-0.5220199
85	0x3ee30b8f	0.44344756
86	0x3d64dbd7	0.055873718
87	0x3ea6d7bb	0.32586464
88	0x3ee28889	0.44244793
89	0xbece2695	-0.4026381
90	0xbe3fd41b	-0.18733256
91	0xbe826368	-0.25466466
92	0x3f071bca	0.5277678
93	0xbf104c1d	-0.5636614
94	0x3e5dff3c	0.21679395
95	0x3e956de8	0.29185414
96	0x3ed63017	0.41833565
97	0x3f0204b5	0.5078843
98	0x3d13db79	0.036097977
99	0x3ee6a24f	0.45045707
100	0x3dbf050b	0.09327134
101	0x3e8d66f8	0.2761762
102	0xbe314234	-0.1731041
103	0xbbc46475	-0.0059934207
104	0x3e87b65e	0.26506323
105	0xbeba98ca	-0.36444694
106	0xbe14dc3d	-0.14537139
107	0x3ef45c6a	0.47726756
108	0x3d088cdc	0.03333746
109	0x3ef98b51	0.48739102
110	0x3f01f3c3	0.50762576
111	0x3ed86449	0.42264012
112	0x3ea52556	0.32255048
113	0xbe6fcfc1	-0.23419096
114	0xbee395ae	-0.44450134
115	0xbe48c852	-0.19607666
116	0xbea9067d	-0.33012763
117	0xbeb1a04c	-0.3469261
118	0xbd2c80af	-0.04211491
119	0x3d0147ba	0.031562544
120	0xbe84aeb7	-0.25914547
121	0xbe43d590	-0.19124436
122	0xbe1756d0	-0.1477921
123	0x3cb82a0b	0.022480985
124	0xbe5903f1	-0.2119291
125	0x3e1f887a	0.15579405
126	0x3cb28244	0.021790631
127	0x3ed4d20e	0.4156651
128	0x3e716dcc	0.2357704
129	0xbeeb62d6	-0.45973843
130	0x3e4654e7	0.19368325
131	0x3e60927e	0.21930882
132	0x3dceef8b	0.10104283
133	0xbe16394b	-0.14670293
134	0xbe7dee95	-0.24798043
135	0xbd853474	-0.06504145
136	0x3db00e10	0.08596432
137	0xbe94dd29	-0.29074982
138	0x3ec913a2	0.3927279
139	0x3d848716	0.06471078
140	0xbc3643b4	-0.01112454
141	0xbd9a20f7	-0.07525819
142	0xbd97cb4c	-0.07411823
143	0x3e55a3b0	0.20863223
144	0x3ed47e74	0.41502726
145	0xbd21745a	-0.039417602
146	0xbe34f29a	-0.1767067
147	0xbdaf09e8	-0.08546811
148	0xbe957a6b	-0.2919496
149	0x3ebfe8d4	0.3748232
150	0x3eb3f7f6	0.35150117
151	0x3df7637e	0.120795235
152	0xbeedf389	-0.46474865
153	0xbe5bb9bd	-0.21457572
154	0xbe94ec67	-0.2908661
155	0xbea8e736	-0.329889
156	0xbdba1cc5	-0.090875186
157	0xbde83121	-0.113374956
158	0x3eac20db	0.33618817
159	0x3e9ce56d	0.30643788
160	0x3e021a47	0.12705337
161	0x3e78e1a9	0.24304833
162	0xbef0916f	-0.46985957
163	0x3eebac22	0.46029764
164	0xbf0cce45	-0.5500224
165	0xbe5f2e1b	-0.21794932
166	0xbe819855	-0.25311533
167	0x3e97ed22	0.29673105
168	0x3ec0eff9	0.37683085
169	0xbe2bee46	-0.16790113
170	0x3ebe575c	0.37176025
171	0x3eaef297	0.34169456
172	0x3e32e7d1	0.17471243
173	0xbe8ff75b	-0.28118405
174	0xbea0008b	-0.31250414
175	0xbe33b479	-0.17549314
176	0xbe4ce3b8	-0.20008743
177	0xbf1bd943	-0.6087839
178	0x3bfcf12d	0.00771918
179	0xbee3d8f8	-0.44501472
180	0x3e1b6794	0.1517623
181	0x3edd2634	0.4319321
182	0xbed0002a	-0.40625125
183	0x3e737637	0.23775564
184	0x3d0cf172	0.034409948
185	0xbee3d2f7	-0.4449689
186	0x3e306e6e	0.17229626
187	0x3e93a230	0.28834677
188	0x3d196e16	0.0374585
189	0xbf04f267	-0.51932377
190	0xbedef0e8	-0.43543172
191	0xbec1dd41	-0.37864116
192	0x3ec9c334	0.3940674
193	0xbecd0a78	-0.4004705
194	0x3e614adb	0.22001211
195	0xbf01cbfd	-0.50701886
196	0xbe9b7f70	-0.30370665
197	0x3e8dfdca	0.27732688
198	0xbe3dba74	-0.18528157
199	0xbd67f103	-0.05662633

network.2.weight f4 [200, 200]
0	0xbd6cacfc	-0.05778216
1	0x3d888933	0.06666794
2	0x3c8db450	0.017297894
3	0xbd3e44a2	-0.046452172
4	0x3d553898	0.052055925
5	0x3daec452	0.08533539
6	0xbd0d575f	-0.03450715
7	0x3d4b36fa	0.049612977
8	0xbd11a3b8	-0.035556525
9	0x3cdcf1ca	0.026970763
10	0xbda2b89b	-0.07945367
11	0xbdd32f71	-0.10311783
12	0x3d32f81c	0.043693647
13	0x3da22bdd	0.079185225
14	0xbd65c9b5	-0.056100566
15	0x3c7c6f7b	0.015407438
16	0xbd718454	-0.05896409
17	0x3c9e0acb	0.019292256
18	0x3d89b309	0.06723601
19	0x3dac6d1f	0.08419251
20	0xbd9797dc	-0.07402012
21	0xbdfb1610	-0.122600675
22	0xbd51ca62	-0.051218398
23	0xbd6a8349	-0.05725411
24	0x3da4f185	0.08053879
25	0x3c1caf3e	0.009563265
26	0x3cdd7d67	0.027037336
27	0x3d93f9ac	0.072253555
28	0xbe2a7a6f	-0.16648267
29	0x3ba90513	0.0051580756
30	0xbda57873	-0.080796145
31	0xbcc65d74	-0.024214484
32	0x3ccd129f	0.025033293
33	0xbdeb27ba	-0.114821866
34	0x3cb80419	0.022462891
35	0xbc10e62e	-0.008843942
36	0x3d9dbc05	0.077018775
37	0x3d54bd0a	0.051938094
38	0xbcba23dc	-0.022722177
39	0x3d335e6f	0.04379123
40	0x3db3d932	0.08781661
41	0x3d5902a9	0.052981053
42	0xbdea9bf8	-0.1145553
43	0x3df7077e	0.12061976
44	0xbe4a0e81	-0.19732095
45	0xbd00be90	-0.031431735
46	0x3d0da3a1	0.034579877
47	0xbd03bd6e	-0.032163076
48	0xbd7a3f85	-0.061095733
49	0xbd7578a0	-0.05992949
50	0x3d2b9178	0.041886777
51	0xbd59e32d	-0.053195167
52	0xbd523187	-0.051316764
53	0x3ba75480	0.0051065087
54	0x3c67b9ad	0.01414339
55	0xbd3aa4c4	-0.04556729
56	0xbdaa0c62	-0.08303143
57	0x3cd2a8b1	0.025715204
58	0x3ce26e1b	0.027640393
59	0xbcd9736b	-0.026544293
60	0xbca295fa	-0.019846905
61	0x3d949a80	0.07256031
62	0xbd740ed2	-0.059584446
63	0xbc9e2078	-0.019302592
64	0xbd210a85	-0.039316673
65	0xbdf55312	-0.11978735
66	0x3d04d9e0	0.032434344
67	0x3c518b27	0.012789524
68	0x3c735459	0.014851653
69	0xbc684788	-0.014177211
70	0x3c773b42	0.015089812
71	0xbe5e7aed	-0.2172658
72	0x3d67e146	0.056611322
73	0xbd32e5bc	-0.043676123
74	0x3d81dcd2	0.06340946
75	0x3c70d8c4	0.014700118
76	0x38260836	3.958513e-05
77	0xbd52b8a2	-0.05144561
78	0xbdb4e0ad	-0.08831916
79	0x3c4aca5c	0.012377348
80	0xbd5c104d	-0.053726483
81	0xbcfcd61b	-0.030863812
82	0xbd18ab20	-0.037272573
83	0x3c8b0ba9	0.016973333
84	0x3c1b5c8b	0.009482513
85	0x3da03157	0.07821911
86	0xbd21707a	-0.039413907
87	0x3d4ad6fb	0.049521428
88	0x3db0f99c	0.08641359
89	0x3dfa489b	0.1222088
90	0x3d16e1aa	0.036836304
91	0xbd5d6d80	-0.054059505
92	0x3b348656	0.002754589
93	0xbd6fbd9a	-0.058530428
94	0xbbcc40ed	-0.0062333257
95	0xbd09944a	-0.033588685
96	0xbc9e9901	-0.019360067
97	0x3c8aebb9	0.016958104
98	0x3d086cf1	0.03330702
99	0x3d1de950	0.038552582
100	0x3d2d13a4	0.04225506
101	0xbd1b6920	-0.037942052
102	0x3dd4cd8d	0.10390768
103	0x3daea2a8	0.08527118
104	0x3d69ec96	0.05711039
105	0xbd40cd69	-0.047070894
106	0xbd8a23eb	-0.06745132
107	0x3d9f8965	0.07789878
108	0xbd33d159	-0.04390082
109	0x3d850799	0.0649559
110	0xbcc47c08	-0.023984924
111	0xbd4d26be	-0.050085776
112	0xbc8331ce	-0.01601496
113	0x3d7ac878	0.06122634
114	0x382d83b1	4.136906e-05
115	0xbc541270	-0.012943849
116	0x3d868685	0.06568626
117	0xbd1f4a5b	-0.03888927
118	0xbde7d791	-0.11320413
119	0x3cc7ce44	0.024390347
120	0x3db14e71	0.0865754
121	0xbd0796c8	-0.03310278
122	0xbc7cb9e5	-0.01542518
123	0x3c12d3d8	0.00896164
124	0xbccb5595	-0.024821082
125	0xbcb45fb9	-0.0220183
126	0x3cb1e6bb	0.021716466
127	0xbd74d461	-0.059772853
128	0x3ba8ce3d	0.0051515386
129	0x3cdacad0	0.026708037
130	0xbb8ea608	-0.0043532886
131	0x3db50b40	0.088400364
132	0xbc95699b	-0.018238833
133	0x3d3c9f63	0.04605044
134	0x3d8848bd	0.06654499
135	0x3cd64351	0.026155146
136	0xbd9aca81	-0.07558156
137	0xbe194b6a	-0.14970174
138	0x3d4d1f66	0.050078772
139	0x3d83f844	0.06443837
140	0xbd295bd1	-0.04134733
141	0x3b8106c0	0.0039375722
142	0x3c7c7eb7	0.015411071
143	0x3cbe4321	0.023225369
144	0x3c627ae1	0.013823242
145	0x3d34e4ab	0.044163387
146	0x3d69501f	0.056961175
147	0x3cb8a8bf	0.022541402
148	0x3b22ba6d	0.0024830357
149	0xbc66086f	-0.014040097
150	0x3d511a58	0.051050514
151	0xbdcf0196	-0.10107724
152	0x3daffa94	0.08592716
153	0xbd4813d4	-0.048847035
154	0xbc1aedaf	-0.009456082
155	0x3d51638d	0.05112033
156	0x3d94c357	0.072638206
157	0x3d7329d7	0.059366073
158	0xbc5e85df	-0.013581722
159	0x3c3cb53a	0.011517817
160	0x3ddc5fe2	0.10760476
161	0x3dcd533a	0.1002564
162	0xbd927561	-0.071512945
163	0x3a847441	0.0010105447
164	0x3d2fc7ee	0.042915277
165	0xbbadbcc7	-0.005302045
166	0x3cb25582	0.021769289
167	0xbd827a3b	-0.0637097
168	0xbd001f9b	-0.03128014
169	0xbcf247ba	-0.029575218
170	0x3d6af298	0.05736026
171	0x3c5a85cb	0.013337563
172	0x3d8afa6d	0.06786046
173	0xbd1a720d	-0.037706424
174	0x3d840a3b	0.06447264
175	0xbcafe0fe	-0.02146959
176	0x3d0fbe25	0.035093445
177	0xbdaf7769	-0.085676976
178	0xbcbef152	-0.02330843
179	0x3d2007b3	0.039069843
180	0x3de0b817	0.10972612
181	0x3dc3bd46	0.095575854
182	0x3dc6e9d0	0.09712565
183	0xbc527697	-0.012845657
184	0xbccb46ea	-0.024814088
185	0x3d01e76c	0.03171484
186	0x3cbde5e0	0.023180902
187	0x3d80b598	0.06284636
188	0x3d844fdb	0.06460544
189	0xbde8baaa	-0.11363728
190	0x3d8bb725	0.068220414
191	0x3d3b2537	0.045689788
192	0xbccd9862	-0.025097076
193	0x3c404a28	0.01173643
194	0x3cd4ff58	0.026000664
195	0xbc9544c8	-0.018221274
196	0x3c802dd3	0.01564685
197	0xbd85d9a0	-0.06535649
198	0x3c74ab5c	0.014933433
199	0xbd0a7044	-0.03379847
200	0x3d2546fb	0.040350895
201	0x3d438134	0.04773064
202	0x3d89274b	0.06696948
203	0x3dbbdb6d	0.091727115
204	0x3d853b27	0.06505423
205	0xbd35b261	-0.04435957
206	0x3db07f30	0.08618009
207	0x3d8601fd	0.06543348
208	0x3dbc6a07	0.091999106
209	0x3d5b9413	0.05360801
210	0xbd041219	-0.03224382
211	0xbd0c94f7	-0.03432175
212	0x3da8bab5	0.082387365
213	0xbdb643d1	-0.08899654
214	0xbd2f46a7	-0.04279199
215	0xbd981695	-0.07426182
216	0x3d28e37a	0.041232564
217	0x3d805d0c	0.06267747
218	0x3c103f41	0.008804143
219	0xbd83a6b6	-0.06428282
220	0xbc14364b	-0.009046148
221	0x3c117fcd	0.008880568
222	0xbd1732f8	-0.036913842
223	0xbd0e7438	-0.034778804
224	0xbc3dad21	-0.011576922
225	0x3d2db4f3	0.042408895
226	0xbdba1896	-0.09086721
227	0x3d4d860b	0.05017666
228	0xbd02a9bd	-0.031900156
229	0xbca5b61f	-0.020228444
230	0xbd8c3079	-0.06845183
231	0xbd68ae69	-0.056806955
232	0xbcee4f55	-0.029090563
233	0xbd280774	-0.041022733
234	0x3c6daafe	0.0145061
235	0x3c299824	0.010351215
236	0xbd626a96	-0.05527743
237	0xbc82e8f8	-0.015980229
238	0x3cc9f017	0.024650617
239	0xbd898f26	-0.067167565
240	0xbd2ab2a5	-0.041674275
241	0xbd51b5ff	-0.051198956
242	0xbe037226	-0.12836513
243	0xbd9d32a3	-0.07675674
244	0x3ccc3dfc	0.0249319
245	0x3d4c386e	0.049858503
246	0xbca19e19	-0.019728707
247	0x393981d3	0.00017691338
248	0x3ce2c28d	0.02768066
249	0xbc872d0a	-0.016500968
250	0x3d5a4d47	0.053296354
251	0xbd03f312	-0.03221423
252	0x3c6efc7e	0.014586566
253	0xbcbf3e6e	-0.023345198
254	0x3d6f885c	0.05847965
255	0x3d726ad1	0.0591839

network.2.bias f4 [200]
0	0xbd0d6b95	-0.034526426
1	0x3abbdb81	0.0014332385
2	0x3d819505	0.06327251
3	0x3c5b73ef	0.01339434
4	0x3d9053dc	0.07047245
5	0xbc9db92d	-0.019253338
6	0xbd1f719a	-0.0389267
7	0xbaf1f373	-0.0018459394
8	0x3d05bf6d	0.03265326
9	0x3b1b491d	0.0023694702
10	0xbaea7614	-0.0017887973
11	0x3d8cd0d4	0.06875768
12	0xbb833529	-0.00400414
13	0x3d1bce3b	0.038038474
14	0x3d26d4fc	0.04073046
15	0x3c17aefb	0.009258027
16	0xbd2a057d	-0.04150914
17	0xbceb634c	-0.028733872
18	0xbd0bb9f5	-0.03411289
19	0xbb8b3b91	-0.004249044
20	0x3c818c24	0.015813895
21	0xbd50240d	-0.05081563
22	0x3d6dbe7e	0.058042996
23	0xbd95f40c	-0.07321939
24	0x3dbe754b	0.092997156
25	0x3d7e476c	0.062079832
26	0xbd43df5b	-0.04782043
27	0x3d568dcc	0.05238132
28	0xbd288c10	-0.0411492
29	0x3cbeedb0	0.023306698
30	0xbd5ef780	-0.054435253
31	0x3bbf300b	0.0058345846
32	0x3da26930	0.07930219
33	0x3d345b43	0.044032346
34	0x3d950fd4	0.072784096
35	0x3d1fd7ea	0.03902427
36	0xbcba8967	-0.022770597
37	0xbc562737	-0.013070873
38	0xbb9afbc2	-0.004729719
39	0x3d57fdda	0.052732326
40	0x3d1b7891	0.037956778
41	0xbc367047	-0.011135167
42	0x3d7b7927	0.061394837
43	0x3d8e43f0	0.06946552
44	0xbd269b38	-0.040675372
45	0x3d3210f4	0.0434732
46	0x3d223f2b	0.039611023
47	0x3caa6773	0.020801282
48	0x3cd533e0	0.026025712
49	0x3cb1c4d4	0.0217003
50	0xbd1c39f2	-0.0381412
51	0xbd4f1929	-0.050561104
52	0xbafb0da0	-0.0019153841
53	0x3d2651ba	0.040605284
54	0xba342a83	-0.000687279
55	0x3d869ec9	0.065732546
56	0xbd151d2b	-0.03640477
57	0xbcf093ef	-0.029367415
58	0x3d968278	0.07349104
59	0xbd53df2f	-0.051726516
60	0xbcabe930	-0.020985216
61	0xbd4e469f	-0.05036032
62	0xbc5c3327	-0.01343993
63	0xbd170948	-0.036874086
64	0x3cce309e	0.025169667
65	0x3d017bbb	0.03161214
66	0x3a97ddfe	0.0011586545
67	0x3ba8f71f	0.0051564123
68	0x3bee5e51	0.007274427
69	0xbd1fa38c	-0.03897433
70	0xbd2fabe1	-0.042888526
71	0xbcfb0cd4	-0.030645765
72	0xbcc6ae87	-0.024253143
73	0xbc73dcc4	-0.014884178
74	0xbd888127	-0.06665259
75	0x3d020cdf	0.031750556
76	0xbcc81f71	-0.024429055
77	0x3cc17611	0.023615869
78	0xbd0299d3	-0.03188498
79	0x3ca7c2da	0.020478655
80	0x3c92cb7a	0.01791929
81	0x3d915002	0.070953384
82	0xb980bd58	-0.00024555135
83	0xbdc20cad	-0.09475074
84	0x3cc368e3	0.023853725
85	0xba868cc6	-0.0010265342
86	0x3d7e05dd	0.06201731
87	0xbc719570	-0.014745101
88	0x3cc1498d	0.023594642
89	0x3d672f15	0.056441385
90	0x3cab8771	0.020938607
91	0x3cdc4442	0.026888017
92	0xbd8f346f	-0.06992423
93	0xb9dd041e	-0.00042155472
94	0xbd1f3ee5	-0.03887834
95	0x3d6ae3da	0.057346202
96	0x3daf9d7b	0.08574959
97	0xbd1b7ea2	-0.037962563
98	0xbd599eaa	-0.05312983
99	0x3c970531	0.018435093
100	0x3ac5e8b7	0.0015099262
101	0x3d1929ad	0.03739326
102	0xbd685682	-0.056723125
103	0x3d1aadbc	0.037763342
104	0x3c6a7e64	0.01431236
105	0x3d0f9ae7	0.035059836
106	0x3d603d9d	0.05474626
107	0x3b94f72d	0.004546067
108	0xbd039d1e	-0.03213226
109	0x3d4622e6	0.048373125
110	0xbba3b357	-0.004995744
111	0xbd3dc220	-0.04632771
112	0x39d01935	0.00039691632
113	0xbc9cb73b	-0.01913034
114	0x3bc8ab29	0.0061239195
115	0x3bc0f2eb	0.005888333
116	0xbd84d8aa	-0.06486638
117	0xbcd66b76	-0.026174288
118	0x3b032d8e	0.0020016166
119	0x3d6bbc7f	0.05755281
120	0xbc01523a	-0.0078931395
121	0x3ca9c5a9	0.020724135
122	0x3bfc041e	0.0076909205
123	0xbcdf30a6	-0.027244877
124	0x3d9f3c48	0.077751696
125	0x3d84e28f	0.06488525
126	0xbcf278a2	-0.029598538
127	0xbb42824f	-0.002967972
128	0x3a0a7cdb	0.0005282887
129	0xbc624b63	-0.013811919
130	0xbcf2d7d4	-0.02964393
131	0xbd344fb9	-0.044021342
132	0xbb315d51	-0.0027063678
133	0x3d8be9b8	0.06831688
134	0x3b88653e	0.0041624596
135	0xbd750333	-0.059817504
136	0xbcb1eaec	-0.021718465
137	0xbd1140e3	-0.03546227
138	0x3cad0914	0.021122493
139	0xbe0de036	-0.13855061
140	0xbaa6aed6	-0.00127169
141	0x3d59ba71	0.05315632
142	0xbc3839fc	-0.011244293
143	0xbc21a40b	-0.009865771
144	0x3d655162	0.055985816
145	0x3dada5f0	0.08478916
146	0x3d53dfcf	0.051727112
147	0x3d5acc3c	0.05341743
148	0xbc678d5e	-0.014132826
149	0xbcb25eb8	-0.021773681
150	0xbd6faeb5	-0.058516223
151	0x3c3e7f35	0.011627008
152	0xbd02a718	-0.031897634
153	0x3db1dbe8	0.08684522
154	0x3cf11ea6	0.02943356
155	0xb9243113	-0.0001565854
156	0xbc88d701	-0.016704084
157	0xbd40e820	-0.04709637
158	0xbd860cca	-0.06545408
159	0x3d9e9fc0	0.07745314
160	0xbced22e4	-0.028947301
161	0xbd3af2e8	-0.04564181
162	0xbcac9eb4	-0.02107177
163	0x3d62db22	0.055384763
164	0xbb2038b5	-0.0024447863
165	0x3d5a62d2	0.0533169
166	0x3c41be9b	0.011825229
167	0x3d8a60b3	0.06756725
168	0x3d278ff2	0.04090876
169	0x3d57cb58	0.052684158
170	0x3c77c946	0.015123671
171	0x3c4faa28	0.012674846
172	0x3d8d6af5	0.06905166
173	0x3b18d112	0.0023317975
174	0xbbcfd231	-0.0063421954
175	0x3bbbdd83	0.0057331934
176	0xbd554928	-0.05207172
177	0xbb83dabb	-0.0040238774
178	0xbba3a103	-0.0049935593
179	0x3b03172d	0.0020002828
180	0xbd3c265d	-0.045935024
181	0xbcccd761	-0.025005044
182	0xbbfa2865	-0.00763421
183	0xbc59c508	-0.013291605
184	0xbc017a72	-0.007902728
185	0x3dc6cccf	0.09707033
186	0x3bf20788	0.0073861517
187	0x3c39449a	0.01130786
188	0x3d723867	0.05913582
189	0xbd90340d	-0.07041178
190	0xbc6065b9	-0.013696128
191	0x3b059b3d	0.0020386719
192	0x3d1c6cdd	0.038189758
193	0x3d44775e	0.0479654
194	0x3c91b975	0.017788628
195	0xbd2893bc	-0.041156515
196	0x3bae683d	0.0053224848
197	0x3da68db3	0.08132496
198	0xbcfaf99c	-0.030636601
199	0x3baff32e	0.0053695654

network.4.weight f4 [3, 200]
0	0x3d93f911	0.0722524
1	0x3a9bfd4c	0.001190105
2	0xbd399b6c	-0.045314237
3	0xbc43661c	-0.0119262
4	0xbcd6249f	-0.02614051
5	0x3d5cef04	0.05393888
6	0xbdec4539	-0.11536641
7	0xbc9b1110	-0.018929034
8	0x3cf7a9a9	0.030232267
9	0xbcd15be0	-0.025556505
10	0xbcf2995e	-0.029614147
11	0xbd0f4949	-0.034982
12	0xbbe5c649	-0.007012163
13	0x3d4b1ad5	0.049586136
14	0x3d1141e0	0.035463214
15	0xbcd9e589	-0.026598709
16	0x3da61060	0.08108592
17	0x3a9dbad5	0.001203383
18	0xbd267116	-0.04063519
19	0x3db822eb	0.08991035
20	0xba6bbbc9	-0.0008992521
21	0xbd88e95f	-0.06685137
22	0xbcb31ac0	-0.021863341
23	0xbd1bd2d5	-0.038042862
24	0xbd0bfc7f	-0.034176346
25	0x3d1b4ab3	0.037913036
26	0x3d9f632a	0.07782586
27	0x3ccdc09c	0.025116257
28	0xbc3a23dd	-0.01136109
29	0xbc9fc295	-0.019501964
30	0xbdd9d231	-0.10635794
31	0x3d8635db	0.06553241
32	0x3c7da31e	0.015480785
33	0x3c1626b2	0.009164499
34	0xbc93e4d0	-0.018053442
35	0xbcb6dda7	-0.022322489
36	0xbce3c6c9	-0.02780475
37	0xbc17e40e	-0.009270681
38	0x3b3009a7	0.0026861222
39	0xbb9c8d66	-0.004777598
40	0x3cd91941	0.0265013
41	0x3c8f9b6e	0.01753017
42	0x3cd2cd01	0.02573252
43	0xba2337af	-0.0006226254
44	0x3cd08582	0.025454286
45	0xbd337eac	-0.043821976
46	0x3a91a35f	0.001111131
47	0xbd499233	-0.049211692
48	0x3ccf903e	0.025337335
49	0x3c281039	0.010257774
50	0xbc601f4c	-0.013679337
51	0x3d7841d3	0.06060965
52	0xbd1029fb	-0.035196286
53	0x3db3cc84	0.08779243
54	0xbd0aba22	-0.033868916
55	0x3b138cb4	0.0022514286
56	0x3d1f7aaf	0.03893536
57	0x3c34576b	0.01100717
58	0xbcdefc3d	-0.027219886
59	0x3d19c8d3	0.037545037
60	0xbbb58d9e	-0.0055405637
61	0x3d6fd66a	0.05855409
62	0xbd367269	-0.044542704
63	0xbc01718e	-0.007900609
64	0xbd79a744	-0.060950533
65	0x3d184d2f	0.037182983
66	0x3d22dd41	0.039761785
67	0xbd4744d2	-0.048649617
68	0x3b44564a	0.002995866
69	0xbb7d11ff	-0.0038615463
70	0xbd0e5fee	-0.034759454
71	0xbc77b68f	-0.015119209
72	0x3d23599b	0.039880376
73	0x3bc76aee	0.006085745
74	0xbc58c9c4	-0.013231698
75	0x3c07e430	0.00829415
76	0xbe06cb92	-0.13163593
77	0xbc81f57d	-0.015864128
78	0x3d1dc3e4	0.038516894
79	0xbd0e1341	-0.03468633
80	0x3d0e2abd	0.034708727
81	0x3a56d76a	0.00081955513
82	0xbcbaaa5b	-0.02278631
83	0xbd07204a	-0.032989778
84	0x3c06018b	0.008179079
85	0x3d4efe7e	0.05053567
86	0x3c84eabf	0.016225217
87	0xbc83dc9b	-0.016096404
88	0xbc97e90e	-0.018543746
89	0x3da76971	0.08174408
90	0xbbe257a3	-0.00690742
91	0x3d3c1daa	0.045926727
92	0x3ceb74f9	0.0287423
93	0x3d7661e0	0.060151935
94	0xbd1ae922	-0.03781999
95	0xbc8569a5	-0.016285727
96	0x3c13b161	0.009014458
97	0xbd4d75ef	-0.0501613
98	0xbd063209	-0.03276256
99	0x3ad4b326	0.0016227707
100	0x3d04d9c1	0.03243423
101	0xbd8811d6	-0.06644027
102	0x3c9f1bc1	0.019422414
103	0xbcd99502	-0.02656031
104	0x3d958d23	0.0730231
105	0xba0900ca	-0.0005226253
106	0x3d88f6dc	0.0668771
107	0xbcc95736	-0.024577718
108	0x3d5bc739	0.05365679
109	0x3bbda464	0.005787419
110	0xbd034ac0	-0.03205371
111	0x3c9f8ed8	0.019477293
112	0x3d226f4a	0.039656915
113	0xbdd24ad9	-0.10268182
114	0x3bd11c65	0.0063815587
115	0xbc5d92cc	-0.013523769
116	0xbcb8dab6	-0.022565227
117	0xbd14c10b	-0.036316913
118	0x38d49151	0.00010136015
119	0x3da54e40	0.08071566
120	0x3c87c4f8	0.016573414
121	0x3d74bdb9	0.059751246
122	0x3bab81ca	0.005233978
123	0xbd2bef57	-0.0419763
124	0xbd8cf3ce	-0.068824396
125	0xbce2f8eb	-0.027706584
126	0x3cf6a55d	0.030108148
127	0x3d25ad02	0.040448196
128	0x3b5b74c6	0.003348635
129	0xbccf2d52	-0.025290165
130	0x3c307529	0.010770121
131	0xbc140923	-0.0090353815
132	0xbd92604a	-0.07147272
133	0xbd280366	-0.041018866
134	0xbdaed637	-0.08536952
135	0x3c942143	0.018082267
136	0x3cd398bc	0.025829665
137	0xbc8e30da	-0.017357279
138	0xbc601148	-0.013675995
139	0xbdddc3f4	-0.10828391
140	0xbbf371ec	-0.007429352
141	0x3cf8fa6c	0.030392848
142	0xbb148cc6	-0.0022666915
143	0x3d879a91	0.06621278
144	0x3ce9a84a	0.02852263
145	0x3d90feb1	0.070798285
146	0xbc93e70e	-0.018054511
147	0x3d85fe60	0.06542659
148	0x3c810f30	0.015754312
149	0x3cf8f844	0.03039182
150	0x3d72a6eb	0.059241217
151	0x3d5b7cf2	0.053585954
152	0xbd619f10	-0.055083334
153	0xbcd9d179	-0.026589142
154	0xbc7468fd	-0.014917609
155	0xbc3291c3	-0.01089901
156	0x3cf4f49d	0.029901797
157	0x3cc7a663	0.024371332
158	0x3c8af877	0.01696418
159	0x3dc50722	0.09620501
160	0xbddc9509	-0.10770614
161	0xbc1f6b4b	-0.0097301705
162	0xbd8e8ee4	-0.06960848
163	0xbd23c158	-0.03997931
164	0x3d042f6a	0.03227178
165	0x39f78f95	0.00047218488
166	0x3cfe651e	0.031054076
167	0x3d8ae349	0.067816325
168	0xbd3073a7	-0.043079045
169	0xbce47aa9	-0.02789052
170	0x3cf88823	0.030338353
171	0xbcb169b3	-0.021656847
172	0x3da81e9c	0.08208963
173	0x3c0a8be6	0.008456206
174	0xbd0846a6	-0.0332705
175	0x3d6b9ee5	0.05752458
176	0x3cb59b27	0.022168709
177	0xbbe71475	-0.007051999
178	0x3c22bb52	0.009932356
179	0xbc623f2f	-0.013809009
180	0x3cfed0e1	0.03110546
181	0x3d8b0e6c	0.0678986
182	0x3d816c63	0.06319501
183	0xbcd94641	-0.026522757
184	0x3c0aa14a	0.008461306
185	0x3ab5e89b	0.0013878526
186	0xb9d47b3d	-0.0004052761
187	0xbd1cdcc7	-0.038296487
188	0xbd816382	-0.06317808
189	0xbb191973	-0.0023361116
190	0x3ab8cf59	0.001409988
191	0x3cd9d6aa	0.026591618
192	0xbd1cd29b	-0.038286787
193	0x3d61e6fd	0.05515193
194	0x3d5419ba	0.051782347
195	0x3c3c0026	0.011474645
196	0xbac95cf3	-0.0015362784
197	0x3cbf5900	0.023357868
198	0x3d958a21	0.073017366
199	0x3d3fd76b	0.046836298
200	0x3d4c78b8	0.049919814
201	0xbbc245c3	-0.0059287264
202	0xbd5bc1cb	-0.053651612
203	0x3c9090b5	0.017647127
204	0xbb1c9dff	-0.0023897884
205	0xbcaa8768	-0.02081652
206	0xbda84bdf	-0.08217596
207	0x3d7d0f64	0.061782256
208	0x3b658f65	0.0035028097
209	0xbcde8756	-0.027164143
210	0xbdc6f365	-0.097143926
211	0xbcc9f721	-0.024653973
212	0x3ce48fbf	0.027900575
213	0x3cf5293e	0.029926892
214	0xb843e8df	-4.67085e-05
215	0x3c6e3407	0.0145387715
216	0x3d45d828	0.048301846
217	0xbb7f6a9d	-0.0038973459
218	0xbca5d3f1	-0.020242663
219	0xbc8c7f57	-0.017150564
220	0xbb2df043	-0.0026540912
221	0x3d717c00	0.058956146
222	0x3d29d408	0.041461974
223	0x3d18ed37	0.0373356
224	0xbd23f5a8	-0.040029198
225	0xbd088368	-0.033328444
226	0xbcb641a8	-0.022248104
227	0xbd65ef2e	-0.056136303
228	0x3cabc8cb	0.020969769
229	0x3d3599eb	0.04433624
230	0x3ba489d7	0.0050213146
231	0xbc5fecaa	-0.013667265
232	0x3cde2b41	0.027120234
233	0xbd862fab	-0.06552061
234	0x3be56070	0.0070000216
235	0xbc189f73	-0.009315359
236	0x3dfb3c1d	0.12267325
237	0xbb126417	-0.002233749
238	0x3bc4d4bf	0.0060068066
239	0xbd360158	-0.044434875
240	0xbc4ac45d	-0.012375918
241	0x3c857276	0.01628993
242	0x3c55b86b	0.013044457
243	0xbd9f60c0	-0.077821255
244	0xbd18e7e5	-0.037330527
245	0xbd55c9ae	-0.05219429
246	0x3c4d029d	0.01251283
247	0x3c93c99b	0.018040469
248	0x3c9f93be	0.019479629
249	0x3d2c570c	0.042075202
250	0x3d2507f4	0.040290788
251	0x3d3a6c06	0.045513175
252	0xbd559808	-0.05214694
253	0x3c90890c	0.017643474
254	0x3c15edf2	0.009150969
255	0xbcffcde5	-0.031226108

network.4.bias f4 [3]
0	0xbd2e129b	-0.042498212
1	0x3d3ba90c	0.045815513
2	0x3d18b78a	0.03728441
