output/best_fm/20190301_053948/model.pt (torch_old, 167491 bytes, 6 tensors)

network.0.weight f4 [200, 3]
0	0xbe9f15e6	-0.31071395
1	0xbe2998a0	-0.16562128
2	0xbe8eafb1	-0.27868417
3	0xbe9fedb7	-0.3123605
4	0xbe575e46	-0.21032056
5	0xbe3823cb	-0.17982404
6	0xbeb50241	-0.35353282
7	0xbe9a1c68	-0.30099797
8	0x3c68c54b	0.014207195
9	0x3e1d10e2	0.15338472
10	0xbf052ffa	-0.5202633
11	0x3ec21c3d	0.3791217
12	0x3f1e06b3	0.6172897
13	0x3ea82b04	0.32845318
14	0xbe28fcb1	-0.16502644
15	0x3dea01e8	0.11426145
16	0x3dc8563b	0.09782072
17	0x3da9b0f7	0.082857065
18	0x3cd4d722	0.02598149
19	0x3e192dc3	0.14958863
20	0xbe09f60d	-0.13472767
21	0xbb78cbd9	-0.00379633
22	0x3ea40769	0.32036904
23	0xbe7d30ff	-0.24725722
24	0xbeaf8b69	-0.3428605
25	0xbe1dba24	-0.15403038
26	0xbe961a57	-0.2931697
27	0x3bcdf3f7	0.0062851864
28	0xbedfd2cc	-0.43715513
29	0xbe5b5e40	-0.21422672
30	0x3ee4bae8	0.44673848
31	0x3e7aef32	0.24505308
32	0x3e3a0158	0.18164575
33	0x3eb3199c	0.34980476
34	0xbed4f1a2	-0.415906
35	0x3e51938a	0.20466438
36	0xbea8fc85	-0.33005157
37	0x3dd432ca	0.1036125
38	0x3df02f4e	0.11727773
39	0x3eac9248	0.33705354
40	0xbebaae9c	-0.3646134
41	0xbe9cf5ce	-0.30656284
42	0xbf0219d2	-0.5082065
43	0x3f08dc11	0.53460795
44	0x3eeb106f	0.45910975
45	0x3dbe26aa	0.09284718
46	0xbef8aa76	-0.4856755
47	0x3ef462c8	0.47731614
48	0xbc973382	-0.018457178
49	0xbd2247c9	-0.03961924
50	0x3f244986	0.6417469
51	0xbea371ef	-0.31922862
52	0x3eb79075	0.358524
53	0xbeb1f937	-0.34760448
54	0x3e84279b	0.25811467
55	0xbd42fa50	-0.047601998
56	0xbe848158	-0.2587993
57	0xbe56df7b	-0.20983689
58	0xbd6e4499	-0.05817089
59	0x3ebc7c2c	0.36813486
60	0xbf1870c0	-0.5954704
61	0xbe5a570e	-0.21322271
62	0x3e390b75	0.18070777
63	0x3f095ab4	0.53654027
64	0x3e4bb311	0.19892527
65	0xbe22ff03	-0.15917592
66	0xbcaa1897	-0.020763678
67	0x3d923698	0.07139319
68	0xbdfd7e02	-0.1237755
69	0x3e8a2b42	0.26986128
70	0x3e72c2ed	0.23707171
71	0x3e841413	0.25796565
72	0x3ed36029	0.41284302
73	0xbe5e5e81	-0.21715738
74	0xbe80c31b	-0.25148854
75	0x3eb15ebe	0.34642595
76	0x3e9893e8	0.29800344
77	0x3ec18c18	0.37802196
78	0xbec869b1	-0.39143136
79	0xbc529f12	-0.012855308
80	0xbe9cd66b	-0.30632338
81	0xbe892bbb	-0.26791176
82	0xbe3d396a	-0.18478933
83	0x3e1a9447	0.15095626
84	0xbe466c0e	-0.19377157
85	0x3ef9fb6a	0.48824626
86	0xbc990ba9	-0.018682318
87	0xbe0676e9	-0.13131298
88	0xbde845df	-0.11341452
89	0x3e3b4483	0.18287854
90	0x3e4297bf	0.19003199
91	0x3e708005	0.23486336
92	0xbe906676	-0.28203171
93	0x3e87fb6c	0.26559007
94	0x3dd0b20a	0.10190208
95	0x3e864341	0.26223186
96	0x3eaddf68	0.33959508
97	0x3e00d3ee	0.12580845
98	0x3ef28944	0.4737035
99	0x3dcaff81	0.09912015
100	0x3e029a83	0.12754254
101	0xbdda1dda	-0.10650225
102	0x3ef5bd45	0.47995964
103	0x3efc0226	0.4922039
104	0x3ef7e109	0.48413876
105	0xbe09277c	-0.13393968
106	0xbea85a9a	-0.32881624
107	0xbea63286	-0.3246042
108	0xbbc88dbd	-0.006120412
109	0xbc04ff21	-0.008117468
110	0x3ee7637b	0.45193085
111	0xbe6df799	-0.23238982
112	0xbd323969	-0.04351178
113	0xbb43f406	-0.0029900088
114	0x3eec8ca7	0.4620106
115	0x3e603734	0.21896058
116	0x3dd01a93	0.10161319
117	0xbe5c8c19	-0.21537818
118	0x3ba5952e	0.005053184
119	0xbe46f9bd	-0.19431205
120	0x3ee96208	0.45582604
121	0x3f038f6c	0.5139072
122	0x3f03e3c5	0.51519424
123	0x3e570f8c	0.21002024
124	0xbf06f5f1	-0.52719027
125	0xbed870bc	-0.4227351
126	0x3ebbd577	0.36686298
127	0xbe029bde	-0.12754771
128	0x3e33356f	0.17500852
129	0x3eec6cdf	0.46176812
130	0x3f024d13	0.50898856
131	0xbee0feb5	-0.43944326
132	0xbd97cc5d	-0.07412026
133	0x3e763016	0.24041781
134	0x3edeb8cb	0.4350036
135	0xbd871a91	-0.06596864
136	0x3e49972a	0.19686571
137	0x3e90996c	0.28242052
138	0xbe57275d	-0.2101111
139	0xbef11ee0	-0.47093868
140	0xbeb84982	-0.35993582
141	0x3d562efe	0.05229091
142	0xbc404d29	-0.011737146
143	0xbde37d5e	-0.11107896
144	0x3eb892c7	0.36049482
145	0xbea6083e	-0.32428163
146	0xbca33c73	-0.019926285
147	0xbd31e128	-0.043427616
148	0x3e1d3da7	0.1535555
149	0xbe33fc0e	-0.1757662
150	0x3f094329	0.53618103
151	0xbf099b09	-0.5375219
152	0xbd0cc11d	-0.034363855
153	0xbe3d2313	-0.18470411
154	0x3ea5f3b3	0.3241249
155	0x3ea28208	0.3173983
156	0x3e8b65b1	0.27226022
157	0xbf081c54	-0.53168225
158	0x3e826211	0.25465444
159	0x3e96e925	0.2947475
160	0x3ed124d7	0.4084842
161	0xbc97c252	-0.018525276
162	0xbdc35228	-0.095371544
163	0xbd816d9d	-0.06319735
164	0x3e8d417c	0.27589023
165	0xbe65f599	-0.2245697
166	0xbdd49807	-0.103805594
167	0x3e1d4cf2	0.15361384
168	0xbcba957e	-0.022776362
169	0xbd1d507f	-0.038406845
170	0xbf1c280d	-0.6099861
171	0xbe4d4963	-0.20047526
172	0x3db31235	0.08743707
173	0xbe95dcee	-0.29270118
174	0xbefce629	-0.49394348
175	0xbebb5fa9	-0.3659642
176	0xbeae5bb4	-0.3405434
177	0xbde1700b	-0.110076986
178	0x3ec8cd7e	0.39219278
179	0x3df4e91b	0.11958524
180	0xbdbbb771	-0.09165848
181	0x3efd39a8	0.4945805
182	0xbef01304	-0.46889508
183	0x3ee0d777	0.43914387
184	0x3e78596d	0.24252863
185	0x3d97b0d5	0.07406775
186	0x3ca05b8f	0.019574909
187	0x3cd29af1	0.025708647
188	0xbda7cbfd	-0.081932046
189	0xbe05152a	-0.12996355
190	0x3ef9c36a	0.48781902
191	0x3f0e3aae	0.5555829
192	0x3d8362b0	0.064153075
193	0xbeb42eb6	-0.35191888
194	0x3da0f028	0.07858306
195	0x3f12ca47	0.573399
196	0xbdd0ccc8	-0.10195309
197	0x3e9f9a18	0.31172252
198	0x3e301ec5	0.17199238
199	0xbed2f72c	-0.41204202
200	0xbd02ca4c	-0.031931207
201	0x3eced2e5	0.40395275
202	0x3e49ec1c	0.19718975
203	0x3ed31008	0.41223168
204	0x3e9e00a3	0.3085986
205	0x3e37bd77	0.17943369
206	0xbe63f13e	-0.22259995
207	0xbe9e01d2	-0.30860764
208	0x3eaf25f3	0.3420864
209	0x3e9c2a97	0.30501243
210	0x3ef8b0f2	0.485725
211	0x3e72646d	0.23671122
212	0x3e6a661b	0.22890513
213	0xbf238a20	-0.6388264
214	0xbdf08d4b	-0.117456995
215	0xbd8ac530	-0.06775892
216	0xbf026e51	-0.5094958
217	0xbecd3ea0	-0.40086842
218	0xbd0a5d42	-0.033780344
219	0xbe28ddab	-0.1649081
220	0x3d95d00f	0.07315075
221	0xbdb82d0f	-0.08992969
222	0x3da332c3	0.079686664
223	0xbd94f22e	-0.072727546
224	0xbeb66650	-0.35624933
225	0x3e6750ea	0.2258946
226	0xbf0aaba4	-0.5416815
227	0x3dc707ad	0.09718261
228	0x3e6d7ee7	0.2319294
229	0x3ef965ab	0.4871038
230	0x3eda1619	0.42594984
231	0xbe36aecc	-0.17840117
232	0xbeeb662b	-0.45976385
233	0xbe52537a	-0.20539656
234	0x3ec81908	0.39081597
235	0x3ea3d7fa	0.32000715
236	0x3e8c5131	0.27405694
237	0x3e90c33b	0.2827395
238	0x3e4ee71b	0.20205347
239	0x3e9625e7	0.29325792
240	0xbee01ec2	-0.43773466
241	0x3eb81d15	0.35959688
242	0xbec4b62b	-0.38420233
243	0xbcc8dc71	-0.024519177
244	0xbdebafa3	-0.115081094
245	0xbeca078d	-0.39458886
246	0x3f0a452a	0.54011786
247	0x3e933633	0.28752288
248	0x3e9215fa	0.28532392
249	0x3f03528a	0.5129782
250	0xbeecd2a6	-0.46254462
251	0x3e7912dc	0.243236
252	0x3d9d1a3b	0.07671019
253	0xbf225bc5	-0.6342128
254	0x3e5c53ee	0.21516392
255	0xbe98a2fb	-0.29811844

network.0.bias f4 [200]
0	0x3e063d94	0.13109428
1	0x3cb1d76f	0.021709172
2	0x3e3ce8be	0.18448159
3	0x3e421b10	0.18955636
4	0xbecf1ca1	-0.4045153
5	0x3d1a8e2a	0.037733234
6	0xbcef8dc8	-0.029242411
7	0x3e456bc6	0.19279394
8	0x3d7e448f	0.0620771
9	0x3e874dc9	0.26426533
10	0x3e5f7985	0.218237
11	0x3e943156	0.2894389
12	0x3e458989	0.19290747
13	0x3e903897	0.28168175
14	0xbf00dbd6	-0.50335443
15	0x3f061efa	0.52391016
16	0xbef33eb6	-0.47508782
17	0x3e80e79f	0.25176713
18	0x3ec73a23	0.38911542
19	0xbe314c95	-0.1731437
20	0xbee21de1	-0.4416342
21	0xbee8dd38	-0.45481277
22	0x3dba49e9	0.090961285
23	0x3e21783d	0.15768524
24	0x3f019643	0.50619906
25	0x3ea48e5f	0.3213987
26	0xbd4db2b2	-0.050219245
27	0x3d37df8d	0.04489093
28	0x3e1e54fb	0.15462105
29	0x3dfd0e7e	0.1235628
30	0x3ed0040b	0.40628085
31	0x3dcd536f	0.10025679
32	0xbecd55bc	-0.40104473
33	0x3e8a3d6d	0.2699999
34	0xbf01968b	-0.50620335
35	0x3ee74bdf	0.45175073
36	0x3d41c3bc	0.047305807
37	0x3ed98969	0.42487648
38	0xbeb44e33	-0.3521591
39	0x3e085709	0.13314451
40	0xbeb9f557	-0.36319992
41	0x3dff7582	0.12473585
42	0x3eb45b51	0.3522592
43	0xbd667425	-0.056263108
44	0xbeb5d19f	-0.3551149
45	0x3d7a29ac	0.061074898
46	0x3e1d70c3	0.15375046
47	0x3e0f618d	0.14002056
48	0x3e0eacde	0.13933131
49	0xbc8ae75c	-0.016956024
50	0xbe34c588	-0.17653477
51	0xbeb9899d	-0.36237803
52	0xbdfebe14	-0.12438598
53	0xbeaf2083	-0.34204492
54	0x3efe75bc	0.496992
55	0x3e1df762	0.154264
56	0xbf09b09d	-0.53785115
57	0x3eecf419	0.46279982
58	0xbf0822aa	-0.53177893
59	0x3ed3b3b9	0.41348055
60	0xbf06f4d6	-0.5271734
61	0xbe8a1fa1	-0.26977256
62	0x3d0c36b0	0.03423184
63	0xbeba5ad7	-0.3639743
64	0xbf0d4be4	-0.55193925
65	0xbe843ab0	-0.25826025
66	0xbe9f0250	-0.31056452
67	0x3d87b2df	0.06625914
68	0x3e439ffb	0.19103996
69	0x3ef53598	0.4789245
70	0xbf156339	-0.58354527
71	0xbeb722b0	-0.35768652
72	0xbe9ca27e	-0.30592722
73	0x3ee8d708	0.45476556
74	0x3e8f4eb2	0.27989727
75	0x3cf64c58	0.0300657
76	0xbf0a14eb	-0.5393817
77	0x3f058ddc	0.52169585
78	0x3d8a9260	0.067662
79	0xbd87d131	-0.06631697
80	0xbeaf206d	-0.34204426
81	0x3da095eb	0.078410946
82	0xbea2ed8d	-0.31821862
83	0x3e632733	0.22182922
84	0xbeceb2e0	-0.40370846
85	0xbf0794c2	-0.5296136
86	0xbed1badb	-0.40962872
87	0x3e170c4a	0.14750782
88	0x3d043332	0.032275386
89	0x3d090b4e	0.033458047
90	0x3eb3493d	0.35016814
91	0xbf128c87	-0.5724568
92	0x3e53628f	0.20643066
93	0xbeecab44	-0.46224415
94	0x3d6fb689	0.05852369
95	0x3efa7148	0.48914552
96	0xbe39d35f	-0.18147038
97	0x3e9dabf8	0.30795264
98	0xbee396e8	-0.4445107
99	0x3ec576c9	0.38567188
100	0xbf141319	-0.5784164
101	0x3ef84006	0.48486346
102	0x3ecb56cb	0.39714655
103	0xbe944b75	-0.2896382
104	0x3ca01a52	0.0195438
105	0x3ec6b666	0.38811034
106	0xbe378c57	-0.17924629
107	0x3f0520e9	0.5200334
108	0x3eacc7f3	0.337463
109	0x3dcfa78b	0.10139378
110	0xbe328edd	-0.1743731
111	0xbf0e6ac8	-0.55631685
112	0x3e2d9d12	0.16954449
113	0xbeb81d60	-0.3595991
114	0x3e892dbd	0.26792708
115	0x3e9bae71	0.30406526
116	0xbf072672	-0.5279304
117	0x3e17ee9a	0.14837113
118	0xbe4f86bb	-0.2026624
119	0x3f0a2973	0.53969496
120	0xbdd96b62	-0.10616185
121	0x3e9b7856	0.30365247
122	0x3d6fb12e	0.05851858
123	0xbe0c5a96	-0.13706431
124	0xbebef7c1	-0.37298396
125	0x3a401bd0	0.0007328363
126	0x3e959951	0.29218534
127	0x3e71a4fb	0.23598091
128	0x3e30bd60	0.17259741
129	0xbf1309a0	-0.5743656
130	0x3d961a14	0.07329193
131	0xbec3afba	-0.38220006
132	0xbecd740b	-0.40127596
133	0xbe5e87ac	-0.21731442
134	0xbda68014	-0.08129898
135	0x3e26f7dd	0.1630549
136	0xbf0fd215	-0.56179935
137	0xbef593e5	-0.47964397
138	0xbe3ab33d	-0.18232436
139	0xbec343c8	-0.3813765
140	0xbf0349bc	-0.51284385
141	0xbd873c9d	-0.06603358
142	0xbf0491da	-0.5178505
143	0x3e64b750	0.22335553
144	0xbeaae217	-0.33375618
145	0x3e9f2413	0.3108221
146	0xbe8e57f5	-0.2780148
147	0x3eae1b28	0.34005094
148	0xbe86cd73	-0.2632862
149	0x3de7ed61	0.11324573
150	0xbe5e3d2e	-0.21703026
151	0xbc21897a	-0.009859437
152	0x3e0480b8	0.12939727
153	0x3ecf4351	0.40481046
154	0x3ecce61d	0.40019313
155	0xbeafdad4	-0.3434664
156	0xbe4ede9e	-0.20202109
157	0xbe247a02	-0.16062167
158	0xbeeb5982	-0.45966727
159	0x3ef34035	0.47509924
160	0x3eb639a4	0.3559085
161	0xbc9ceb1b	-0.019155076
162	0xbedc307f	-0.4300575
163	0xbdf20d2f	-0.11818921
164	0xbf0b0244	-0.5430033
165	0x3e1c369c	0.15255207
166	0x3c8da2e7	0.017289592
167	0xbebee0b7	-0.3728082
168	0xbc6d49c5	-0.01448292
169	0xbde76fd1	-0.11300624
170	0x3e68984b	0.22714345
171	0x3ec7f7e5	0.39056316
172	0xbe780809	-0.24221815
173	0x3ee006c1	0.43755153
174	0x3eec46f5	0.46147886
175	0xbe0909ec	-0.13382691
176	0x3eadad3b	0.33921227
177	0x3ee31b21	0.44356635
178	0x3ecd339d	0.4007844
179	0x3e97e151	0.2966409
180	0x3d89c521	0.067270525
181	0x3e35cb96	0.17753443
182	0xbe4709ec	-0.19437379
183	0xbed454b5	-0.41470876
184	0xbd0a0e1c	-0.033704862
185	0x3e2dae70	0.16961074
186	0x3d554ac5	0.05207326
187	0x3d944bec	0.072410434
188	0x3d2edf42	0.042693384
189	0x3e0e1214	0.13874084
190	0x3eb0b207	0.34510824
191	0x3e2e2733	0.17007141
192	0xbea88294	-0.32912123
193	0xbde97cc4	-0.1140075
194	0xbe82e399	-0.25564268
195	0xbea44373	-0.3208271
196	0x3cb6757c	0.022272818
197	0x3d6eb128	0.058274418
198	0xbf02b4b3	-0.51056975
199	0xbf17cabd	-0.5929373

network.2.weight f4 [200, 200]
0	0x3bc93dd2	0.0061414028
1	0x3d11d648	0.035604745
2	0xbd80e99a	-0.06294556
3	0xbd58e186	-0.05294945
4	0xbbf16877	-0.0073671895
5	0x3d30b41c	0.043140516
6	0xbd68c697	-0.056830015
7	0xbd53a668	-0.05167237
8	0x3c320b6f	0.010866984
9	0xbd9aa70c	-0.07551393
10	0x3d207980	0.03917837
11	0xbd2d09ed	-0.042245794
12	0x3dc5550b	0.09635361
13	0xbc80a4cc	-0.015703581
14	0x3cc077b9	0.023494588
15	0x3c967968	0.018368438
16	0xbcc57e34	-0.02410803
17	0xbd1f14d8	-0.038838238
18	0x3d9b2c6d	0.07576833
19	0xbd3fe31e	-0.046847455
20	0x3ca32e97	0.019919677
21	0x3dcff8fd	0.101549126
22	0x3db4be7e	0.08825396
23	0x3d7a93ba	0.06117604
24	0xbd165167	-0.036698725
25	0xbd13c1af	-0.036073383
26	0x3d6e81ee	0.05822938
27	0xbd063425	-0.032764573
28	0xbd8c696f	-0.06856047
29	0x3d2791e4	0.040910617
30	0x3bf12393	0.007358977
31	0x3d8a58a7	0.0675519
32	0xbc61cef0	-0.013782248
33	0xbd099cba	-0.03359673
34	0xbda8a2d0	-0.08234179
35	0xbd87a009	-0.06622321
36	0x3d1f3c7d	0.038876045
37	0x3c8429d6	0.01613323
38	0xbd5be802	-0.053688057
39	0x3d4dc030	0.050232112
40	0xbe0696a5	-0.13143404
41	0xbd97dd40	-0.07415247
42	0x3cfcef7d	0.030875916
43	0x3d22cb02	0.039744385
44	0xbdcd61fb	-0.10028454
45	0x3d4fbed6	0.050719105
46	0xbd788a4a	-0.060678758
47	0xbb622479	-0.0034506603
48	0x3da819e4	0.08208063
49	0x3d368131	0.0445568
50	0x3d85de8d	0.06536589
51	0xbddeb914	-0.108751446
52	0x3cc47b3e	0.023984548
53	0xbd34cc8e	-0.04414039
54	0x3d7e0209	0.06201366
55	0xbd011c83	-0.03152133
56	0xbec9a083	-0.39380273
57	0xbcae81fa	-0.021302212
58	0x3e746d7a	0.23869887
59	0x3da65f06	0.08123593
60	0xbd166e55	-0.036726315
61	0xbdad832b	-0.08472284
62	0xbc34a662	-0.011025997
63	0xbd0bf743	-0.034171354
64	0xbcc04390	-0.023469716
65	0x3d99e2f2	0.075139895
66	0xbdd39a70	-0.10332191
67	0x3d94b55d	0.07261155
68	0x3c8f5a5a	0.017499138
69	0x3cb03cf2	0.021513436
70	0xbe0c791e	-0.13718078
71	0xbcf124a4	-0.029436417
72	0x3c82fb5f	0.015989004
73	0x3da9adbf	0.082850926
74	0xbd5ab678	-0.053396672
75	0xbd96ef5a	-0.073698714
76	0xbe5b4c2e	-0.21415779
77	0xbba1a609	-0.004933123
78	0x3d4af3d4	0.04954894
79	0x3c1b0133	0.009460735
80	0x3cbd0194	0.023072042
81	0xbc86318f	-0.016381053
82	0x3ce5981a	0.02802663
83	0x3c93ada2	0.01802713
84	0x3c2cb1be	0.010540424
85	0x3dfc6849	0.12324578
86	0xbcfce440	-0.030870557
87	0x3dac98e7	0.08427601
88	0xbb2c0a29	-0.0026251173
89	0x39ce45a3	0.00039343265
90	0x3da2e9c9	0.07954747
91	0x3d61eaa2	0.055155404
92	0xbcae9aec	-0.021314107
93	0xbdc34855	-0.095352806
94	0x3dce274e	0.100660905
95	0x3d4b42ff	0.04962444
96	0xbbc366a2	-0.0059631625
97	0xbd591e3b	-0.053007346
98	0x3d433016	0.04765328
99	0x3ce5fd53	0.028074896
100	0xbe6ed9ad	-0.23325224
101	0x3d7f99e5	0.062402625
102	0xbcbfeb1c	-0.023427539
103	0xbd800eab	-0.06252798
104	0x3d1663f6	0.036716424
105	0x3c8ec9fb	0.017430296
106	0xbcdfbfd4	-0.02731315
107	0x3d814410	0.0631181
108	0x3db73bff	0.0894699
109	0x3cc3972d	0.023875797
110	0x3cd69b0c	0.026196979
111	0x3e748488	0.23878682
112	0xbc49f19b	-0.01232567
113	0x3bbb76ec	0.0057209637
114	0xbd4a71ff	-0.04942512
115	0xbdf88c19	-0.121360965
116	0xbd10b7c8	-0.035331517
117	0xbd856f26	-0.065153405
118	0xbd9e03dc	-0.0771558
119	0xbd2221c8	-0.039582998
120	0xbd331017	-0.043716516
121	0xbc90abe2	-0.017660085
122	0x3b764ac5	0.0037581187
123	0x3dc2cf18	0.09512156
124	0xbdf4dfee	-0.11956774
125	0xbc0d5b5b	-0.008627738
126	0x3ce3f87e	0.027828451
127	0x3d3a9b7c	0.045558438
128	0xbe006301	-0.12537767
129	0xbd808c87	-0.062768035
130	0x3d095bba	0.033534743
131	0xbd84a484	-0.06476691
132	0x3c552a8c	0.013010632
133	0xbd8861f1	-0.06659306
134	0xbd035afb	-0.032069188
135	0xbcf52617	-0.02992539
136	0xbe096b23	-0.13419776
137	0xb8cc6800	-9.7468495e-05
138	0xbd616154	-0.05502446
139	0xbf95c21b	-1.1699861
140	0x3c98e433	0.018663501
141	0x3d8493af	0.06473481
142	0x3d6ce10e	0.057831816
143	0xbc0d27b4	-0.008615423
144	0x3cf99459	0.030466245
145	0xbc3fb0e3	-0.011699888
146	0x3c78eae5	0.015192722
147	0x3d6923e6	0.056919
148	0xbd55d0bc	-0.052201018
149	0x3c9ca43f	0.019121287
150	0xbd8e9c2e	-0.06963383
151	0x3c39687f	0.011316418
152	0x3da9d077	0.08291715
153	0xbc99eac4	-0.018788703
154	0xbc1646d4	-0.00917216
155	0xbe38767d	-0.1801395
156	0x3c006e19	0.007838749
157	0x3d8682ea	0.065679386
158	0xbdd07426	-0.101784036
159	0x3ca3af30	0.019980997
160	0x3d977196	0.07394712
161	0x3d044e42	0.032301195
162	0xbde0767b	-0.10960098
163	0xbd4b2b68	-0.049601942
164	0x3e5a728c	0.21332759
165	0xbe0a63c7	-0.13514625
166	0xbd153c8a	-0.036434688
167	0x3cb459ca	0.022015471
168	0xbd78cc74	-0.060741857
169	0x3c9616ee	0.01832148
170	0x3d9780fe	0.0739765
171	0xbdce4ba4	-0.10073021
172	0xbd95c576	-0.07313053
173	0x3c2a53ad	0.010395926
174	0x3d75f37e	0.060046665
175	0xbdd95702	-0.106122985
176	0x3d28ac3d	0.041179884
177	0x3c178858	0.0092488155
178	0x3d92beff	0.07165336
179	0x3d36966a	0.04457704
180	0xbc9e4762	-0.019321147
181	0x3d0dfefc	0.034667
182	0xbce59d03	-0.02802897
183	0xbe0e92df	-0.13923214
184	0xbc387343	-0.011257949
185	0xbd368f28	-0.04457012
186	0x3b957d91	0.004562088
187	0xbd43ed3e	-0.047833674
188	0xbadeca0b	-0.0016997469
189	0xbd3f96c4	-0.04677464
190	0xbd10e2f8	-0.035372704
191	0x3db9931e	0.090612635
192	0x3c75fe65	0.015014266
193	0xbca8191b	-0.020519784
194	0xbda0935d	-0.07840607
195	0xbd197922	-0.037469037
196	0x3c77abc8	0.015116639
197	0x3c26352f	0.010144516
198	0xbe2398ab	-0.15976207
199	0xbd74710e	-0.05967813
200	0x3c4a822e	0.012360139
201	0xbcc2792d	-0.023739422
202	0x3d93afb2	0.072112456
203	0x3daaa43c	0.083321065
204	0xbe05e24e	-0.1307461
205	0xbc5d2b9d	-0.013499168
206	0xbd53f6b2	-0.05174894
207	0xbd24af97	-0.040206518
208	0x3cc17155	0.023613611
209	0xbc85d56d	-0.01633712
210	0x3cee29c4	0.02907265
211	0xbc976f60	-0.018485725
212	0xbdc6083d	-0.0966954
213	0xbbe2045d	-0.006897493
214	0xbcc2446b	-0.023714265
215	0x3da732fd	0.08164022
216	0xbcd0fb31	-0.025510402
217	0x3d9c2dc9	0.0762592
218	0x3d6b58fc	0.05745791
219	0x3d0932a0	0.033495545
220	0xbd50f1e7	-0.051011946
221	0xbc61df7e	-0.013786195
222	0xbd50af0f	-0.0509482
223	0xbd4b7677	-0.049673524
224	0xbd318463	-0.043339144
225	0x3da41e47	0.080135874
226	0x3d004fdb	0.031326156
227	0x3bfb61e8	0.0076715834
228	0x3e37c0db	0.17944662
229	0xbd2f5243	-0.04280306
230	0xbd2ac6b6	-0.04169341
231	0x3cbb332f	0.022851555
232	0xbe1938cb	-0.14963071
233	0x3d85ec56	0.06539218
234	0xbee95e65	-0.4557983
235	0x3ae251b3	0.001726678
236	0x3d685a79	0.056726906
237	0xbd796829	-0.06089035
238	0xbe64e001	-0.22351076
239	0x3c886964	0.016651817
240	0xbd9648fc	-0.073381394
241	0x3d992338	0.074774206
242	0x3c31c21c	0.010849502
243	0xbd0e05a5	-0.03467335
244	0xbeb624d0	-0.3557496
245	0xbe039c71	-0.12852646
246	0x3d4cc79d	0.049995054
247	0x3d1b9103	0.03798009
248	0x3d7e832b	0.06213681
249	0xbd8834f7	-0.06650727
250	0xbcac60d7	-0.02104227
251	0xbcdd9aaa	-0.027051289
252	0xbd0dfe51	-0.034666363
253	0x3c49aa43	0.01230866
254	0x3d5fb71d	0.05461799
255	0xbbfdb1cd	-0.007742143

network.2.bias f4 [200]
0	0x3d48ac70	0.048992574
1	0xbd56b3b3	-0.05241747
2	0x3d623611	0.055227343
3	0x3d38fdce	0.045163922
4	0x3d8e505e	0.069489226
5	0xbd4a7854	-0.04943116
6	0x3ce6309f	0.028099356
7	0x3c7daa53	0.015482503
8	0x3da638a0	0.08116269
9	0xbdbc664a	-0.091991976
10	0xbbfbd230	-0.0076849684
11	0x3c91b38a	0.017785806
12	0xbc6a2e0e	-0.014293207
13	0xbcfd0e42	-0.030890588
14	0xbc1af71a	-0.009458328
15	0xbd4aebe6	-0.049541377
16	0xbc106119	-0.008812212
17	0xbd80ce72	-0.06289376
18	0x3a91bf82	0.0011119696
19	0xbd335cbc	-0.04378961
20	0x3cc415dd	0.023936206
21	0xbd2792bb	-0.040911417
22	0x3c47322b	0.012157957
23	0x3d351396	0.04420813
24	0x3d41e4fb	0.047337513
25	0x3d6b2858	0.05741152
26	0x3bdf11ea	0.0068075554
27	0x3d86c2ef	0.065801494
28	0x3cb71c6a	0.022352416
29	0xbd2f2402	-0.04275895
30	0x3a95b340	0.0011421219
31	0xbce5b22d	-0.028039062
32	0x3cee511f	0.029091416
33	0xbd4a77d1	-0.049430672
34	0xbd3c46be	-0.045965903
35	0x3ced1c0c	0.028944038
36	0x3d599b85	0.05312683
37	0x3d80ef99	0.062956996
38	0x3b0e3ee0	0.0021704957
39	0x3d83cc54	0.06435457
40	0xbcac9463	-0.02106685
41	0xbcd9b850	-0.026577145
42	0xbcd1424e	-0.025544312
43	0x3d839167	0.06424218
44	0x3d48d4a3	0.04903091
45	0x3cdabaae	0.026700344
46	0xbdb6d6f8	-0.08927721
47	0xbc95ccb4	-0.018286087
48	0x3dadccbc	0.084863156
49	0xbc42e54c	-0.011895489
50	0x3c4c2be3	0.012461635
51	0xbca56b35	-0.020192722
52	0xbd016e3f	-0.03159928
53	0x3c5d8e23	0.013522658
54	0xbc711ed4	-0.014716823
55	0x3ccad2d6	0.024758738
56	0x3d1f3b7e	0.038875096
57	0x3bee0a27	0.007264394
58	0x3d3601a4	0.04443516
59	0x3d199ea3	0.037504803
60	0xbc81b016	-0.015831035
61	0x3d67acd3	0.056561302
62	0x3cc61151	0.024178179
63	0x3d7602b5	0.060061175
64	0xbd78ace5	-0.06071176
65	0x3b29fc5a	0.0025937767
66	0xbc1417cc	-0.009038877
67	0x3d788dc3	0.06068207
68	0x3cfd5118	0.030922458
69	0xbd5ff00d	-0.05467229
70	0x3d2dbb3f	0.0424149
71	0xbc97e678	-0.018542513
72	0xbd41cda9	-0.047315273
73	0xbd31ce1e	-0.04340946
74	0x3dbad9ce	0.09123574
75	0x3cc1ed26	0.023672651
76	0xbd5a5e90	-0.053312838
77	0x3ca21d4a	0.019789357
78	0x3db34e95	0.08755223
79	0xbd37c515	-0.044865686
80	0xbd3b5b5e	-0.04574143
81	0xbd3b86a6	-0.045782708
82	0xbd567b2d	-0.052363563
83	0x3d45d7a6	0.04830136
84	0xbd906239	-0.070499845
85	0x3d599dda	0.053129055
86	0xbcdcc454	-0.026949085
87	0xbd88fdc1	-0.06689025
88	0xbd7c2fd9	-0.06156907
89	0x3dc18374	0.09448901
90	0x3d63ebb8	0.05564472
91	0xbb8e6820	-0.0043459088
92	0x3d29cd85	0.041455764
93	0x3dc5c22b	0.09656175
94	0x3d516c39	0.0511286
95	0x3c6fd503	0.014638188
96	0x3cceab0f	0.025228051
97	0x3cab3846	0.020900857
98	0x3c5e3631	0.013562725
99	0xbd72ad02	-0.059247024
100	0x3be53907	0.0069953236
101	0x3d23d105	0.03999426
102	0x3c0a5b5e	0.008444635
103	0x3cd5c9b7	0.026097162
104	0xbaf0c1bf	-0.0018368288
105	0xbc8b736d	-0.017022813
106	0x3cd94d73	0.026526188
107	0xbd64028e	-0.0556665
108	0xbd52db73	-0.051478814
109	0x39f4b226	0.00046672038
110	0x3dc4995c	0.095995635
111	0x3a928750	0.0011179242
112	0xbcf157b4	-0.029460765
113	0xbd647e86	-0.055784725
114	0xbc8cb656	-0.017176788
115	0xbd4d29df	-0.05008876
116	0x3d1fa0e4	0.038971797
117	0xbd3a33ce	-0.04545956
118	0x3ca2a89d	0.019855792
119	0xbd0886cf	-0.03333169
120	0xbc3748c0	-0.011186779
121	0x3ce7a7ae	0.028278198
122	0xbcbafacd	-0.02282467
123	0xbc3b8b1e	-0.011446742
124	0x3db10cf7	0.08645051
125	0x3adf6a49	0.0017045225
126	0x3d7f8bdd	0.062389243
127	0xbd233f00	-0.039855003
128	0x3bc7879b	0.0060891635
129	0xbd8958c4	-0.06706384
130	0x3cd9f9db	0.026608398
131	0x3da73186	0.08163743
132	0x3d9cea08	0.076618254
133	0x3a6061d6	0.00085595006
134	0x3d520609	0.051275287
135	0xbd683a90	-0.056696475
136	0xbcb3cae5	-0.021947334
137	0xbd230d3f	-0.039807554
138	0x3d2401f3	0.04004092
139	0xbcb7583f	-0.022380946
140	0x3c63ee7f	0.013911842
141	0xbcc5e8bd	-0.02415883
142	0x3cd9ebe5	0.026601741
143	0x3d4461c7	0.04794481
144	0xbd812503	-0.063058876
145	0x3bb9dfe7	0.005672443
146	0xbd126080	-0.03573656
147	0x3d873ddf	0.06603598
148	0xbbb3a2e3	-0.005482064
149	0xbd8a86e0	-0.067640066
150	0xbd40bc6d	-0.047054697
151	0x3b0189b3	0.0019765913
152	0x3d4937e6	0.049125575
153	0xbc5a0284	-0.013306264
154	0x3d7e2a61	0.062052134
155	0x3c89ff72	0.016845439
156	0x3d4313cc	0.0476263
157	0xbb00f73a	-0.0019678609
158	0x3d5525d1	0.052038018
159	0xbcc9a772	-0.024615977
160	0xbcb5e975	-0.022206048
161	0x3d796a89	0.060892615
162	0x3b272a23	0.0025507293
163	0xba75c27f	-0.00093749905
164	0x3b331e1d	0.0027331181
165	0xbd3e50d8	-0.046463817
166	0x3c18264b	0.0092864735
167	0xbd274f1f	-0.04084694
168	0xbcd26a89	-0.025685566
169	0x3ca1fa94	0.019772805
170	0x3c096751	0.008386449
171	0x3cf90368	0.030397132
172	0xbd926b44	-0.071493655
173	0x3d0b76f2	0.034048982
174	0x3d279fa8	0.040923744
175	0x3d9d62ca	0.07684858
176	0x3ddb5291	0.10709108
177	0x3d00fc8c	0.031490847
178	0x3b662ee5	0.0035123166
179	0xbc4ec9de	-0.012621371
180	0x3c2dcbbb	0.010607655
181	0x3c92c619	0.017916726
182	0x3d102f29	0.035201225
183	0x3bfbfe33	0.007690215
184	0xbd84925f	-0.064732306
185	0x3b144892	0.0022626263
186	0xbd860af3	-0.06545057
187	0x3dbada57	0.09123676
188	0x3d258520	0.04041016
189	0x3c31fd74	0.010863651
190	0x3b971c7e	0.004611551
191	0xbc5c593c	-0.0134490095
192	0xbad2272a	-0.00160334
193	0xbd84f7d4	-0.06492582
194	0xbd3ff1ee	-0.04686158
195	0x3cc2fa58	0.023801014
196	0xbcea3f14	-0.028594531
197	0xbd589af0	-0.052882135
198	0x3bfbc33c	0.007683186
199	0xbd0a3db8	-0.033750266

network.4.weight f4 [3, 200]
0	0x3d106f31	0.03526229
1	0xbd166351	-0.03671581
2	0x3a24483d	0.0006266868
3	0xbcb79bfd	-0.022413248
4	0x3c4e7ec4	0.0126034655
5	0x3d04b24c	0.0323966
6	0xbda16d95	-0.07882229
7	0xbc0e9757	-0.008703074
8	0xbd0e2308	-0.034701377
9	0xbd2bfd9a	-0.0419899
10	0xbb94ae2e	-0.0045373654
11	0xbbebdee4	-0.0071982015
12	0x3c52f7eb	0.012876491
13	0xb809ec23	-3.2883265e-05
14	0x3d581221	0.052751664
15	0xbc24c021	-0.010055573
16	0x3c842969	0.016133027
17	0x3daac679	0.08338637
18	0x3d0afbed	0.03393166
19	0x3d8be9f4	0.068317324
20	0x3c8cdd26	0.017195296
21	0x3d2b85b6	0.041875564
22	0x3d2919ce	0.041284375
23	0xbd6621f6	-0.05618473
24	0xbd21fb8b	-0.03954653
25	0xbdd05ae0	-0.10173583
26	0xbd1d461f	-0.03839695
27	0x3d8d0dd4	0.06887403
28	0xbc9e36b5	-0.019313196
29	0x3cd64148	0.026154175
30	0x3d50e336	0.050997935
31	0x3d6a0e7b	0.057142716
32	0x3d3efd2a	0.046628155
33	0x3d617344	0.055041566
34	0x3d5a9ac3	0.05337025
35	0x3d473bbe	0.04864096
36	0xbbce2f4d	-0.00629226
37	0x3d12d329	0.03584591
38	0xbd36f200	-0.044664383
39	0x3da0ed58	0.0785777
40	0xbd267532	-0.04063911
41	0x3bd21590	0.006411262
42	0xbd1f0a4d	-0.038828183
43	0xbcdeaa93	-0.027180946
44	0xbc4d3a41	-0.012526096
45	0x3b723a5d	0.0036961057
46	0xbc1e9774	-0.009679664
47	0x3d3c67a5	0.04599728
48	0x3bfcb719	0.0077122566
49	0x3d491e91	0.049101416
50	0xbda9a8e5	-0.08284167
51	0xbca651c6	-0.020302664
52	0xbbff01b7	-0.007782187
53	0x3d26ae69	0.040693674
54	0x3d429793	0.047507834
55	0x3cfcb0b7	0.030845983
56	0xbd324bff	-0.043529507
57	0xbc3bf81c	-0.011472728
58	0xbd070fb4	-0.03297396
59	0x3c42adac	0.011882227
60	0x3bdeed0e	0.0068031615
61	0xba1e81a4	-0.00060465396
62	0x3cff312e	0.03115138
63	0xbcea205a	-0.02857988
64	0x3c97df1e	0.018539008
65	0x3bb74207	0.005592588
66	0x3ac3eed5	0.0014948497
67	0x3d60de7c	0.054899678
68	0xbd42a10f	-0.04751688
69	0x3dac2fa6	0.08407526
70	0x3cc60a09	0.024174707
71	0x3d3f2381	0.04666472
72	0x3ceefd9f	0.02917367
73	0xbc968517	-0.018374009
74	0xbd71f9fa	-0.059076287
75	0x3c25e57e	0.010125516
76	0xbcebb820	-0.028774321
77	0x3bf45e04	0.0074574966
78	0xbd252895	-0.040321905
79	0xbd1f9772	-0.03896279
80	0xbd8fc23f	-0.070194714
81	0x3d1f0eee	0.038832597
82	0xb9a45b5b	-0.00031348583
83	0xbaac15c6	-0.0013129048
84	0x3d443fba	0.047912337
85	0xbd720b70	-0.05909294
86	0x3da34bbd	0.0797343
87	0x3c0b53c3	0.008503857
88	0x3d02a228	0.031892926
89	0xbd47091a	-0.048592664
90	0xbd59979b	-0.053123098
91	0x3d732d39	0.0593693
92	0xbd8b1d67	-0.067927174
93	0xbdb8d6e0	-0.09025359
94	0x3ccc962e	0.024973955
95	0x3d1fe786	0.039039157
96	0x3c33dee7	0.010978437
97	0x3c24c0a0	0.010055691
98	0xbd912f47	-0.070890956
99	0xbcb713f6	-0.022348385
100	0x3d1bbaa9	0.03801981
101	0xbdb88e54	-0.09011522
102	0xbd19c945	-0.03754546
103	0xbd643457	-0.055713978
104	0xbd058786	-0.03259995
105	0xbc584d15	-0.013201972
106	0xbd6b25c4	-0.057409063
107	0x3ce89fff	0.028396605
108	0x3c6a8976	0.014315
109	0xbdab1673	-0.08353891
110	0xbd822a3d	-0.063557126
111	0xbcd3466a	-0.025790412
112	0x3d45538a	0.048175372
113	0x3c2bd66e	0.010488136
114	0xbad729af	-0.0016415621
115	0x3d5a438c	0.053287074
116	0x3cb740c8	0.022369757
117	0xbcfa95f8	-0.030589089
118	0xbb183552	-0.002322514
119	0x3d96e9f2	0.0736884
120	0x3da862dd	0.08221982
121	0x3c35cf6f	0.011096819
122	0xbd042309	-0.032259975
123	0xbc310084	-0.010803346
124	0xbd786849	-0.06064633
125	0x3c983d0d	0.018583799
126	0x3c458ae7	0.012057043
127	0x3cadda01	0.021222116
128	0x3d6998f6	0.05703064
129	0xbd296d20	-0.041363835
130	0x3c520e0b	0.012820731
131	0x3cbae091	0.02281216
132	0xbca0d763	-0.019633954
133	0x3b5d0c4f	0.003372926
134	0x3bc6a542	0.0060621807
135	0xbc039668	-0.008031465
136	0x3c43a595	0.011941333
137	0x3d5579c3	0.052118074
138	0x3d0a4a66	0.033762358
139	0xbd8c26f0	-0.06843364
140	0xbd4fdb95	-0.05074652
141	0x3c60515d	0.0136912735
142	0x3d18c82d	0.037300278
143	0x3d5ea3bf	0.05435538
144	0xbc8646da	-0.016391207
145	0x3c653969	0.013990738
146	0xbac6e7c9	-0.0015175279
147	0xbd7746a5	-0.060370106
148	0x3ccd8c00	0.025091171
149	0xb9d926a8	-0.00041418266
150	0xbc202c2e	-0.009776158
151	0xbd7189dc	-0.058969364
152	0x3d8288e6	0.063737676
153	0xbe0839f1	-0.13303353
154	0x3d037b22	0.03209985
155	0x3ce14c5f	0.027502237
156	0xbc844462	-0.016145889
157	0x3d049b3f	0.032374617
158	0x3ca3f5e1	0.020014705
159	0xbc884db3	-0.016638612
160	0x3d20ec3c	0.03928779
161	0xbd149222	-0.036272176
162	0x3db950ca	0.090486124
163	0x3d5f2471	0.054478113
164	0xbb174b85	-0.0023085785
165	0x3caec967	0.02133627
166	0xbcbe25f1	-0.023211451
167	0x3d00a77e	0.031409733
168	0x3dc337ee	0.09532152
169	0xbd45dd74	-0.048306897
170	0x3d9ef256	0.07761066
171	0x3bba9c12	0.0056948746
172	0xbc9de975	-0.01927636
173	0x3b1b5663	0.0023702614
174	0xbc90f5f1	-0.017695399
175	0xbd043bbd	-0.032283533
176	0xbd916f5a	-0.07101317
177	0xbcafe226	-0.02147014
178	0x3d919ed5	0.07110373
179	0xbd8f3112	-0.06991781
180	0x3c81fb50	0.015866905
181	0xb98e5d26	-0.00027153752
182	0xbd06b2ff	-0.032885548
183	0xbcde50f1	-0.027138205
184	0xbd4abb3e	-0.049494974
185	0x3ce15cb7	0.02751003
186	0x3c927970	0.017880172
187	0xbd211893	-0.039330076
188	0xba34fa0b	-0.00069037144
189	0x3dc6ab7f	0.09700679
190	0xba3251f6	-0.0006802374
191	0xbd2f62ad	-0.042818714
192	0x3d8d6736	0.069044515
193	0xbac27242	-0.0014835077
194	0x3d903789	0.070418425
195	0x3aa0312c	0.0012221686
196	0x3bb52a82	0.005528749
197	0xbcfce4b2	-0.03087077
198	0xbd09cb04	-0.033640876
199	0xbc0fd48f	-0.008778705
200	0xbcc91ff6	-0.024551373
201	0xbd584475	-0.05279966
202	0xba3685f4	-0.00069627096
203	0xbd89eacb	-0.06734236
204	0xbd2e9b99	-0.04262886
205	0x3d772192	0.06033475
206	0xbc92120a	-0.017830867
207	0x3b10e48f	0.0022108888
208	0x3bf0ac00	0.0073447227
209	0xbd20d245	-0.03926303
210	0x3dab0735	0.08350984
211	0xbc5a704a	-0.013332436
212	0xbc61c55e	-0.013779966
213	0xbbf152e9	-0.00736462
214	0x3c549018	0.012973808
215	0xbc555260	-0.013020128
216	0x3d099be0	0.03359592
217	0x3ce4dab0	0.02793631
218	0xbc2a5d38	-0.010398202
219	0xbd486800	-0.048927307
220	0xbd4aa993	-0.049478125
221	0xbd5193db	-0.051166397
222	0x3c74aec3	0.014934245
223	0xbda3d959	-0.0800044
224	0xbd7fe676	-0.062475644
225	0x3d66c985	0.056344528
226	0x3d25f114	0.040513113
227	0xbd860573	-0.06544008
228	0xbda7cc2b	-0.08193239
229	0x3d8ee623	0.06977489
230	0xbce63c92	-0.028105054
231	0xbd88ffcc	-0.066894144
232	0xbc8d9c28	-0.017286375
233	0xbd8050c8	-0.06265408
234	0x3c7da9b6	0.015482357
235	0x3d2fd2bd	0.042925585
236	0xbc92f374	-0.017938353
237	0xbd9bb198	-0.07602233
238	0xbd59d4ec	-0.053181574
239	0x3da7fdbf	0.08202695
240	0x3d518399	0.051150892
241	0x3d75e222	0.06003011
242	0x3d995f5c	0.074888915
243	0xbd31496b	-0.043282907
244	0xbb6ce56b	-0.0036147486
245	0x3c2ae5d9	0.0104307765
246	0xbd6fd749	-0.05855492
247	0x3d2bc386	0.041934513
248	0x3dc088c1	0.09401084
249	0x3d91dcee	0.07122217
250	0x3def9878	0.11699003
251	0xbd84726a	-0.06467135
252	0x3cdd8884	0.027042635
253	0xbd2fe3bb	-0.04294179
254	0xbcdcae74	-0.026938654
255	0x3cad3464	0.021143146

network.4.bias f4 [3]
0	0xbce8ab81	-0.028402092
1	0xbc90fbc3	-0.017698174
2	0xbb5a9cc6	-0.0033357604
