output/learn_roi/best_model/model.pt (torch_old, 2891 bytes, 4 tensors)

network.0.weight f4 [64, 3]
-1.7886596 -2.318407 -1.2040358 -2.898611 1.5520691 0.5156829 -2.3416286 -0.8222801
0.21376738 0.25853547 0.68159366 0.39505735 -0.0019998723 0.8365755 -3.5041296 -0.11086082
-1.7054843 -0.29238075 0.13118358 0.99025965 -1.0346279 -0.0039397515 0.35614812 -3.3608055
-0.026462404 2.4356067 1.3861676 0.1144516 1.2373255 -1.7703552 2.812269 1.3331608
0.4279039 0.041642703 0.94990426 1.2712994 0.87338305 -1.591386 0.37504596 -0.09694759
-1.4361414 0.06762181 -0.60264283 -1.301995 0.31339 1.3864638 1.9098434 1.1982318
-2.6110759 -0.44740406 0.44783404 0.31551737 -1.5534265 -2.0635433 2.0289333 0.7077629
0.7455803 0.07603396 0.5854014 -2.703788 0.32566708 0.9805721 0.08419352 2.0306175
1.480764 0.5317133 -0.19993258 -0.38819075 0.26721984 -0.00786499 2.6837583 0.7911622
2.5756578 -0.3745352 0.45150664 0.49130535 -1.8607788 0.3934462 0.261217 -1.0281967
0.16871946 -0.9505361 0.8459514 2.590834 0.00038776884 2.012148 1.9856415 -2.2093213
-1.8783997 -1.6701525 2.6722994 -1.6122582 -0.4243714 -0.0040176976 -2.2214372 3.2636204
0.05304176 -2.0698125 0.13823493 -0.01864213 -0.022870107 -2.9738193 1.8452308 2.379833
1.1372252 0.63632756 0.37163493 0.08101034 -0.08574354 -1.4625202 0.21972026 0.16092257
-1.0964415 0.38507628 -0.05206315 0.2846376 -3.519595 0.061649486 0.6648342 0.34225875
0.063218206 -1.3800839 0.082334906 -1.5275965 1.8024956 1.4718109 -0.16638075 1.2833546
2.5180264 0.039223183 -0.08426021 -3.2000988 -0.12806946 0.42604896 -0.17208737 -0.039544363
-1.5197389 -2.0111723 0.408004 -1.0688933 0.1582068 -2.306615 1.9108696 0.5141428
0.26024356 -1.3187011 0.3634411 0.10426524 0.7646116 -2.7904496 0.111892775 1.2166121
-1.8253574 0.02406355 0.75660163 0.39292058 -2.071566 -1.6080151 0.19955048 1.4744804
-2.177016 -1.3410678 0.9562696 0.76286787 2.628217 2.6709037 -0.6357346 0.6108696
0.02994039 -2.5537834 -1.447783 0.009626729 1.4708316 2.618308 1.822695 1.7549467
0.6682452 0.18485005 -2.0395477 0.2260105 -2.0109434 2.1766856 1.2245722 1.8531929
-2.250509 -1.210893 -0.001724447 2.9424348 0.9600132 0.008177554 1.5145167 2.7622051
00000000: ccf2 e4bf c860 14c0 d81d 9abf d882 39c0
00000010: 33aa c63f cb03 043f 3edd 15c0 f380 52bf
00000020: d6e5 5a3e c35e 843e ec7c 2e3f f544 ca3e
00000030: 4a10 03bb d029 563f a943 60c0 ff0a e3bd
00000040: 4f4d dabf eeb2 95be fd54 063e a881 7d3f
00000050: b06e 84bf 0819 81bb 0c59 b63e 7017 57c0
00000060: afc7 d8bc fbe0 1b40 f16d b13f 9a65 ea3d
00000070: af60 9e3f 009b e2bf 37fc 3340 03a5 aa3f
00000080: 3816 db3e 8a91 2a3d ed2c 733f f0b9 a23f
00000090: 0896 5f3f 89b2 cbbf 0606 c03e 758c c6bd
000000a0: 7bd3 b7bf 4e7d 8a3d cd46 1abf c6a7 a6bf
000000b0: a774 a03e a577 b13f c075 f43f a95f 993f
000000c0: de1b 27c0 2512 e5be 814a e53e 7e8b a13e
000000d0: aed6 c6bf 1811 04c0 0bda 0140 f32f 353f
000000e0: 5ade 3e3f b1b7 9b3d dedc 153f dd0a 2dc0
000000f0: d6bd a63e c606 7b3f a76d ac3d a3f5 0140
00000100: ad89 bd3f 5d1e 083f 20bb 4cbe f0c0 c6be
00000110: 0ad1 883e 29dc 00bc b2c2 2b40 9b89 4a3f
00000120: 94d7 2440 14c3 bfbe e12b e73e 608c fb3e
00000130: 002e eebf c871 c93e 3cbe 853e f39b 83bf
00000140: cbc4 2c3e 5556 73bf 4590 583f 39d0 2540
00000150: 744d cb39 08c7 0040 8029 fe3f 8565 0dc0
00000160: 676f f0bf 8fc7 d5bf f406 2b40 7a5e cebf
00000170: 3547 d9be e4a6 83bb 072c 0ec0 28df 5040
00000180: 5142 593d cf77 04c0 758d 0d3e 61b7 98bc
00000190: 175a bbbc 0e53 3ec0 8630 ec3f 2f4f 1840
000001a0: 9890 913f 5de6 223f ef46 be3e c0e8 a53d
000001b0: 4f9a afbd dd33 bbbf 59fe 603e e3c8 243e
000001c0: 3258 8cbf b828 c53e 2b40 55bd 05bc 913e
000001d0: 0b41 61c0 2c84 7c3d 9332 2a3f 8a3c af3e
000001e0: 8c78 813d 97a6 b0bf 349f a83d 4888 c3bf
000001f0: 2db8 e63f 4d64 bc3f b75f 2abe f744 a43f
00000200: 5827 2140 7da8 203d 9e90 acbd 6bce 4cc0
00000210: a424 03be 1723 da3e ac37 30be 45f9 21bd
00000220: ce86 c2bf 0cb7 00c0 e6e5 d03e 7fd1 88bf
00000230: f700 223e 959f 13c0 6097 f43f dd9e 033f
00000240: a53e 853e 33cb a8bf f414 ba3e 0489 d53d
00000250: 96bd 433f ba96 32c0 0a28 e53d f2b9 9b3f
00000260: 50a5 e9bf ec20 c53c a5b0 413f e32c c93e
00000270: 8a94 04c0 70d3 cdbf f656 4c3e c6bb bc3f
00000280: 3b54 0bc0 1ca8 abbf 16ce 743f 4f4b 433f
00000290: b534 2840 16f0 2a40 81bf 22bf f361 1c3f
000002a0: 8c45 f53c 3071 23c0 f450 b9bf 6eb9 1d3c
000002b0: 3644 bc3f 5c92 2740 124e e93f 18a2 e03f
000002c0: 1e12 2b3f 5549 3d3e f387 02c0 4c6f 673e
000002d0: 4cb3 00c0 d14e 0b40 c8be 9c3f 6d35 ed3f
000002e0: 5708 10c0 8bfe 9abf d706 e2ba da50 3c40
000002f0: 6dc3 753f 26fb 053c afdb c13f f8c7 3040

network.0.bias f4 [64]
-0.89086866 -0.8740291 -1.1846204 1.2257521 0.90919363 0.030638935 1.5872662 -1.3836502
1.1810029 1.3213514 -0.8236777 0.7383066 0.33975258 0.8968378 0.31507704 0.587186
-1.0436602 -1.0580064 0.13129087 -0.13291444 1.0021507 0.90293026 1.0752108 2.228491
-1.0683358 -0.16314948 0.8182374 1.3438011 1.3037508 -0.49701354 -1.1710432 -1.1980078
-1.2176427 -0.5144479 0.9690814 1.0001466 1.0130622 0.95669484 -1.4238006 1.3158189
0.9228617 0.51755226 1.4713957 -1.7509654 1.0156046 -1.1896973 0.88116574 1.2158687
1.0460768 -0.058450155 1.1351577 1.1899844 -0.8901762 -0.7261751 1.2142422 -1.0786726
-1.2357308 1.4099277 0.9396459 -0.7124182 0.86970663 -0.88808775 2.4444478 1.4672667
00000000: f80f 64bf 5fc0 5fbf a4a1 97bf 72e5 9c3f
00000010: eac0 683f 81fe fa3c 8a2b cb3f 731b b1bf
00000020: 1a2b 973f 0b22 a93f 8bdc 52bf a901 3d3f
00000030: 0df4 ad3e 2997 653f c751 a13e d251 163f
00000040: a896 85bf c16c 87bf 1d71 063e b91a 08be
00000050: 7946 803f 7026 673f 82a0 893f 999f 0e40
00000060: 3abf 88bf a810 27be 0278 513f ad01 ac3f
00000070: 4ee1 a63f 8f78 febe bee4 95bf 5258 99bf
00000080: b7db 9bbf dcb2 03bf b815 783f ce04 803f
00000090: 06ac 813f f4e9 743f 193f b6bf c16c a83f
000000a0: aa40 6c3f 4e7e 043f b256 bc3f a21f e0bf
000000b0: 55ff 813f 0048 98bf 1494 613f 96a1 9b3f
000000c0: d8e5 853f 6e69 6fbd d94c 913f 6951 983f
000000d0: 96e2 63bf 9de6 39bf 4a6c 9b3f f211 8abf
000000e0: 6d2c 9ebf 8378 b43f a28c 703f 0a61 36bf
000000f0: 18a5 5e3f b859 63bf d571 1c40 65cf bb3f

network.2.weight f4 [4, 64]
1.87093 4.35466 1.9008577 -0.36765882 -2.5139215 1.1694846 -1.0671315 -8.167487
-12.044093 -1.5128778 6.309846 -1.2163141 0.9147733 0.86907756 1.0803331 1.0428678
2.2988055 0.43616748 -1.5369678 -2.2257135 -1.2628345 -2.1693523 0.29796267 -16.641127
3.5598118 1.3208493 0.796045 -3.529666 -6.247084 1.319381 -0.8194898 4.729911
2.4753828 -2.5592644 -1.1140453 -0.29214498 0.84355223 0.7851062 -6.7264166 -0.29626796
0.8312845 2.459396 -4.3511443 -12.986322 0.008363645 0.35007155 0.624879 -3.2605267
0.81041807 -1.7337837 -2.2071698 -0.5095024 -0.2233625 1.5857602 -3.7939312 0.8279684
1.9616151 -5.7268157 -2.7445986 2.2365494 -0.6732503 1.4860048 -17.71095 -6.1219244
-3.4011867 1.3056206 -5.5202184 0.7289202 1.7262951 -0.84165305 1.3444101 -3.6839302
2.129283 1.3916907 0.43363357 0.90108895 0.1581605 0.2134307 -0.247596 -3.2243717
-5.6386466 1.3089563 -0.9414182 1.9214749 0.7510188 -1.071408 0.37254772 0.7521074
-7.2265058 -1.2993265 0.3262779 -0.04381247 1.529231 -2.8625782 -4.22662 1.3520931
-3.7331553 2.4293792 -3.3159015 0.67238015 0.28326446 0.39877108 -3.9223158 0.7783105
0.28972232 -3.9482393 0.024086388 -7.8460755 0.5629108 -0.31974974 0.31921256 -1.6820052
0.2648095 1.8085271 1.4283127 0.6812519 -2.8776722 -3.2331355 -0.31007335 -4.935026
3.1636639 0.78567034 -1.799624 -1.5125308 -3.2337847 -4.345297 1.1097301 0.9596772
-1.3663293 -10.775687 1.641117 0.24596915 -0.25760177 -0.22287512 0.08179464 -17.716328
-7.8226123 0.014800085 -8.679903 -2.904481 -0.16695747 -0.056729555 -0.023516659 -1.5436766
1.9845492 -5.4691834 2.0429485 -1.6809031 0.22387078 1.4430827 -0.045918625 0.66934043
0.7111151 -0.26857716 -0.07295629 -0.37034926 -3.283215 0.49229914 1.9626316 -1.5641154
-6.3317175 -1.1276704 1.6160918 0.03186401 0.024981445 0.16478702 -15.845631 0.29746044
-0.09616587 0.43356588 -0.4606849 -5.8803825 -0.02138453 -5.851601 0.031577315 1.8779672
0.0403656 -1.3510755 -0.4167121 0.2775005 2.0704005 -0.36385822 -1.7715749 2.21805
-8.007876 -1.2850647 1.6417297 -2.001636 2.6861887 0.5695652 0.7775717 -0.66052884
1.5975798 4.1869555 -0.36473775 -0.52603734 -0.63955325 -0.17101258 -0.518932 7.557225
0.26355538 -0.58525884 3.8604014 0.47108278 -1.0043474 -0.6852312 -0.5203904 3.356495
-0.78303295 1.3978741 -0.36652136 -0.3646831 -0.30951798 0.57488245 -0.65493804 1.3858285
-0.674092 -0.18798323 -0.81648463 1.7568552 0.6125775 0.7510581 0.49099597 -2.3210223
2.1705055 -0.5344234 2.1738136 -0.50510854 -0.833143 -1.0406688 7.7097697 -0.47137257
-0.93856883 2.4154027 1.6227394 13.174243 -0.323803 1.9934407 -0.9036404 0.8063777
-1.0149149 -0.3270295 -0.10844088 -0.5559299 -0.0030029756 0.9311681 2.030875 -0.4474605
0.5990407 1.1309403 1.1041176 0.48540527 1.0786645 0.65518147 1.1972947 1.1852922
00000000: a27a ef3f 6059 8b40 4e4f f33f c73d bcbe
00000010: 17e4 20c0 acb1 953f c497 88bf 07ae 02c1
00000020: 9bb4 40c1 fba5 c1bf 42ea c940 2eb0 9bbf
00000030: 952e 6a3f de7b 5e3f 5b48 8a3f b17c 853f
00000040: a11f 1340 5851 df3e 5cbb c4bf 1772 0ec0
00000050: 90a4 a1bf abd6 0ac0 908e 983e 0721 85c1
00000060: f5d3 6340 9711 a93f 9bc9 4b3f 0ce6 61c0
00000070: 1de8 c7c0 7ae1 a83f 15ca 51bf 6e5b 9740
00000080: ac6c 1e40 fdca 23c0 0999 8ebf 0794 95be
00000090: 0af3 573f b8fc 483f ce3e d7c0 6fb0 97be
000000a0: 10cf 543f be66 1d40 933c 8bc0 fac7 4fc1
000000b0: ab07 093c 943c b33e 12f8 1f3f 78ac 50c0
000000c0: 8f77 4f3f a0ec ddbf 4542 0dc0 c06e 02bf
000000d0: 24b9 64be 31fa ca3f c5cf 72c0 bdf5 533f
000000e0: 3416 fb3f 1342 b7c0 81a7 2fc0 a023 0f40
000000f0: 225a 2cbf 6835 be3f 07b0 8dc1 cee6 c3c0
00000100: 0bad 59c0 931e a73f a1a5 b0c0 849a 3a3f
00000110: 3df7 dc3f 9376 57bf a115 ac3f 83c5 6bc0
00000120: 2c46 0840 ec22 b23f 3805 de3e c4ad 663f
00000130: d3f4 213e 948d 5a3e ce89 7dbe 1b5c 4ec0
00000140: cb6f b4c0 e18b a73f c800 71bf e4f2 f53f
00000150: c542 403f e623 89bf 93be be3e 1c8a 403f
00000160: 893f e7c0 5550 a6bf e60d a73e b474 33bd
00000170: d7bd c33f 7b34 37c0 7940 87c0 6311 ad3f
00000180: 04ec 6ec0 f37a 1b40 bb37 54c0 1b21 2c3f
00000190: 0a08 913e b92b cc3e 3907 7bc0 5b3f 473f
000001a0: 7c56 943e f4af 7cc0 d150 c53c 0d13 fbc0
000001b0: ec1a 103f 3db6 a3be d46f a33e f24b d7bf
000001c0: 1c95 873e d17d e73f f3d2 b63f 8666 2e3f
000001d0: c82b 38c0 b1eb 4ec0 efc1 9ebe bceb 9dc0
000001e0: 7879 4a40 b121 493f 145a e6bf 9c9a c1bf
000001f0: 54f6 4ec0 ac0c 8bc0 a30b 8e3f 68ad 753f
00000200: e1e3 aebf 3769 2cc1 1f10 d23f 56df 7b3e
00000210: 61e4 83be 6039 64be f383 a73d 0abb 8dc1
00000220: d752 fac0 0e7c 723c e2e0 0ac1 04e3 39c0
00000230: e6f6 2abe 405d 68bd 02a6 c0bc 3297 c5bf
00000240: b505 fe3f 8d03 afc0 abbf 0240 d527 d7bf
00000250: 623e 653e efb6 b83f 2b15 3cbd e559 2b3f
00000260: a40b 363f f282 89be 1b6a 95bd 6b9e bdbe
00000270: 3220 52c0 a20e fc3e 8337 fb3f ef34 c8bf
00000280: 6e9d cac0 8157 90bf 19dc ce3f d683 023d
00000290: e3a5 cc3c eebd 283e b487 7dc1 bc4c 983e
000002a0: 9df2 c4bd 59fc dd3e e4de ebbe 182c bcc0
000002b0: 9c2e afbc 5140 bbc0 3757 013d 3b61 f03f
000002c0: 6656 253d 0bf0 acbf 4a5b d5be 8c14 8e3e
000002d0: 7181 0440 a04b babe f7c2 e2bf 88f4 0d40
000002e0: 4320 00c1 007d a4bf 3324 d23f ce1a 00c0
000002f0: 84ea 2b40 06cf 113f f00e 473f 6b18 29bf
00000300: 7f7d cc3f 8afb 8540 e8be babe 62aa 06bf
00000310: c3b9 23bf ec1d 2fbe bad8 04bf cad4 f140
00000320: bbf0 863e 86d3 15bf d110 7740 c331 f13e
00000330: 758e 80bf 506b 2fbf 4e38 05bf d0d0 5640
00000340: d974 48bf 8aed b23f b0a8 bbbe beb7 babe
00000350: 2479 9ebe 7f2b 133f 05aa 27bf d462 b13f
00000360: 4b91 2cbf ad7e 40be 2305 51bf a2e0 e03f
00000370: e1d1 1c3f 5845 403f d363 fb3e a18b 14c0
00000380: 90e9 0a40 f9cf 08bf c31f 0b40 cb4e 01bf
00000390: dc48 55bf a334 85bf 6fb6 f640 bf57 f1be
000003a0: 0c46 70bf f595 1a40 edb5 cf3f b3c9 5241
000003b0: 82c9 a5be 1129 ff3f fa54 67bf c56e 4e3f
000003c0: bbe8 81bf 6970 a7be 4116 debd 6c51 0ebf
000003d0: 92cd 44bb 0861 6e3f dbf9 0140 8b19 e5be
000003e0: bb5a 193f a7c2 903f ba53 8d3f 0a87 f83e
000003f0: ae11 8a3f f9b9 273f f440 993f a8b7 973f

network.2.bias f4 [4]
0.042744957 0.73955953 0.23488715 -0.727305
00000000: 5615 2f3d c653 3d3f 4286 703e a930 3abf
