output/learn_roi/best_model/model.pt (torch_old, 2909 bytes, 4 tensors)

network.0.weight f4 [64, 3]
0	0xc01fdb80	-2.4977722
1	0xbfccd41e	-1.6002233
2	0xbe648be6	-0.22318992
3	0x400f01e2	2.23449
4	0x3f6c24d5	0.922437
5	0x3f702ae2	0.93815434
6	0xbee93d94	-0.45554793
7	0xbfd76439	-1.682746
8	0x3dac02f3	0.08399
9	0xbe05903e	-0.13043305
10	0xbfd4ab4c	-1.6614776
11	0xbe5f79e7	-0.21823846
12	0x3c2ba64a	0.010476658
13	0x3e2bd8c1	0.16781904
14	0xc03ab6f9	-2.9174178
15	0x3f6a4f46	0.9152721
16	0x3ff89ab8	1.9422216
17	0x3f96e000	1.1787109
18	0xbe0495ca	-0.12947765
19	0xc0119fc2	-2.2753758
20	0x3dbe8395	0.09302441
21	0x4016c208	2.3555927
22	0x3f174255	0.5908559
23	0x3ebde6ec	0.37090242
24	0x3e16e05b	0.14734022
25	0x3ef45264	0.4771911
26	0xc03af20b	-2.9210231
27	0xbe85893e	-0.2608127
28	0x3fa78516	1.308749
29	0xc033fcb5	-2.812299
30	0xbd0c0175	-0.034181077
31	0x3fc63df0	1.5487652
32	0xc0502a42	-3.2525792
33	0xbe049b37	-0.12949835
34	0xc026998e	-2.6031222
35	0xbe459cbe	-0.19298074
36	0x3c5cec3a	0.013484055
37	0xbf5aa65e	-0.85410106
38	0xc027474f	-2.6137273
39	0x3aac505b	0.0013146506
40	0xbf90b2e0	-1.1304588
41	0x4008e55e	2.1389995
42	0xbed1939c	-0.4093293
43	0x3f6c97d9	0.924192
44	0x40214b21	2.5202105
45	0xbfe1ad7f	-1.7631072
46	0x3fd13f9d	1.6347538
47	0x3f2533fd	0.6453245
48	0xbe0694e0	-0.13142729
49	0xbf8df6cc	-1.1090941
50	0x3ec26f48	0.37975526
51	0x3d146863	0.036232363
52	0x3ff5ff78	1.9218588
53	0x3f256189	0.6460195
54	0x3dc7b8e4	0.09752062
55	0x3fa40c52	1.281626
56	0x4029814f	2.6485174
57	0x3dcbb717	0.09947031
58	0x3fa7e9cb	1.3118223
59	0x402d4123	2.7071006
60	0xbf6737d3	-0.90319556
61	0xbf4a8805	-0.791138
62	0xc028b353	-2.635945
63	0xbe2f9842	-0.17147925
64	0x3cd1ed60	0.025625885
65	0xbe56feb2	-0.20995596
66	0x3c212031	0.009834335
67	0xc023ecae	-2.5613208
68	0xbfbc8bc3	-1.4730152
69	0xbf4c9d56	-0.79927576
70	0xc00aa467	-2.1662843
71	0xbe95912c	-0.2921232
72	0x3e5176f9	0.2045554
73	0x3ea3c406	0.31985492
74	0x3e4f501c	0.20245403
75	0x3d866658	0.06562489
76	0x40054fd0	2.0829964
77	0x3f6593ed	0.8967884
78	0x3da7fd19	0.082025714
79	0x4002ef97	2.0458734
80	0x3f3e935c	0.744436
81	0xbe67faa5	-0.22654207
82	0xbfe3c364	-1.7794003
83	0xbe0848cf	-0.13309024
84	0xbe27143f	-0.16316317
85	0x3e8d5f80	0.27611923
86	0xbdd7eeb9	-0.105435796
87	0xbee734d1	-0.45157483
88	0x3fa15956	1.2605388
89	0xbf9bc151	-1.216837
90	0xbb199a02	-0.0023437743
91	0x3fb6ae6e	1.4271982
92	0xc0568bff	-3.3522947
93	0x3d780240	0.06054902
94	0xc00f0fd8	-2.235342
95	0xbd0e29a9	-0.0347077
96	0x3e8d8dc2	0.27647215
97	0x3f9707c1	1.1799241
98	0xbea1ed84	-0.31626523
99	0x3f7f1594	0.996423
100	0xc008275e	-2.1274028
101	0x3ec90974	0.39265025
102	0x3d1908b0	0.0373618
103	0x3d5f8400	0.054569244
104	0x3e0292b8	0.12751281
105	0xbfce60d8	-1.6123304
106	0xc004619a	-2.0684571
107	0xbf769a4c	-0.9632919
108	0xbc9c8c66	-0.019109916
109	0x3f47da14	0.78067136
110	0xc018c385	-2.3869336
111	0xc00fa42c	-2.2443953
112	0x3fd5cf55	1.6703898
113	0x3f51e4c7	0.8198971
114	0xbf96e5b5	-1.1788851
115	0x3fe7e304	1.8116155
116	0x3fae504d	1.3618256
117	0xbc3761c0	-0.011192739
118	0x3c157e80	0.009124398
119	0xbc9a2f00	-0.01882124
120	0x3ae84387	0.001772032
121	0xbf9ba444	-1.2159505
122	0xc03b932e	-2.9308581
123	0x3d41a110	0.04727274
124	0x3fb975a2	1.4489024
125	0xc0662df0	-3.5965538
126	0xbff4d21b	-1.9126619
127	0x3fb62089	1.4228679
128	0x3e85f209	0.2616122
129	0xbf0f17ef	-0.55895895
130	0x3f46182d	0.7738064
131	0x40262fcd	2.5966675
132	0xbf999ae0	-1.2000389
133	0x3f877a46	1.058419
134	0x40181d8f	2.376804
135	0x3fc94e95	1.5727106
136	0x3facaf27	1.3490952
137	0x3f0b78d8	0.5448127
138	0x3f745024	0.95434785
139	0x3fd7f536	1.6871707
140	0x3f7ad310	0.97978306
141	0xbfe6246f	-1.7979869
142	0x4003774d	2.0541565
143	0x3f887a4e	1.0662324
144	0x3fd4f9e7	1.6638764
145	0x3fa9cc97	1.3265561
146	0x3f8b3c90	1.0877857
147	0x3ca25114	0.019814052
148	0x3e896495	0.2683455
149	0xc04a3678	-3.1595745
150	0x3d5efaff	0.054438587
151	0x400600b9	2.093794
152	0x3f87801c	1.0585971
153	0xc0461e68	-3.0956059
154	0xbd7709d6	-0.060312115
155	0x3f0e2d0a	0.55537474
156	0x3fbe317f	1.4858855
157	0x3fc7ab52	1.5599158
158	0x3f48fc4f	0.7850999
159	0xbebf4fcd	-0.3736557
160	0xbfefea22	-1.8743327
161	0x3ed205da	0.4102009
162	0xbbc30c47	-0.0059523913
163	0x3fb46291	1.409258
164	0xbd8039c4	-0.06261018
165	0x3fecd555	1.8502604
166	0xc01a55bc	-2.4114828
167	0xbf886fb0	-1.0659084
168	0xbfbd6918	-1.4797697
169	0x3ffb2740	1.9621353
170	0x3fcbc011	1.5917989
171	0x3ffaf3a4	1.9605603
172	0xc01e4fd7	-2.473623
173	0xbfa60e54	-1.2973123
174	0x3d9bd44c	0.07608852
175	0x3fb17381	1.3863374
176	0x40232607	2.549196
177	0x3d8d9a02	0.0691414
178	0x3ff616a1	1.9225656
179	0x3f88cf16	1.0688198
180	0x3ff5c310	1.9200153
181	0x3efdbbfa	0.49557477
182	0xbe41ca21	-0.18924762
183	0xbf2d4791	-0.67687327
184	0xbf9d691f	-1.2297705
185	0x3e7fc901	0.2497902
186	0x3f996a93	1.1985649
187	0x3ffc2917	1.970004
188	0x3fb51ed6	1.4150035
189	0x402b99e3	2.6812675
190	0xbf1c3069	-0.6101137
191	0x3e9cc700	0.30620575

network.0.bias f4 [64]
0	0xbf9f6446	-1.2452476
1	0xbe09f2c4	-0.13471514
2	0x3f771acb	0.9652526
3	0x3f3d0840	0.73840714
4	0xbfbb30db	-1.4624285
5	0x3ece9dee	0.40354866
6	0xbe5805b6	-0.21095929
7	0xbf8b1433	-1.0865539
8	0xbf982b5b	-1.1888231
9	0x3faefcb1	1.3670865
10	0x3ec7fa91	0.39058354
11	0xbeb4b2ff	-0.35292813
12	0xbf48291e	-0.7818774
13	0xbf145c2b	-0.5795314
14	0x3f85edd6	1.0463207
15	0x3f5b534a	0.85673964
16	0x3f690ea2	0.9103795
17	0x3fcbd82b	1.5925344
18	0x3fae818d	1.3633286
19	0x3fb2776e	1.3942697
20	0xbf9dc717	-1.2326382
21	0xbf0b6810	-0.5445566
22	0xbfa00091	-1.2500173
23	0xbf570a54	-0.84000134
24	0xbf068bdd	-0.52557164
25	0x3fe914b6	1.8209445
26	0x3fdc1c0b	1.7196058
27	0x3f5efe9f	0.8710727
28	0xbf05449f	-0.5205783
29	0xbe80c4ab	-0.25150046
30	0x3e8f960d	0.28044167
31	0xbfa2a7b1	-1.2707425
32	0x3fd39946	1.653115
33	0x3e5f3efc	0.2180137
34	0xbee9bfdb	-0.45654187
35	0xbf4e91c6	-0.8069118
36	0x3fa018c7	1.2507561
37	0xbeed8bdb	-0.46395764
38	0x3ea9c2d1	0.33156446
39	0xbea88fdc	-0.32922256
40	0xbf85d780	-1.045639
41	0x3fb0657f	1.3780974
42	0x3f7340d7	0.9502081
43	0x3f741742	0.9534799
44	0x3f762c01	0.96160895
45	0x3f3e6a6f	0.74381155
46	0x3ef3957d	0.47574988
47	0x3f599b9c	0.85003066
48	0x3ec1711c	0.37781608
49	0xbfb088af	-1.3791713
50	0x3ff1dbd2	1.8895209
51	0xbf84af4a	-1.0365994
52	0x3f303ec1	0.68845755
53	0x3fa3d0de	1.2798116
54	0x3fb9bd13	1.4510826
55	0xbf68b76c	-0.9090488
56	0x3ea7f3a1	0.32803062
57	0xbf789c07	-0.9711308
58	0x3fad4760	1.3537407
59	0x3fe544f2	1.7911665
60	0x3f56748d	0.8377159
61	0x3fa1e15d	1.26469
62	0x3ec420f9	0.38306406
63	0xbf966c3a	-1.1751778

network.2.weight f4 [4, 64]
0	0x3f7c6ad4	0.98600507
1	0x3f86c8f7	1.053008
2	0x3f561704	0.8362887
3	0x3f849c42	1.0360186
4	0xc115597c	-9.334347
5	0x3fac6e13	1.3471092
6	0x3fc2b625	1.5211836
7	0x40829802	4.0810556
8	0xc0e503f3	-7.156732
9	0xc00ffa7a	-2.2496629
10	0xc0930475	-4.594294
11	0x3fe71667	1.8053712
12	0x3e3f2c39	0.18669213
13	0x3fd88940	1.6916885
14	0xbfddf696	-1.7340877
15	0xbfc02d76	-1.5013874
16	0x3efca855	0.49347177
17	0xc12e1708	-10.880623
18	0xc060c5eb	-3.51208
19	0xc07fd599	-3.997412
20	0xbf42fbf1	-0.7616568
21	0x3c25c810	0.010118499
22	0x405f4822	3.4887776
23	0x4010e945	2.2642376
24	0x3dc6ad5d	0.09701035
25	0xc104a91b	-8.2912855
26	0xc113f2c9	-9.246774
27	0x3f5f1884	0.8714678
28	0xbce8883e	-0.028385278
29	0xbfc185d4	-1.5118966
30	0xc097167d	-4.721495
31	0x40701d20	3.7517776
32	0xbfe1d6c6	-1.7643669
33	0x3f76ec83	0.9645464
34	0x3def459a	0.11683197
35	0x40142232	2.314587
36	0xbfb2a139	-1.3955451
37	0x403a0402	2.9064946
38	0x3fd9ec21	1.7025186
39	0xbd15fc18	-0.03661737
40	0x3f80e9e4	1.0071378
41	0xc03c9703	-2.946717
42	0xbfd0e6ea	-1.6320469
43	0xbfc235d1	-1.5172673
44	0xc0239859	-2.5561736
45	0xbffc9a85	-1.9734656
46	0x3fb09bd3	1.3797554
47	0xbf1b5327	-0.60673755
48	0xbe957f83	-0.29198846
49	0xc1073356	-8.450033
50	0xc0f106c9	-7.5320783
51	0x4002ddff	2.0447996
52	0xbf6d768d	-0.9275902
53	0x3f4249ad	0.7589367
54	0xc08081d9	-4.0158505
55	0x401406de	2.3129191
56	0x402e37de	2.7221599
57	0x3fe43825	1.7829634
58	0xc083e40a	-4.121587
59	0xc0da706c	-6.8262234
60	0xbe8a2bbc	-0.26986492
61	0x3ea99337	0.3312013
62	0x3fdb7fa9	1.7148334
63	0x3fd304eb	1.6485876
64	0xc09bb846	-4.8662443
65	0xc046127f	-3.094879
66	0x3db8f3d6	0.09030883
67	0x3cc9ea56	0.024647873
68	0xc0bf398c	-5.975775
69	0xbed030e1	-0.40662292
70	0x3e4bfbd5	0.19920285
71	0x3fa24ffd	1.268066
72	0xc06a36f5	-3.6596043
73	0x3fe275f9	1.7692252
74	0x3fdeb100	1.7397766
75	0xbe66d44f	-0.22541927
76	0x3d4f00f1	0.050538007
77	0x3f31062a	0.6915003
78	0x3e983736	0.29729623
79	0xc02e5db1	-2.7244685
80	0x3ea6e836	0.32599038
81	0x3f984b3e	1.1897962
82	0x3f684a79	0.90738636
83	0x3f6ab903	0.91688555
84	0xc01c08e4	-2.4380426
85	0x3da6d228	0.08145553
86	0x3fa908f3	1.3205856
87	0xc0349617	-2.8216608
88	0x3d7e9434	0.062153056
89	0x3fa4adf6	1.2865589
90	0x3f9e0f81	1.2348481
91	0x3e2aada8	0.16667807
92	0xbd43f922	-0.047845013
93	0xbef3fc52	-0.47653443
94	0x3fefddf0	1.8739605
95	0xc0c19790	-6.0497513
96	0x3f89b034	1.0756898
97	0x3f179d5e	0.592245
98	0xbca21538	-0.019785509
99	0xc096908c	-4.705145
100	0x3fa03aaa	1.2517903
101	0xbe33a67b	-0.17543976
102	0xbf9d01d0	-1.2266178
103	0x3df740c0	0.12072897
104	0xbfb99dc4	-1.4501271
105	0x40022440	2.0334625
106	0xc019df54	-2.4042559
107	0x3ef993b0	0.4874549
108	0xbf82a671	-1.0207044
109	0xc0047b5f	-2.07003
110	0xbff1be4f	-1.8886203
111	0xc04ca869	-3.197779
112	0xc02ecf3f	-2.7313993
113	0xc06cb1ae	-3.6983447
114	0x3fb67326	1.425389
115	0xc0db3873	-6.850641
116	0xc040a73d	-3.0102074
117	0x3eab410a	0.33448058
118	0x3f99f32c	1.2027335
119	0xc058bb46	-3.3864303
120	0xbf8b7f30	-1.089819
121	0xc085913f	-4.17398
122	0x3fb0cf86	1.3813331
123	0x3fb6377c	1.4235682
124	0xbfbda39e	-1.4815557
125	0x3e8d4708	0.27593255
126	0xbf963d1d	-1.17374
127	0xc0fed5de	-7.963607
128	0x3f9b80c7	1.2148675
129	0x3f96fb3d	1.1795422
130	0x3d33e191	0.04391629
131	0xbda0607a	-0.078309014
132	0xc03b73fc	-2.9289541
133	0xc0f37488	-7.607975
134	0xbec78866	-0.3897125
135	0xc0d8ecd1	-6.7789083
136	0xc10103f9	-8.06347
137	0xbd49d56a	-0.049275793
138	0xbf516d6d	-0.81807595
139	0xbf1af52b	-0.60530347
140	0xc0863161	-4.1935277
141	0xbf7d4675	-0.98935634
142	0xc03ecb11	-2.9811442
143	0x3ff58f40	1.9184341
144	0x3e12285f	0.14273213
145	0x3f91a02e	1.1377008
146	0xbfb3a3fd	-1.403442
147	0xbfc69127	-1.5513047
148	0xc053a2f4	-3.3068209
149	0x3d47b41c	0.04875575
150	0xc0e73156	-7.2247725
151	0xbf4126fa	-0.754501
152	0xbdd0f004	-0.10202029
153	0x3f74aa11	0.95572
154	0x3f73ca94	0.95230985
155	0x3de12e57	0.10995167
156	0x3d966d41	0.07345057
157	0xbfe703e5	-1.8048064
158	0xbf924ef8	-1.1430349
159	0xc06a677e	-3.6625667
160	0x3ef6440b	0.48098788
161	0xbec41e9e	-0.3830461
162	0x3d3003b4	0.04297228
163	0xbea7e52c	-0.32792032
164	0x3e4e7ea5	0.20165499
165	0xc116949d	-9.411283
166	0xc0a7716d	-5.232596
167	0x3d955842	0.072922245
168	0xc0b4f637	-5.6550555
169	0xbed85178	-0.42249656
170	0x3fe25ea0	1.7685127
171	0xc016137c	-2.3449392
172	0x3f9fce98	1.2484922
173	0x3fcb4052	1.5879004
174	0xc067b704	-3.6205454
175	0x400b76cb	2.1791255
176	0x3fdd11bf	1.7271041
177	0xc130be42	-11.04645
178	0x3faf4d3d	1.3695446
179	0x400443da	2.0666413
180	0x3fc25cc7	1.5184563
181	0x3e482353	0.19544725
182	0x3f2d1505	0.676102
183	0xbf3b1ecd	-0.73093873
184	0xc0d9e748	-6.8094826
185	0x3f1cf903	0.6131746
186	0xc00491fd	-2.0714104
187	0x3faca664	1.3488278
188	0x3f824689	1.0177776
189	0x3e77a7ce	0.24185106
190	0xc0d78f1b	-6.736219
191	0x3fa53ff1	1.2910138
192	0x3f4e075e	0.8047999
193	0x3e7459aa	0.23862329
194	0xbf99e1bf	-1.2022017
195	0xbf92eb78	-1.1478109
196	0x41052eef	8.323958
197	0x4009911c	2.1494818
198	0xbfaeb847	-1.3649987
199	0x402de0d4	2.7168474
200	0x40b67e5a	5.702924
201	0xbf06945a	-0.52570117
202	0xbe98201d	-0.29712
203	0xbff13862	-1.8845332
204	0x3fffdea8	1.9989824
205	0xbfaa3823	-1.3298382
206	0x3fe7e4f7	1.811675
207	0x3f817c15	1.0115992
208	0xbf62f5e8	-0.88656473
209	0x3e95a75c	0.29229248
210	0x3fca3b8c	1.5799422
211	0x3fc8a7d6	1.567622
212	0x408e0cf9	4.4390836
213	0x3c226cf0	0.009913668
214	0x3e4a5d58	0.1976217
215	0x3f2ea00b	0.68212956
216	0x3b857437	0.004072692
217	0x3efd2be9	0.49447563
218	0x3eac1549	0.3360999
219	0xbfb79baf	-1.4344386
220	0xbd377817	-0.04479226
221	0x3f809b07	1.004731
222	0xbcf72784	-0.03017021
223	0x404ba567	3.1819704
224	0xbefc5ec9	-0.49291065
225	0xbf8ffe1d	-1.1249424
226	0xbd8b44ae	-0.06800209
227	0x3f6609f8	0.8985896
228	0xbf5007e1	-0.8126202
229	0x404c13fe	3.1887202
230	0x4012c5d1	2.2933238
231	0xbd470f40	-0.048598528
232	0x40458618	3.0863094
233	0xbeaf7a6f	-0.34273097
234	0x3f722dc6	0.94601095
235	0x3fdb60f5	1.7138964
236	0x3fa74547	1.3068017
237	0x3fa4f386	1.2886817
238	0x4029dc9d	2.6540902
239	0x3fa3e427	1.2804002
240	0x3f26ce95	0.6515897
241	0x40d8edb6	6.7790174
242	0x3eba3ffb	0.36376938
243	0x3e9c6d83	0.305523
244	0x3fcbd0f4	1.5923142
245	0xbfa30a70	-1.273756
246	0xbd81bea6	-0.063351914
247	0x3f90a77d	1.1301113
248	0x40327ef2	2.7889981
249	0x3f8d1ee2	1.102505
250	0x3fc1b948	1.5134668
251	0x3f03ef3b	0.5153691
252	0x3ee935cb	0.45548853
253	0xbf9a0e09	-1.2035533
254	0x40334986	2.8013625
255	0x3f925ab6	1.1433933

network.2.bias f4 [4]
0	0xbed84f9a	-0.4224823
1	0x3f227c4e	0.63470924
2	0x3e5b4b66	0.21415481
3	0xbf56f886	-0.83972967
