output/learn_roi/best_model/model.pt (torch_old, 2909 bytes, 4 tensors)

network.0.weight f4 [64, 3]
000000 f3 7e 60 bd e4 5c 86 3f 7d 94 01 bf c8 a9 87 c0
       -0.05480857 1.0497098 -0.506172 -4.2394753
000010 f5 0b 47 3f ac 87 05 3f cb 7d d6 3d b3 05 52 40
       0.7775262 0.52160144 0.10473212 3.2815979
000020 49 19 5f 3f dc a9 e5 3d a5 49 5c 40 f9 6e 02 40
       0.8714796 0.11214039 3.441995 2.0380232
000030 59 4e bd 3e d5 1d 4b c0 82 79 77 bf 41 2a 74 40
       0.36973837 -3.1736958 -0.9666978 3.815079
000040 76 e8 28 bf 01 53 f3 3e c4 0f 97 3e c9 e5 af 3f
       -0.6597971 0.47524264 0.29504216 1.3742
000050 de 90 07 c1 2b ea 87 3e 3f 89 2b c0 6a af 96 be
       -8.472868 0.26545843 -2.6802518 -0.29430705
000060 9c 95 f6 3e 21 d6 fc 3f 20 23 bf c0 c6 16 f2 bc
       0.48161018 1.9752847 -5.9730377 -0.029551875
000070 ac 9c 01 c0 2c f4 10 3e 27 b7 6e 3d 59 1b 06 40
       -2.0251875 0.14155644 0.058280136 2.0954192
000080 80 85 26 3d c4 7d 95 be 0e e9 e1 3e 21 de b4 c0
       0.04065466 -0.29197514 0.4412312 -5.6521153
000090 60 4e 82 3e 60 ed 1e c0 9f c9 4b c0 39 e6 0a 40
       0.2545042 -2.4832382 -3.184181 2.1703017
0000a0 6a e8 77 c0 08 d9 0c c0 d0 b1 24 3f d8 d3 33 c0
       -3.8735604 -2.2007465 0.6433382 -2.809805
0000b0 4a e5 3e 40 d6 32 98 3e e5 43 51 c0 81 9b 18 c0
       2.9827447 0.29726285 -3.269769 -2.3844912
0000c0 87 91 22 bf 9a 63 1d c0 58 09 d3 bf e8 0d 9b bd
       -0.6350331 -2.4592042 -1.6487226 -0.07571012
0000d0 e3 b4 cd be 2f 53 d7 3e 1a 27 01 3f 67 e1 26 c0
       -0.40177068 0.42055652 0.5045029 -2.6075075
0000e0 17 71 50 be 94 02 76 c0 22 38 2a 40 86 5f d9 3d
       -0.2035564 -3.8439074 2.659676 0.10613923
0000f0 96 80 7c 40 35 07 1a 40 e6 6c 1e 3f fc e7 26 bd
       3.9453483 2.40669 0.61884916 -0.04074858
000100 30 8f 8e c0 57 3d 2c c0 5f 15 5c c0 a4 88 54 40
       -4.454979 -2.691244 -3.4388044 3.32084
000110 8d 1f 47 40 aa d2 6a 40 5f 9b 83 c0 91 43 ed bf
       3.1113007 3.669108 -4.112716 -1.8536245
000120 39 fe a3 c0 9c a6 ab bf 8b 81 fb 3e 55 70 6d 3e
       -5.124783 -1.341022 0.4912227 0.23187383
000130 87 f0 39 c0 0f 9a 91 bf 07 1f a0 3e 3e 50 68 c0
       -2.9053056 -1.137514 0.31273672 -3.6298976
000140 0f 69 0c c0 19 32 02 3e 79 e3 09 c0 e0 bf 3b be
       -2.1939123 0.12714423 -2.1545088 -0.18334913
000150 4d e6 17 3c a8 d0 2b c0 1c 60 02 3c ad 8e 1c 40
       0.009271217 -2.6846104 0.007957485 2.4462082
000160 ed 9d 72 40 a4 56 00 40 25 7c 0e 3f 92 aa a1 3f
       3.790889 2.0052881 0.5565818 1.2630179
000170 75 88 26 bd f6 3e 8a 3e da 4b 0e 40 a4 06 37 c0
       -0.04065748 0.2700116 2.2233796 -2.8597803
000180 28 f2 82 3e 4d ed 72 40 a3 31 0e 40 e6 da 60 40
       0.25575376 3.7957337 2.2217796 3.5133605
000190 4a 52 59 40 6a 96 4c 40 2f fd 9b 3e 2d 92 7c c0
       3.3956475 3.1966805 0.304666 -3.9464219
0001a0 dd b4 3c c0 a1 c6 5f c0 0f d2 87 c0 d8 75 00 c0
       -2.948539 -3.4964983 -4.244392 -2.0071926
0001b0 7e 3c 14 3e ba d3 09 40 1d 9a 04 be 3b 99 2e c0
       0.14476201 2.1535478 -0.12949415 -2.7281024
0001c0 f9 71 44 40 fe 32 b3 3f 11 a5 1f bb 88 bb 91 c0
       3.0694563 1.3999937 -0.0024359862 -4.554142
0001d0 fd cd 11 c0 43 ac 8b 40 0f bc b6 bf de 28 c4 3e
       -2.2781975 4.364778 -1.4276141 0.3831243
0001e0 90 2a 47 3f af f3 1d 40 15 dd a2 40 b6 88 10 40
       0.7779932 2.4679983 5.0894876 2.2583442
0001f0 bb 5d 82 40 10 12 17 40 34 34 8d 3e a7 03 18 c0
       4.0739417 2.3604774 0.2757889 -2.375223
000200 60 3d a9 be 58 c5 85 3e 23 2a 58 40 77 99 e1 3f
       -0.33054638 0.26127124 3.3775718 1.7624959
000210 3c 53 d7 3e 9a 4f 65 3f 2f 06 be c0 89 2f 12 bf
       0.4205569 0.8957459 -5.938255 -0.5710378
000220 c6 27 63 c0 7f 3c 95 be 0f 04 c3 bf 5e a3 c0 3f
       -3.5493026 -0.29147717 -1.5235614 1.5049856
000230 bb 03 d1 40 c7 33 12 bd 5c 75 a9 bf b9 40 ba 3e
       6.5317054 -0.03569391 -1.323894 0.36377504
000240 26 7c f8 3e 42 dc e7 be 43 75 ae 40 08 ab 51 bb
       0.48532218 -0.4528523 5.451814 -0.0031992812
000250 4a 45 6c c0 53 03 e5 bf 46 20 26 40 5d 41 82 c0
       -3.691729 -1.789164 2.5957198 -4.070479
000260 28 9e 0a c0 7b 5a 38 bf ed 30 97 3f cb d6 be c0
       -2.165903 -0.7201306 1.1811806 -5.96372
000270 60 0a 37 3e e2 c9 a9 3f 80 c8 8b 40 f4 84 ec 3d
       0.17875051 1.3264735 4.368225 0.11548796
000280 00 91 4b bf 91 fd a4 c0 80 ba e7 3c d6 95 58 be
       -0.7951813 -5.155953 0.028287172 -0.21150908
000290 98 0e 47 be 7b eb a5 3e 44 91 1d c0 91 06 8e be
       -0.19439161 0.3240622 -2.4619913 -0.27739385
0002a0 df 22 8a c0 d2 dd 35 c0 13 ec 2e bf fe 72 33 3e
       -4.3167567 -2.8416638 -0.6832897 0.17524335
0002b0 7f 87 1f 40 fd af 5f c0 35 18 94 3e 84 e9 3a c0
       2.492645 -3.4951165 0.28924718 -2.9205027
0002c0 42 fb 87 bf de 26 7f 3e 41 d2 20 c0 09 06 98 be
       -1.0623553 0.2491717 -2.5128329 -0.29692104
0002d0 fb 93 8b 3d a5 b2 8b c0 d4 b9 30 c0 34 c8 19 bd
       0.068153344 -4.365557 -2.761342 -0.037544444
0002e0 ce 57 b3 bf f2 d2 aa 3c a1 c9 cd 3e c8 ea 4d 3e
       -1.4011171 0.02085254 0.40192893 0.20109093
0002f0 12 a6 35 be 1e 73 1e 3c b2 10 22 c0 d1 97 32 40
       -0.17739132 0.009671001 -2.532269 2.7905161

network.0.bias f4 [64]
000000 97 3b 07 40 b8 a6 06 c0 4c 2e 37 40 bb e0 5f 40
       2.113012 -2.1039257 2.8622007 3.4980915
000010 70 16 51 bf e1 8d d9 bf ea 2e 03 40 b4 d0 ae 3f
       -0.8167486 -1.6996423 2.0497384 1.3657441
000020 67 7b 39 bd cc 20 84 3f a1 19 0c 40 c9 02 20 c0
       -0.0452837 1.0322509 2.1890643 -2.50017
000030 1f 0f e6 bf 7f 57 95 bf 5f f6 9b bf 25 40 79 bf
       -1.7973365 -1.1667327 -1.2184561 -0.973635
000040 cb c7 d2 bf 4d cf 81 3f 9b b2 ba 3f 6b ef e7 3f
       -1.6467222 1.0141388 1.4585756 1.811994
000050 8f 08 f0 3f d1 cf 07 c0 3a 85 49 3f d9 4c f5 bf
       1.8752612 -2.122059 0.7871891 -1.9164077
000060 97 96 17 c0 91 98 5e bf 66 b3 9e bf 5d 96 a1 3f
       -2.3685663 -0.8695155 -1.2398498 1.2624012
000070 b0 e5 c8 bf 89 da 9e 3f 0d a3 12 40 bf 5f 12 40
       -1.5695095 1.2410442 2.2912018 2.2870939
000080 be 60 71 40 b7 28 3f 3f 3f ea 87 be 76 50 e4 bf
       3.7715297 0.746715 -0.26545903 -1.7837055
000090 40 f6 1b 40 2b 4f b4 3f d3 ef 05 c0 35 51 0d c0
       2.436905 1.408666 -2.0927627 -2.2080815
0000a0 a2 96 28 40 33 97 96 3f a0 bc 84 3f cb 35 4e 40
       2.634194 1.1764892 1.0370064 3.2220333
0000b0 2c a8 19 c0 0e 2f da bf 94 6d 13 40 95 b0 b1 3f
       -2.4008894 -1.704561 2.303563 1.3882014
0000c0 e9 3f 25 3f e7 35 d7 bf 64 cf af bf 11 46 10 bf
       0.64550644 -1.6813325 -1.3735166 -0.5635691
0000d0 a5 98 1e 40 18 cf 2b c0 bb 47 f5 be 9a cd 8d 3f
       2.4780667 -2.684515 -0.47906289 1.107837
0000e0 5c a9 09 c0 50 77 30 40 ba ed 52 bf b4 5d 9a 3f
       -2.1509619 2.7572823 -0.8239399 1.2059846
0000f0 45 68 05 bf db 16 b1 3f 68 b9 d9 3f 3b 2a 1d bf
       -0.5211223 1.38351 1.7009706 -0.61392564

network.2.weight f4 [4, 64]
000000 35 77 27 c0 46 cd 2d 41 3c 75 95 c1 24 e0 44 c1
       -2.6166508 10.862616 -18.682243 -12.304722
000010 07 cc 28 40 2a 74 ec 40 ef ac 18 c1 69 81 15 3f
       2.6374528 7.38918 -9.54222 0.5840059
000020 67 7c 3d c1 33 20 10 3f cf bf b2 c0 8b 7d fc c1
       -11.842872 0.5629913 -5.585914 -31.5613
000030 75 ee a7 40 fe 76 95 40 25 9b 5d 40 63 89 3b 40
       5.2478585 4.6707754 3.4625943 2.9302604
000040 ef 4a ec 40 77 9b 71 be 36 9e fb 3e c8 94 e4 c0
       7.384147 -0.23594461 0.49144143 -7.143162
000050 af c9 fe c0 6f 88 dd 40 81 6c 98 40 ab e2 71 3f
       -7.9621196 6.9229045 4.763245 0.9448649
000060 07 18 cf 40 e8 e3 1f 40 17 3d 4f 40 ce fe b0 3e
       6.471683 2.4982853 3.2381036 0.345694
000070 f3 e9 ff 40 05 bd 6a 40 d3 18 55 c0 f4 ed 1b bf
       7.9973083 3.6677868 -3.3296402 -0.6090996
000080 c2 22 5c c1 54 69 43 bf a8 90 1d 40 17 2b 2d 40
       -13.758486 -0.7633259 2.461954 2.705755
000090 e4 eb bf c0 95 3f 72 c0 44 a9 af 40 5d 0f 12 40
       -5.9975452 -3.7851307 5.4894123 2.2821877
0000a0 f6 22 03 c1 08 4b 85 41 c9 87 29 3f 31 b5 58 c1
       -8.196035 16.661636 0.66222817 -13.544236
0000b0 9c ce d8 c1 df a0 cd 40 0b 3d af c0 a4 96 68 bd
       -27.100883 6.4258876 -5.4762015 -0.056784287
0000c0 f5 fe ec ba 3a f3 a3 40 1f e9 16 40 65 95 19 c1
       -0.0018081354 5.1234407 2.3579786 -9.598973
0000d0 c4 48 ae c0 3a d5 b6 c1 00 b7 7a bd 09 85 42 3f
       -5.4463825 -22.854115 -0.06120968 0.75984246
0000e0 19 18 00 c0 8d a8 3a bf ab fc 1c 40 5a 2e 23 3f
       -2.0014708 -0.7291344 2.4529216 0.637426
0000f0 39 6f 20 40 09 1a 66 bd 60 b3 d3 bf 38 48 6c 40
       2.5067885 -0.056177173 -1.6539116 3.691908
000100 a4 8c af 3f 10 7f 4d c1 f9 ef 07 40 9c 0b 02 40
       1.3714795 -12.843521 2.1240218 2.0319586
000110 75 05 bd be e1 db 08 c1 6f cd 66 40 f4 21 13 3f
       -0.36918226 -8.553681 3.6062887 0.57473683
000120 f5 09 69 40 24 da b2 3e 7d 32 c7 3f e8 0d 05 c1
       3.6412327 0.34932053 1.5562283 -8.315895
000130 c9 09 a5 bf 2d 93 cd c0 65 ab 0d 40 38 2a 42 40
       -1.2893611 -6.424216 2.213586 3.0338268
000140 a8 7c 59 bf 44 ce 30 3f a3 ae 25 3f 12 c7 7b c0
       -0.84955835 0.69064736 0.647196 -3.9340253
000150 d5 b6 12 c0 86 ef db 40 f1 a3 fa c0 dc bc 10 c1
       -2.2924092 6.8729887 -7.8325124 -9.046108
000160 e6 1d 78 c1 eb 8d b2 bd cb 6f 3e 40 78 18 06 3f
       -15.507299 -0.08718475 2.9755733 0.52381086
000170 a1 23 e0 c0 56 10 b0 c0 09 22 c6 3f f6 06 2c 40
       -7.004349 -5.501994 1.5479137 2.6879249
000180 3f 11 1a 40 9c fb f9 c0 59 57 b2 c0 c5 6b 14 c1
       2.4073026 -7.811964 -5.5731626 -9.276311
000190 b7 d8 e5 3f 56 b5 94 c0 de 97 e7 40 d3 ce aa c1
       1.7956761 -4.6471357 7.2372885 -21.350988
0001a0 cf f3 b7 3f 17 6b 9b c0 12 4c 90 3e a1 13 fd 3f
       1.437128 -4.8568225 0.28183037 1.9771615
0001b0 60 e6 07 c1 54 67 1a c1 20 40 05 3e 0b 08 2d 3f
       -8.493744 -9.650227 0.13012743 0.675904
0001c0 fe 9b 0c 40 d7 85 83 40 b5 13 fb c0 d6 3d 37 40
       2.197021 4.110088 -7.8461556 2.8631492
0001d0 18 f2 81 bf 83 75 23 c1 60 23 f8 bc 82 a3 cc 3e
       -1.0152006 -10.216189 -0.030290306 0.39968497
0001e0 1c 75 1d c1 50 0b 43 40 23 b8 1e bf c6 90 02 3f
       -9.841091 3.0475655 -0.6199972 0.51002157
0001f0 d8 9b ac c0 63 81 31 3f 76 1a 98 3f 26 06 4b 3f
       -5.394024 0.69338053 1.1883075 0.79306257
000200 12 c0 59 3e 5f da 8a c1 82 a6 5d be 6b ac 5c 3e
       0.21264675 -17.356627 -0.21645549 0.21550147
000210 f9 48 21 3f 02 58 62 bf ca a4 82 c0 54 ee 56 3f
       0.6300197 -0.8841554 -4.082616 0.8395741
000220 d8 87 56 c0 75 97 2b 3f d1 04 6c bc a9 53 8c c1
       -3.3520412 0.6702798 -0.014405445 -17.54085
000230 58 c0 ff c0 19 10 cc be ad b5 09 3f ce b5 fe 3e
       -7.9922295 -0.39856032 0.5379284 0.4974808
000240 ea d8 01 c1 17 b3 86 3e 0b 49 64 3f 36 e1 cb 3f
       -8.115458 0.2630851 0.89173955 1.5928104
000250 a4 81 64 40 7f d4 8a c1 06 79 94 bd 5b 6f 1c 40
       3.5704126 -17.353758 -0.07249646 2.4442966
000260 79 fe ec 40 ae 93 36 3f df 2e 4b 3f e5 f3 43 3f
       7.4060636 0.7131909 0.79368395 0.7654403
000270 a8 5b 7b c0 09 f5 82 bf 6b 9a c8 3e 23 9a 1d bf
       -3.9274693 -1.0231029 0.39180312 -0.6156332
000280 2d 96 25 3e 95 f7 62 be 7f 2a 55 3f cf ef 00 40
       0.16170569 -0.22164758 0.8326797 2.0146368
000290 05 5e 78 3e ed 71 5a 3f 3c 29 88 c1 73 e7 bb 3e
       0.24254616 0.85330087 -17.020134 0.3670002
0002a0 5e 4e 95 c0 dc b3 f1 c0 e7 68 24 3f 92 37 19 3e
       -4.6658163 -7.5532055 0.6422257 0.14962605
0002b0 51 50 96 c1 71 72 93 c0 55 29 b0 c0 79 bf 14 3f
       -18.789217 -4.60772 -5.5050454 0.58104664
0002c0 43 72 8c c0 41 e6 04 c1 4c 5e 3d 3f 42 aa 28 c0
       -4.388948 -8.306214 0.7397201 -2.6353917
0002d0 da 86 1e bf 83 2a 49 c1 60 f0 a9 bc 62 e2 57 3f
       -0.6192452 -12.572879 -0.020744503 0.8432981
0002e0 8b bf a5 40 0e 25 d1 be 51 58 6c 3f 3a 4e 4b 3f
       5.1796317 -0.40848583 0.9232226 0.7941624
0002f0 42 42 85 3f 13 3f 0c 3f 01 3c ee 3e b7 00 dd bf
       1.0410845 0.54783744 0.46530154 -1.7265843
000300 43 d6 fa be e8 29 23 41 cc ae d1 3e e2 9c 8e 3f
       -0.48991594 10.197731 0.40953672 1.1141627
000310 4b 76 3f c0 45 30 b1 3f 73 29 ce 3e 4f 39 ed bf
       -2.991595 1.3842856 0.40265998 -1.8533114
000320 aa 83 ca be 37 0f b5 bf 07 2e a8 bc 5f 89 6c 41
       -0.39553577 -1.4145268 -0.02052976 14.783538
000330 b4 d6 71 40 ca da c0 3f ae c4 78 c0 9b da a5 c0
       3.7787294 1.5066769 -3.8870044 -5.182935
000340 88 37 28 bb 5d 51 37 bf a5 be fa bf 16 91 69 40
       -0.0025667865 -0.71608526 -1.958943 3.6494803
000350 21 52 81 3f 4f f6 8d 3e 50 ac 9d 40 5e c1 f7 3f
       1.0103189 0.2772698 4.9272842 1.9355886
000360 da 7d 9b c0 d5 aa 4d c0 bd 66 b9 c0 dd 3d ea bf
       -4.8591127 -3.2135518 -5.7937913 -1.8300129
000370 d6 16 25 3f 70 29 a1 40 3c 00 ef be 1e 17 b8 bf
       0.6448797 5.0363083 -0.46679866 -1.4382055
000380 c4 e6 a7 3f 4a fd a2 40 11 e0 a2 3f 02 ff 05 40
       1.3117299 5.093419 1.272463 2.0936894
000390 9c 17 33 3e 89 92 76 40 ec 49 fb 3f ce e0 54 40
       0.17489475 3.8526938 1.9631934 3.326221
0003a0 5d 86 44 40 2b 79 c1 40 19 c9 ea bf e6 2a 53 3f
       3.070701 6.046041 -1.834262 0.8248733
0003b0 18 83 54 41 fa c5 6c 40 b6 c8 86 40 34 07 a4 bf
       13.282005 3.6995835 4.212001 -1.2814698
0003c0 e1 a1 44 be 64 e4 ef bf 47 aa 06 40 0a 00 6f 3f
       -0.19202377 -1.8741574 2.104143 0.93359435
0003d0 9e e6 54 40 8d f1 84 41 58 43 57 3d bd 99 df bf
       3.3265758 16.617945 0.05255446 -1.7468792
0003e0 6a 66 3e 3f d0 50 e3 bf 75 f9 31 c0 3b a3 df bf
       0.7437502 -1.7759037 -2.7808506 -1.7471689
0003f0 5a 60 c8 3f fb 4e ae bf bb 10 45 bf cb 90 49 c0
       1.5654404 -1.3617853 -0.76978654 -3.1494625

network.2.bias f4 [4]
000000 e3 66 b0 bf 11 a3 c5 3f 1b 2b 06 3f 44 38 98 bf
       -1.3781399 1.5440389 0.52409524 -1.1892171
