output/best_fm/20190227_171656/20190227_171656_model_model.pt (torch_old, 44291 bytes, 6 tensors)

network.0.weight f4 [100, 3]
2.9522893 2.3719063 2.6608284 -0.0042928294 0.015702253 0.0068835104 1.399707 -1.7794577
-0.8057529 0.18785377 -3.0306258 1.2724048 4.104847 -1.814052 1.043102 0.016493268
3.5248551 3.446723 -0.026252901 0.0717359 0.000350017 -0.032167245 0.4913147 1.0290589
0.018922416 -0.026790198 0.017775696 0.17279331 -3.0117843 -1.2771537 0.03931823 -0.0820642
0.028845618 -0.05541646 -0.007847054 0.07030092 -0.46987858 0.10337251 0.49133548 -2.9880836
-1.7140062 0.6482012 0.09281501 -0.18578391 0.42127067 -0.021525392 1.4300867 1.741742
2.254044 1.7439884 1.7496587 1.9193188 -1.1758181 0.4475009 -0.0112983305 -0.40146348
2.095884 -0.0006490741 -0.0014830895 1.0271381 1.4605091 -1.7456063 -0.68927974 -3.4275908
-2.0551522 0.54057634 -0.10027277 3.375651 -0.30765304 -1.4435661 1.3454283 1.2087542
0.0015116499 0.0004276631 1.7645926 1.2572627 0.7251383 -0.30065966 -0.16126008 0.10391876
0.046887144 -0.79372454 -1.9256575 -0.69685346 -0.0010671881 -0.05981282 0.04943305 0.16821426
-2.6733878 0.7935731 -0.4076083 0.091048524 0.53520423 -2.293916 2.1560414 2.1844077
-1.8821692 1.460021 1.5289912 -0.060065202 -1.1412367 -1.0915234 0.024034543 -0.03240463
0.030645294 3.156957 1.5930525 -0.394698 -0.017164538 -0.00022301312 0.028112171 -0.042639658
-0.04721546 -3.0139701 0.16171184 -2.881379 0.45047873 -0.0068249037 -0.05819584 0.039571248
0.18811597 2.6443918 2.1564207 -0.12445059 0.18746604 -0.17481428 -0.07185778 0.098847054
-0.09637408 3.3863144 -2.6931055 -2.4402661 0.014320881 0.033715706 0.09631926 0.022049652
-0.034714103 0.026144095 0.13564672 1.8171062 2.1103292 2.4336271 1.9725094 2.1110651
0.010458385 0.8031495 1.0996056 0.057035968 -0.27035776 0.08963187 0.1494239 -0.8592588
0.59734 0.032001346 0.40419534 0.5465841 -3.1289444 2.693581 2.6205058 1.2653838
-0.51115113 0.10971699 0.1823848 3.1101253 2.9740033 -1.5138031 1.3125334 1.3673847
-0.0037356904 0.010266008 -0.01959764 0.0079896385 -0.09577737 0.10249948 0.029997952 -4.6727343
-0.023631234 -0.06702732 4.159098 3.882817 -3.268494 -2.012991 -2.5204077 -3.9790528
-2.050458 0.11070001 2.0701754 1.6597576 1.7527711 -0.026369974 0.015749607 0.018551717
-0.014575988 -0.058917318 -0.01618043 -0.030206682 0.05369837 0.051732853 3.6850474 -1.6787188
0.60216314 1.9783547 -1.3022453 0.51281464 1.3814937 0.80378217 0.42632976 -0.09817479
-0.30838078 1.2778243 0.008989213 -0.010834038 0.024607552 -0.036926623 -0.006117212 -0.014922921
-0.017562127 0.02244126 -0.05775156 -0.89851165 -1.6341816 -0.56449825 -1.545211 0.91571516
-0.461223 1.4899404 -0.7243643 0.29969394 -3.0459929 1.6080772 -0.665002 0.05759539
0.14132771 -0.07399851 -0.03380716 -0.019919667 0.008554894 -1.8835968 -1.5123193 0.10071473
-0.7466182 2.4296072 2.0035608 -0.11913681 -0.06295331 0.026210215 1.5820197 1.2535312
-0.16561474 -0.41180506 0.77961653 -0.02636127 0.049910575 -0.037920024 0.022317825 0.029976867
00000000: 4ff2 3c40 50cd 1740 034b 2a40 ddaa 8cbb
00000010: 03a2 803c 128f e13b 9929 b33f 45c5 e3bf
00000020: d245 4ebf bd5c 403e c6f5 41c0 29de a23f
00000030: e85a 8340 db32 e8bf 5e84 853f e41c 873c
00000040: 3a97 6140 1c97 5c40 5310 d7bc 46ea 923d
00000050: 7d82 b739 cdc1 03bd 9a8d fb3e 34b8 833f
00000060: 2f03 9b3c 1e77 dbbc 569e 913c bbf0 303e
00000070: 13c1 40c0 c679 a3bf 270c 213d 4611 a8bd
00000080: a54d ec3c 5ffc 62bd ee90 00bc eef9 8f3d
00000090: ed93 f0be f7b4 d33d 5390 fb3e c33c 3fc0
000000a0: 8e64 dbbf 84f0 253f cc15 be3d 233e 3ebe
000000b0: cab0 d73e 0556 b0bc 150d b73f 67f1 de3f
000000c0: 4242 1040 033b df3f d1f4 df3f 3dac f53f
000000d0: 3581 96bf d71e e53e a21c 39bc 9f8c cdbe
000000e0: f722 0640 a026 2aba 3a64 c2ba 4379 833f
000000f0: f6f1 ba3f 0770 dfbf a374 30bf a65d 5bc0
00000100: 9d87 03c0 3663 0a3f cf5b cdbd aa0a 5840
00000110: b384 9dbe c6c6 b8bf ff36 ac3f 75b8 9a3f
00000120: 8e22 c63a f837 e039 2cde e13f fced a03f
00000130: aaa2 393f 10f0 99be 5d21 25be 5cd3 d43d
00000140: bc0c 403d 8831 4bbf f27b f6bf fd64 32bf
00000150: e4e0 8bba 4afe 74bd 4f7a 4a3d 5c40 2c3e
00000160: c918 2bc0 9b27 4b3f 09b2 d0be a677 ba3d
00000170: 2503 093f 85cf 12c0 95fc 0940 56cd 0b40
00000180: ecea f0bf f8e1 ba3f fcb5 c33f ee06 76bd
00000190: 0b14 92bf 0ab7 8bbf 17e4 c43c b8ba 04bd
000001a0: d70b fb3c 950b 4a40 25e9 cb3f db15 cabe
000001b0: a59c 8cbc a1d8 69b9 7f4b e63c eca6 2ebd
000001c0: 0065 41bd e3e4 40c0 ca97 253e 8368 38c0
000001d0: 26a5 e63e 71a3 dfbb c35e 6ebd 7615 223d
000001e0: 79a1 403e b73d 2940 cc02 0a40 f3df febd
000001f0: 19f7 3f3e 8402 33be 2c2a 93bd 5370 ca3d
00000200: c65f c5bd 60b9 5840 d75b 2cc0 522d 1cc0
00000210: 21a2 6a3c 7b19 0a3d 0843 c53d 79a1 b43c
00000220: 6030 0ebd 242c d63c f9e6 0a3e f096 e83f
00000230: a20f 0740 8cc0 1b40 307b fc3f b11b 0740
00000240: a559 2b3c 359b 4d3f e0bf 8c3f 8c9e 693d
00000250: 556c 8abe ea90 b73d 9402 193e 62f8 5bbf
00000260: 46eb 183f d813 033d b1f2 ce3e f0ec 0b3f
00000270: a040 48c0 a263 2c40 5eb6 2740 19f8 a13f
00000280: cdda 02bf 4db3 e03d 15c3 3a3e 4b0c 4740
00000290: 1256 3e40 4dc4 c1bf 1801 a83f 7606 af3f
000002a0: 7cd2 74bb c232 283c 3b8b a0bc f9e6 023c
000002b0: ed26 c4bd 3feb d13d 44be f53c 0a87 95c0
000002c0: 4a96 c1bc 9f45 89bd 5517 8540 1380 7840
000002d0: 012f 51c0 d8d4 00c0 5c4e 21c0 cda8 7ec0
000002e0: b43a 03c0 b0b6 e23d c17d 0440 f072 d43f
000002f0: ce5a e03f d805 d8bc 5205 813c c5f9 973c
00000300: 20d0 6ebc 4953 71bd d28c 84bc 0174 f7bc
00000310: d2f2 5b3d d4e5 533d d1d7 6b40 42e0 d6bf
00000320: 5d27 1a3f ba3a fd3f f9af a6bf d247 033f
00000330: c9d4 b03f abc4 4d3f e547 da3e dd0f c9bd
00000340: 16e4 9dbe bf8f a33f 7e47 133c 4081 31bc
00000350: c795 c93c 5f40 17bd e572 c8bb 447f 74bc
00000360: 73de 8fbc bcd6 b73c e68c 6cbd dc04 66bf
00000370: dd2c d1bf f582 10bf 79c9 c5bf 4f6c 6a3f
00000380: 6c25 ecbe 5eb6 be3f f06f 39bf 7c71 993e
00000390: 8cf1 42c0 79d5 cd3f 923d 2abf 25e9 6b3d
000003a0: 36b8 103e 888c 97bd 6079 0abd 922e a3bc
000003b0: d329 0c3c b319 f1bf ae93 c1bf 8643 ce3d
000003c0: 5f22 3fbf af7e 1b40 573a 0040 00fe f3bd
000003d0: aaed 80bd ceb6 d63c 9f7f ca3f b673 a03f
000003e0: e996 29be 1dd8 d2be f394 473f 97f3 d7bc
000003f0: 086f 4c3d 0752 1bbd dfd3 b63c 0c92 f53c

network.0.bias f4 [100]
-4.3274727 -0.08531576 0.81151146 -3.96847 -3.5482113 -5.7192783 -0.19785815 2.3887005
-0.12403424 -2.429069 -0.25061718 -0.24154176 0.5946202 -1.8106234 -1.2228775 2.5576499
-0.41135228 0.88607424 -1.8746082 1.6017814 -0.052530393 -3.6711514 -3.3527362 0.9326097
2.7640674 0.26930165 -0.49587855 0.6341999 -0.1839115 0.41235748 0.2164388 -2.568477
-0.49292168 1.5141382 -0.15993404 -4.120322 -0.079297334 -0.59260243 -0.8856729 -0.17192769
-1.8527749 -0.91293585 -0.41222847 -3.649768 -0.24748275 -0.13280174 -1.4268696 -2.4848948
2.1686697 -0.66681427 0.9484705 0.5835084 -5.4743032 1.7067978 -3.5577745 0.31527728
-0.061820723 -0.4035533 -5.1619997 -9.180993 -4.9075017 -6.1917 -1.2482094 -0.1523307
-0.17073901 -0.22764952 -5.59448 0.09004988 1.173001 -0.31801367 -0.13587213 -0.120631926
-0.17013316 -0.3730701 0.58169734 1.6394715 -2.485162 -0.63379717 -0.1300534 1.7667198
-2.0694988 -0.3771819 -0.08733135 0.43289816 -0.21206231 3.1368082 -0.16645248 -1.6544201
-0.14866255 -1.3421519 2.3072073 -1.3493627 -0.09028389 -2.3169878 -0.21756636 0.8555723
-0.11132763 0.36417165 -0.2582658 -0.24130158
00000000: a87a 8ac0 07ba aebd 37bf 4f3f 6afb 7dc0
00000010: e515 63c0 5404 b7c0 549b 4abe 78e0 1840
00000020: aa05 febd de75 1bc0 e550 80be b956 77be
00000030: 0839 183f 82c2 e7bf 4087 9cbf 89b0 2340
00000040: c49c d2be c3d5 623f 29f3 efbf 2c07 cd3f
00000050: 1c2a 57bd 25f4 6ac0 3b93 56c0 82bf 6e3f
00000060: 7be6 3040 e8e1 893e cbe3 fdbe ed5a 223f
00000070: 4c53 3cbe 8520 d33e 22a2 5d3e ed61 24c0
00000080: 3b60 fcbe 48cf c13f c0c5 23be aed9 83c0
00000090: a466 a2bd cbb4 17bf 76bb 62bf d00d 30be
000000a0: ba27 edbf 2ab6 69bf 9c0f d3be cd95 69c0
000000b0: 1e6c 7dbe 2efd 07be aaa3 b6bf 8408 1fc0
000000c0: 7ccb 0a40 57b4 2abf f6ce 723f ce60 153f
000000d0: 7e2d afc0 5a78 da3f 94b2 63c0 066c a13e
000000e0: ba37 7dbd 8a9e cebe 1a2f a5c0 59e5 12c1
000000f0: 410a 9dc0 6822 c6c0 53c5 9fbf 94fc 1bbe
00000100: 35d6 2ebe f51c 69be fb05 b3c0 126c b83d
00000110: e624 963f b0d2 a2be 1022 0bbe df0d f7bd
00000120: 6337 2ebe 0b03 bfbe 1eea 143f 34da d13f
00000130: e50c 1fc0 8840 22bf b82c 05be e023 e23f
00000140: ab72 04c0 fc1d c1be c7da b2bd d4a4 dd3e
00000150: dd26 59be 77c1 4840 8572 2abe 0ac4 d3bf
00000160: ff3a 18be a2cb abbf 49a9 1340 ebb7 acbf
00000170: c3e6 b8bd 8749 14c0 b7c9 5ebe c906 5b3f
00000180: beff e3bd b574 ba3e 6a3b 84be c317 77be

network.2.weight f4 [100, 100]
-0.45049742 0.86325556 -4.245177 -1.7239298 -0.9070254 -0.7037424 0.35860345 1.5107405
0.3742269 -3.5386 1.2841493 0.29036608 1.2491312 0.85612583 -1.0009388 1.4926934
2.9129705 -1.2091483 -5.266179 1.5925447 -2.226501 1.0328429 1.2801299 0.4110863
1.9672656 -0.7933569 0.043788973 1.2936957 1.6021857 -0.26692915 -0.5903347 -2.67481
-0.57132685 -3.6408553 1.4437889 -2.2144885 0.87616295 -2.5518007 -1.0938302 1.609008
-0.548818 0.4492099 -0.23240483 -2.6831954 0.15021494 1.1829282 -1.2076621 2.3753479
1.3620698 0.10689646 1.4024179 0.6387593 -3.7431273 -1.6671737 -0.80779773 0.41276917
-0.07171747 0.1410137 -3.2648616 2.055391 -4.189365 4.5478706 2.6992335 0.5247499
0.53949374 0.046074014 -0.34724557 -0.60885274 0.20471227 -0.6268768 0.7422285 0.5458222
-0.0014911277 4.3260155 -0.004184285 -1.4518377 -0.07071105 0.18020248 1.285829 2.1121604
-1.1012738 -0.6269401 0.9790863 -0.47084728 1.6189815 1.5536638 -0.122202806 -0.50845975
0.76831096 -1.0598814 0.44425285 -1.5277609 0.58219886 -1.8055638 0.749734 2.8643677
0.5006981 -0.7374279 0.999895 0.5933515 0.04222078 -0.25473258 -0.2673812 -0.14791805
-0.26758945 -0.03211756 -0.27736896 -0.23134753 -0.16516016 -0.20548975 -0.3133475 -0.15469962
-0.16485098 -0.26064438 -0.13086252 -0.31028378 -0.23513383 -0.1873463 -0.19648142 -0.30986464
-0.32148534 -0.15343013 -0.14573269 -0.13224557 -0.3268764 -0.24662994 -0.21299447 -0.17307675
-0.1368723 -0.1792191 -0.13948095 -0.27880064 -0.1891698 -0.29459456 -0.27718756 -0.3277464
-0.1779516 -0.24935721 -0.15875888 -0.13851346 -0.29997844 -0.27891368 -0.2576566 -0.18646021
-0.3031124 -0.27552256 -0.15341838 -0.31166595 -0.2789761 -0.16014981 -0.16261373 -0.1706144
-0.13947344 -0.20878722 -0.20899042 -0.21179101 -0.25959536 -0.21178232 -0.13281387 0.012759492
-0.16383666 -0.31622297 -0.20079237 -0.18540035 -0.14400885 -0.31551892 -0.23091489 -0.30576107
-0.17668277 -0.32621518 -0.31046066 -0.28395367 -0.27358013 -0.2257269 -0.24725655 -0.2964129
-0.25638035 -0.28010207 -0.31270114 -0.1518972 -0.27930033 -0.3105154 -0.27780923 -0.26108667
-0.26744255 -0.19033808 -0.24639869 -0.15918888 -0.2672152 -0.32358876 -0.1687253 -0.16002482
-0.145334 -0.24508765 -0.17341784 -0.3131275 -0.20143904 -0.3133421 -0.20576048 -0.21283299
-1.2954872 -0.28432488 -1.1540831 -1.307084 -1.008962 -0.055969536 -0.22399464 -0.94178605
-1.2498838 -0.82753855 -0.84173244 -0.25368345 -1.2754818 -1.4101039 -1.3787974 -1.3763487
-1.5052028 -0.93268454 -1.3854406 -0.8726254 -1.3913503 1.0018057 -0.3222326 -1.5316427
-0.8991448 -1.460043 -0.32513914 -0.9235078 -1.2771895 -0.9439507 -1.5052109 1.0502849
-1.5012027 -1.4140245 -1.2661511 -1.416096 -0.18252134 -1.5351696 -0.98954844 -1.3631202
-1.4837271 -0.8540041 -1.3770775 -1.3204081 -0.26396006 -1.3873458 -1.5033082 -1.263974
-1.3343008 -0.31659168 -0.8559064 -1.240602 -0.2615545 -0.936425 0.8947976 -1.362826
00000000: 99a7 e6be 51fe 5c3f 7dd8 87c0 bba9 dcbf
00000010: d132 68bf 7628 34bf df9a b73e f25f c13f
00000020: ab9a bf3e 6c78 62c0 015f a43f ddaa 943e
00000030: 88e3 9f3f 102b 5b3f c31e 80bf 9410 bf3f
00000040: 1c6e 3a40 5fc5 9abf 8a84 a8c0 81d8 cb3f
00000050: fe7e 0ec0 3234 843f 4cdb a33f e779 d23e
00000060: 5ccf fb3f 7019 4bbf 115c 333d d297 a53f
00000070: 6c14 cd3f f0aa 88be 2d20 17bf 1630 2bc0
00000080: 7a42 12bf c603 69c0 13ce b83f 2eba 0dc0
00000090: 374c 603f b450 23c0 a102 8cbf f9f3 cd3f
000000a0: 567f 0cbf d7fe e53e 88fb 6dbe 79b9 2bc0
000000b0: f2d1 193e 316a 973f ac94 9abf b305 1840
000000c0: 4e58 ae3f 88ec da3d 6e82 b33f bb85 233f
000000d0: 668f 6fc0 f365 d5bf d5cb 4ebf 7b56 d33e
000000e0: 9ce0 92bd e565 103e 7ef3 50c0 878b 0340
000000f0: 470f 86c0 2888 9140 3ec0 2c40 0256 063f
00000100: 431c 0a3f 1bb8 3c3d 2cca b1be c6dd 1bbf
00000110: 18a0 513e ff7a 20bf b002 3e3f 01bb 0b3f
00000120: f171 c3ba b86e 8a40 541c 89bb d1d5 b9bf
00000130: f4d0 90bd 0087 383e 0b96 a43f a32d 0740
00000140: 8af6 8cbf 257f 20bf 66a5 7a3f e512 f1be
00000150: c93a cf3f 75de c63f 7745 fabd 6b2a 02bf
00000160: 07b0 443f 32aa 87bf 1c75 e33e ab8d c3bf
00000170: fc0a 153f b71c e7bf 91ee 3f3f cd51 3740
00000180: c02d 003f 13c8 3cbf 1ef9 7f3f e2e5 173f
00000190: b2ef 2c3d 4f6c 82be 30e6 88be d477 17be
000001a0: 7c01 89be b48d 03bd 4e03 8ebe 5ee6 6cbe
000001b0: bf1f 29be e86b 52be 156f a0be 9469 1ebe
000001c0: b2ce 28be 2e73 85be d300 06be 84dd 9ebe
000001d0: ecc6 70be b5d7 3fbe 6d32 49be 94a6 9ebe
000001e0: ba99 a4be ca1c 1dbe f33a 15be 626b 07be
000001f0: 585c a7be 8f8c 7cbe 391b 5abe 083b 31be
00000200: 4128 0cbe 3685 37be 18d4 0ebe f5be 8ebe
00000210: bab5 41be 19d5 96be 87eb 8dbe 60ce a7be
00000220: f238 36be 7f57 7fbe b091 22be 79d6 0dbe
00000230: c696 99be c6cd 8ebe 91eb 83be 6def 3ebe
00000240: 8c31 9bbe 4b11 8dbe b519 1dbe ae92 9fbe
00000250: f5d5 8ebe 50fe 23be 3784 26be 8bb5 2ebe
00000260: 20d2 0ebe 51cc 55be 9601 56be bedf 58be
00000270: afe9 84be 77dd 58be 5c00 08be 300d 513c
00000280: ccc4 27be fae7 a1be 849c 4dbe 97d9 3dbe
00000290: 0e77 13be b28b a1be f474 6cbe b78c 9cbe
000002a0: 54ec 34be ad05 a7be b3f4 9ebe 6062 91be
000002b0: b212 8cbe f424 67be d230 7dbe 6ec3 97be
000002c0: 4944 83be 8a69 8fbe 5d1a a0be f18a 1bbe
000002d0: 7400 8fbe e0fb 9ebe 033d 8ebe 27ad 85be
000002e0: 3bee 88be fce7 42be f04f 7cbe 6902 23be
000002f0: 6ed0 88be 6dad a5be 53c6 2cbe 8cdd 23be
00000300: 70d2 14be 42f8 7abe 7294 31be 3f52 a0be
00000310: 0946 4ebe 606e a0be e0b2 52be e4f0 59be
00000320: 86d2 a5bf 0893 91be ffb8 93bf 874e a7bf
00000330: ab25 81bf 5040 65bd da5e 65be e418 71bf
00000340: 31fc 9fbf 91d9 53bf c77b 57bf cce2 81be
00000350: fd42 a3bf 497e b4bf 6f7c b0bf 322c b0bf
00000360: 7caa c0bf 6ac4 6ebf 1e56 b1bf 6164 5fbf
00000370: c417 b2bf 2b3b 803f acfb a4be de0c c4bf
00000380: 5b2e 66bf b0e2 babf a378 a6be 026b 6cbf
00000390: f27a a3bf c1a6 71bf c0aa c0bf bc6f 863f
000003a0: 6927 c0bf c1fe b4bf 3d11 a2bf a242 b5bf
000003b0: e0e6 3abe 7080 c4bf 0c53 7dbf b97a aebf
000003c0: c5ea bdbf 03a0 5abf 1344 b0bf 2203 a9bf
000003d0: c625 87be 8c94 b1bf 676c c0bf e6c9 a1bf
000003e0: 5eca aabf 4e18 a2be af1c 5bbf 0ccc 9ebf
000003f0: 79ea 85be 8cb9 6fbf 7511 653f 1571 aebf

network.2.bias f4 [100]
1.9868718 -0.18713573 -1.2681503 0.44653472 -2.0134718 -0.12932241 3.7070448 2.9936337
-0.1881496 -0.27885616 1.9723514 2.7408416 -0.1442691 0.7152026 4.730814 3.0928028
-0.2535168 0.66358423 0.84971786 -0.30534467 -0.18318057 1.7965106 -0.15916713 -0.2968426
7.462596 -0.15092386 3.1545627 -0.3197325 0.17950119 -1.5611813 1.783503 0.23943213
-1.4149764 0.9133189 -0.2183838 -0.28094998 -0.14127298 -3.4696462 2.3307507 -1.3686724
1.0173495 -4.419136 -0.14443074 -2.7666123 5.3537498 -0.1950593 5.9117703 3.3911963
4.088969 -0.21371454 4.9110556 -0.18235327 -1.9672428 -0.23877457 1.4437273 2.3149498
-5.0266194 4.545736 5.1857624 2.6510735 4.2540727 -0.1904931 -1.4840801 6.0145664
0.7579581 -0.26402318 -0.23742722 2.8221643 -0.2795842 -0.27037856 -0.26980707 3.0074916
1.7271776 1.9041797 -1.9127893 -0.18418117 -0.12927675 6.9567814 -0.22784318 -2.8013535
-0.15195283 1.037445 -0.15383391 -0.3289443 -0.65279114 -3.1118362 -0.26762816 7.8263993
1.5408508 0.61357665 5.3025284 -0.6296521 3.2463117 3.203018 -0.20903134 -0.22536415
-0.6855525 -0.24004988 -0.96841586 0.30107763
00000000: d151 fe3f 82a0 3fbe c052 a2bf 33a0 e43e
00000010: b9dc 00c0 186d 04be 3940 6d40 b297 3f40
00000020: 4aaa 40be 3cc6 8ebe 0376 fc3f f369 2f40
00000030: 47bb 13be 8517 373f d462 9740 7bf0 4540
00000040: f4cc 81be a8e0 293f 1c87 593f 2356 9cbe
00000050: b093 3bbe 0ff4 e53f b5fc 22be c1fb 97be
00000060: 96cd ee40 c98b 1abe 5be4 4940 fab3 a3be
00000070: 29cf 373e cad4 c7bf d449 e43f b22d 753e
00000080: f21d b5bf 44cf 693f 01a0 5fbe add8 8fbe
00000090: dda9 10be af0e 5ec0 052b 1540 a830 afbf
000000a0: 8238 823f 9069 8dc0 a7e5 13be 2d10 31c0
000000b0: eb51 ab40 a0bd 47be 392d bd40 5c09 5940
000000c0: d6d8 8240 fcd7 5abe 5e27 9d40 d1ba 3abe
000000d0: 9dce fbbf 5281 74be 0ecc b83f 2328 1440
000000e0: 11da a0c0 ab76 9140 c4f1 a540 30ab 2940
000000f0: 5d21 8840 a010 43be 56f6 bdbf 5477 c040
00000100: 8b09 423f 0c2e 87be 1f20 73be 579e 3440
00000110: a925 8fbe 0f6f 8abe 2724 8abe be7a 4040
00000120: 2814 dd3f 29bc f33f 48d6 f4bf fd99 3cbe
00000130: 2061 04be f49d de40 b94f 69be 6049 33c0
00000140: 8699 1bbe ffca 843f a386 1dbe 636b a8be
00000150: 521d 27bf 5328 47c0 8f06 89be dd71 fa40
00000160: 993a c53f 5c13 1d3f 50ae a940 e130 21bf
00000170: 92c3 4f40 3ffe 4c40 500c 56be dcc5 66be
00000180: 5e80 2fbf a3cf 75be 1aea 77bf d926 9a3e

network.4.weight f4 [3, 100]
0.7188218 -0.26983082 0.8440454 0.51393974 0.76286185 -0.16550948 0.12396553 1.132798
-0.2288787 -0.18281864 -0.2942194 0.9811623 0.23991816 -0.7756019 -1.5749091 0.26138946
-0.1881881 -0.69676304 0.6279722 -0.3242676 -0.14234836 -0.009208882 -0.2734112 -0.23494172
-0.15850377 0.3071331 -0.6218843 -0.20434853 -0.84731364 -0.19954406 -1.0017486 -0.559339
0.8941519 0.44905874 -0.30547193 -0.19061062 -0.1608057 -0.6384232 0.11808513 1.6126409
0.9824083 -0.6049059 0.25888136 0.049016416 -0.31834847 -0.24410036 0.31156227 -0.047245994
-1.7600126 -0.16574961 -0.4537381 0.3240176 0.05865605 0.061519235 -0.43109617 -0.29077637
-0.37400255 0.54123425 -0.23744212 -0.48597056 0.38538793 -0.13734984 -0.032084905 -0.42171177
0.32313862 -0.18515505 -0.14844511 1.5174228 0.22420421 -0.16177055 -0.17033154 -1.9074286
1.1340503 -1.8541974 0.59389216 -0.14450672 0.12718129 -0.06804022 0.12897378 -0.72125524
-0.28680122 0.44692358 0.13068263 0.20851754 0.679558 0.61661345 0.2836678 -0.29624417
1.9554825 -0.025347516 0.15979035 0.4984168 -0.94469154 1.4764123 -0.18961965 0.19010365
0.539288 1.0489006 0.14632781 0.55476576 1.1361973 0.23287235 1.3679471 1.1296216
-0.18403699 -0.31988743 -0.5640226 0.21718155 -0.19667104 -0.12948287 2.0919933 -1.4070241
-0.213965 1.3560739 -1.0109583 0.5242599 0.28146598 -0.10945651 0.0434172 0.3097247
0.28079575 -1.6286787 -0.14254324 0.27876776 0.06619275 -0.23215373 -0.49153543 -0.27545753
0.99932534 0.26082766 1.2458819 0.4550431 1.2314662 0.3724604 -0.22213478 -0.1824344
-0.13291454 0.31810784 -0.28417796 -0.3384629 0.10994397 0.18710488 -0.17067826 -0.079306304
-0.2944995 -0.24634658 -0.058536343 -1.5408474 -1.0623106 -0.13057263 0.10795843 -0.21879676
-0.62114346 0.233953 -0.050627206 0.06553569 -1.0980072 -0.7292486 0.008652773 0.1505865
0.09747123 -0.23920706 -0.34938186 1.4389099 -0.4620859 0.30797645 0.2520425 -0.030213764
-0.31610626 -0.2562248 -0.2036038 -0.26052037 -0.6490663 0.16773231 0.12655884 -0.16521092
-0.12669215 -0.12703001 -0.3091408 0.73400444 0.257815 0.5426269 0.063875034 0.53231674
-0.80791575 -0.6720928 -0.23739067 0.21844015 -0.13227984 0.7352145 -1.4228307 -0.31278658
-1.0406607 0.68175715 0.2702464 -0.13485554 -0.40688896 -1.3105925 0.011032796 -0.15294866
-0.07429855 0.14157227 1.2999072 0.47014984 -0.3423607 0.16505793 -0.08707572 0.6769169
0.17365125 0.1557124 0.28117296 0.14248866 0.15734302 -0.25084284 0.59850955 0.22466397
0.206255 0.1273238 0.31136695 0.17357695 0.22629485 0.109978154 0.14119461 0.16609183
1.6014683 0.15502656 0.04021256 0.20608072 -0.12417965 -0.67879844 0.04156186 -0.18994546
-1.0481751 -0.09392296 0.15619819 0.20175156 0.19358769 -0.49197912 0.35801637 -1.4119762
-0.28613245 -0.9159202 0.20896897 -0.8774221 0.33385658 0.14057122 1.59193 0.13452078
0.34018046 0.21360157 0.14526527 0.13454491 -0.38332936 -0.09067001 -0.39290297 0.8253116
00000000: b504 383f 4427 8abe 5c13 583f 8e91 033f
00000010: ea4a 433f 517b 29be a4e1 fd3d 86ff 903f
00000020: 2e5f 6abe cf34 3bbe eda3 96be 742d 7b3f
00000030: 1bad 753e d98d 46bf 9f96 c9bf d7d4 853e
00000040: 62b4 40be 105f 32bf c9c2 203f 6706 a6be
00000050: c5c3 11be dae0 16bc 8efc 8bbe 9094 70be
00000060: d04e 22be 8d40 9d3e cf33 1fbf be40 51be
00000070: 8ce9 58bf 4755 4cbe 4c39 80bf d730 0fbf
00000080: 24e7 643f 07eb e53e d166 9cbe 6e2f 43be
00000090: 40aa 24be b46f 23bf 9ed6 f13d 046b ce3f
000000a0: 1c7f 7b3f 1ddb 1abf 198c 843e 70c5 483d
000000b0: 92fe a2be 72f5 79be 1785 9f3e 0485 41bd
000000c0: 1848 e1bf 44ba 29be 5c50 e8be a3e5 a53e
000000d0: 5441 703d 98fb 7b3d a3b8 dcbe a4e0 94be
000000e0: 437d bfbe 548e 0a3f 0724 73be 22d1 f8be
000000f0: 9151 c53e 70a5 0cbe 766b 03bd 9bea d7be
00000100: 6d72 a53e 4999 3dbe ff01 18be e93a c23f
00000110: ca95 653e 2ea7 25be 646b 2ebe 9f26 f4bf
00000120: 8f28 913f 5756 edbf 5109 183f 92f9 13be
00000130: d03b 023e ac58 8bbd b411 043e 2fa4 38bf
00000140: 9cd7 92be 2bd3 e43e abd1 053e 9f85 553e
00000150: 83f7 2d3f 61da 1d3f e83c 913e 51ad 97be
00000160: 404d fa3f 98a5 cfbc 15a0 233e 7d30 ff3e
00000170: 4ed7 71bf 14fb bc3f a72b 42be 88aa 423e
00000180: c70e 0a3f 6042 863f f5d6 153e 2105 0e3f
00000190: ea6e 913f 1776 6e3e e418 af3f 7197 903f
000001a0: 3174 3cbe 49c8 a3be c963 10bf d764 5e3e
000001b0: 2264 49be 2897 04be 38e3 0540 5e19 b4bf
000001c0: a419 5bbe d493 ad3f 1567 81bf e635 063f
000001d0: 4f1c 903e bc2a e0bd 3cd6 313d 3c94 9e3e
000001e0: 76c4 8f3e 8b78 d0bf dbf6 11be a6ba 8e3e
000001f0: 1190 873d b5b9 6dbe 88aa fbbe c508 8dbe
00000200: c9d3 7f3f 348b 853e 0f79 9f3f 69fb e83e
00000210: afa0 9d3f 21b3 be3e 4d77 63be 15d0 3abe
00000220: c01a 08be 08df a23e c67f 91be 024b adbe
00000230: 4e2a e13d 6c98 3f3e 48c6 2ebe 586b a2bd
00000240: a3c8 96be 4742 7cbe cec3 6fbd 7d3a c5bf
00000250: cbf9 87bf d5b4 05be 4f19 dd3d 420c 60be
00000260: 4203 1fbf 6091 6f3e 795e 4fbd 9337 863d
00000270: 808b 8cbf 09b0 3abf 5cc4 0d3c 5933 1a3e
00000280: ff9e c73d b2f2 74be 2ee2 b2be 332e b83f
00000290: 8696 ecbe 17af 9d3e b70b 813e db82 f7bc
000002a0: aed8 a1be e62f 83be 847d 50be ed62 85be
000002b0: 3629 26bf 05c2 2b3e a498 013e 0d2d 29be
000002c0: 96bb 01be 2814 02be b447 9ebe b7e7 3b3f
000002d0: 5400 843e 99e9 0a3f ead0 823d e945 083f
000002e0: 91d3 4ebf 460e 2cbf 8a16 73be c6ae 5f3e
000002f0: 5e74 07be 0437 3c3f 511f b6bf 9025 a0be
00000300: 5f34 85bf a387 2e3f bc5d 8a3e 9217 0abe
00000310: c053 d0be 7fc1 a7bf e7c2 343c 939e 1cbe
00000320: d729 98bd 52f8 103e 5c63 a63f 7bb7 f03e
00000330: e749 afbe f204 293e c154 b2bd 6d4a 2d3f
00000340: a2d1 313e 1273 1f3e e7f5 8f3e 8ce8 113e
00000350: 871e 213e 796e 80be ec37 193f 500e 663e
00000360: 8334 533e 2c61 023e 7d6b 9f3e 28be 313e
00000370: d6b9 673e 3a3c e13d 5295 103e fa13 2a3e
00000380: eafc cc3f 48bf 1e3e edb5 243d d306 533e
00000390: e651 febd bcc5 2dbf c53c 2a3d 1081 42be
000003a0: 9a2a 86bf ae5a c0bd 6bf2 1f3e f697 4e3e
000003b0: da3b 463e b0e4 fbbe ec4d b73e a3bb b4bf
000003c0: f47f 92be bf79 6abf f6fb 553e bc9e 60bf
000003d0: 40ef aa3e e7f1 0f3e 5dc4 cb3f d1bf 093e
000003e0: 222c ae3e 5fba 5a3e 6bc0 143e 24c6 093e
000003f0: bf43 c4be 33b1 b9bd 942a c9be 9f47 533f

network.4.bias f4 [3]
0.40640834 0.22343604 10.504182
00000000: c114 d03e 6bcc 643e 2111 2841
