output/best_fm/20190227_221325/20190227_221325_model_model.pt (torch_old, 23537 bytes, 6 tensors)

network.0.weight f4 [71, 3]
0	0x3f08946e	0.53351486
1	0xc020dfb5	-2.513654
2	0xc1529ab8	-13.162773
3	0x3d99b32a	0.07504876
4	0x3bf18c2e	0.007371447
5	0x3d34408e	0.044006877
6	0xbcea2df8	-0.028586373
7	0x3cf8fd96	0.030394357
8	0xbb95f545	-0.0045763575
9	0xc0457c49	-3.0857108
10	0x4002c4e4	2.0432673
11	0xbe566168	-0.20935595
12	0xc08bca87	-4.3684726
13	0x40351a31	2.8297236
14	0x40248943	2.5708778
15	0x3bd3192e	0.0064422106
16	0xc03427a1	-2.8149188
17	0xc07c7d97	-3.9451654
18	0x40baa35f	5.8324428
19	0x40955eb0	4.6678085
20	0x40684958	3.6294765
21	0xbdc947fb	-0.09828182
22	0x40ca0a45	6.3137536
23	0x40c25e2a	6.0739946
24	0x3b21592b	0.0024619799
25	0xbdfa75b4	-0.12229481
26	0x3e21b533	0.15791778
27	0x404e870a	3.2269921
28	0x40047788	2.0697956
29	0x3fc99a50	1.5750217
30	0xbe213414	-0.15742522
31	0x3f25efa2	0.64818776
32	0x3e7a770a	0.24459472
33	0x3cd1d617	0.025614781
34	0xbf59aa00	-0.85025024
35	0x4071f5f8	3.7806377
36	0x3f95e6e9	1.1711093
37	0xc0248350	-2.5705147
38	0xc0cac955	-6.3370767
39	0x3c939511	0.018015416
40	0xbd934916	-0.071916744
41	0x3d720147	0.05908325
42	0x3ee53637	0.44767925
43	0xc08d12c2	-4.40854
44	0xbdff15c9	-0.12455327
45	0x404f876c	3.2426405
46	0xc004e264	-2.0763178
47	0xbe82fc41	-0.2558308
48	0x3d0c5e9f	0.034269925
49	0xbc55d012	-0.013050096
50	0x3e3f1e43	0.18663888
51	0xbdc6212f	-0.09674298
52	0xc1022025	-8.132848
53	0xbd813528	-0.06308967
54	0x40247519	2.569647
55	0xbfa5065b	-1.2892565
56	0xbfaf67e7	-1.3703583
57	0xc04c614b	-3.1934383
58	0xc00218ec	-2.032771
59	0x3e041766	0.12899551
60	0xbcf3dc70	-0.029768199
61	0x40c6062a	6.1882524
62	0x40c18588	6.04755
63	0xc0c39e1e	-6.1130514
64	0xc06c2e2c	-3.690318
65	0xc09ff8c0	-4.999115
66	0xbcb83d16	-0.022490066
67	0x406d6bc1	3.7097018
68	0x4037d751	2.8725169
69	0xbd65a2ca	-0.05606345
70	0xbd1812ee	-0.037127428
71	0x3c14c7bf	0.009080826
72	0x3c509283	0.012730244
73	0xc0be94fe	-5.9556875
74	0x3d1df77d	0.0385661
75	0x407ea3be	3.978744
76	0xbffda444	-1.9815755
77	0xbd8211f5	-0.06351081
78	0xbdde050e	-0.10840808
79	0x3f806a92	1.0032523
80	0xbd7e366c	-0.06206362
81	0xbd159cc6	-0.036526464
82	0xbd321af9	-0.043482754
83	0xbc6749fa	-0.0141167585
84	0x3e9da6a4	0.307912
85	0x4102ae85	8.167607
86	0x40c99bb6	6.3002577
87	0xc07f193f	-3.985916
88	0x402bcb91	2.6842997
89	0x400f77c8	2.2416859
90	0x3c96fad7	0.018430157
91	0xbd8c6bf9	-0.06856532
92	0x3d1768e5	0.03696527
93	0x3c396bd8	0.011317216
94	0xbcbee07f	-0.023300407
95	0x3c7d61cc	0.015465211
96	0x3d302025	0.042999405
97	0xc0876feb	-4.232412
98	0xba30a450	-0.00067383517
99	0xbb2e7cf9	-0.0026624782
100	0xbe16d47d	-0.14729495
101	0x3e2e19f7	0.17002092
102	0xc0f3cb62	-7.618577
103	0xc04323ca	-3.0490594
104	0xbecc922a	-0.39955264
105	0xbeaa4102	-0.33252722
106	0x3d9e4e00	0.07729721
107	0xbe30fb14	-0.17283279
108	0xbe2821cc	-0.16419142
109	0x3d38433f	0.044986006
110	0xbd0187ce	-0.031623654
111	0x3c0001b9	0.007812911
112	0x40b1e53e	5.5592337
113	0x40a466d5	5.1375527
114	0x3cf29972	0.029614184
115	0xc10399ff	-8.225097
116	0xc0e01dfe	-7.003661
117	0x40c5bf4f	6.179603
118	0xc02d38bd	-2.706588
119	0x3e6c46aa	0.23073831
120	0xc0a3d0a0	-5.119217
121	0x4047281b	3.1118228
122	0x4044d425	3.0754483
123	0xbca2ba65	-0.01986427
124	0x3e91e48e	0.28494686
125	0x3db6d97e	0.08928202
126	0xbda0035b	-0.0781314
127	0xbefbce24	-0.4918071
128	0x40869bd6	4.206523
129	0xbc8293eb	-0.015939673
130	0xbdbb999d	-0.09160159
131	0xbcaa4c4e	-0.020788338
132	0x3fad4015	1.3535181
133	0xbebe0af3	-0.3711773
134	0xbf99e88b	-1.2024091
135	0x3db106de	0.08643888
136	0xc0ac6ee4	-5.3885365
137	0xc0769257	-3.8526819
138	0xbd32729b	-0.043566328
139	0xc042ad05	-3.0418103
140	0xc04f375b	-3.2377536
141	0xbd5b94ae	-0.05360859
142	0x4061dbf3	3.5290496
143	0x40467eea	3.1014962
144	0xc10ca8aa	-8.791178
145	0x40adbca6	5.4292784
146	0x4078f763	3.8900993
147	0x3d24337b	0.040088158
148	0x3ead79a0	0.33881855
149	0x3dcfc52c	0.101450294
150	0xbe01c9b4	-0.126746
151	0x3e306804	0.17227179
152	0x3f18dbb6	0.5971025
153	0xc08bb03d	-4.3652635
154	0xc00963a0	-2.1467056
155	0xbd4cb857	-0.049980488
156	0xbbac0585	-0.0052496814
157	0xbd7a037f	-0.06103849
158	0x3d631362	0.055438407
159	0x3ccf64ce	0.025316622
160	0x401d4df2	2.4578824
161	0xbfe00280	-1.7500763
162	0x3fad8592	1.3556387
163	0x40849b6b	4.143972
164	0x404ee48c	3.2326994
165	0xbe064b6e	-0.13114712
166	0x3d666b11	0.05625445
167	0xbe024fd7	-0.12725769
168	0x409ebb37	4.9603534
169	0x4060cf1f	3.5126417
170	0x405ec0de	3.4805217
171	0x3fefe1cc	1.8740783
172	0x3f8bd803	1.0925297
173	0x3f7c6ab3	0.9860031
174	0xbeeccafc	-0.46248615
175	0xc073f7fd	-3.812011
176	0xbd9d5f58	-0.07684201
177	0xbd6b2fd1	-0.05741865
178	0xbdebce67	-0.115139775
179	0x3d25d667	0.040487673
180	0xbd3e4dc5	-0.046460886
181	0xbd6e347c	-0.05815552
182	0x3d52dcc4	0.05148007
183	0x40f98858	7.7978935
184	0xc0626124	-3.537179
185	0xbfd236f6	-1.6423023
186	0xc0235bfa	-2.5524888
187	0xbfddca36	-1.7327335
188	0xbfb91d66	-1.4462097
189	0x406ec753	3.7309158
190	0x3f862402	1.0479739
191	0xbfd52874	-1.665297
192	0xbb528cc2	-0.0032127355
193	0xbfa95d0c	-1.3231521
194	0xbbdb897b	-0.0066997386
195	0xbf8bef14	-1.0932336
196	0xbe3f945f	-0.18708943
197	0x3dde3dc6	0.10851626
198	0xbb1000d4	-0.002197315
199	0x40c9e479	6.3091397
200	0x3d4a447b	0.049381714
201	0x40d6fb0e	6.7181463
202	0x40addbd2	5.4330835
203	0x40590778	3.3910809
204	0x3e377bd5	0.17918332
205	0xbe4c8625	-0.19973047
206	0xbe9de7cc	-0.3084091
207	0x408ad76d	4.338797
208	0x404a8420	3.1643143
209	0x403b65ec	2.9280958
210	0xbeac08c3	-0.33600435
211	0xc0456fb5	-3.084943
212	0xc0fa3fe9	-7.8203015

network.0.bias f4 [71]
0	0xc1957486	-18.681896
1	0xbe64a747	-0.22329436
2	0xbe07d5cd	-0.13265152
3	0xc055a8bf	-3.3384244
4	0xc0a720f4	-5.2227726
5	0xbfeb46c9	-1.8380977
6	0xc1422fe0	-12.136688
7	0xc1064a92	-8.393206
8	0xbf1bc8e1	-0.6085339
9	0xbeb7ef33	-0.35924682
10	0xbfd81853	-1.6882423
11	0x40e89ad2	7.268899
12	0xc0f90317	-7.781627
13	0xbe83d971	-0.25751832
14	0xbf6199be	-0.88125217
15	0x3f69f2e8	0.9138627
16	0xbec37495	-0.38174883
17	0xc120d03a	-10.050837
18	0x4088de24	4.277117
19	0xbe6d54a9	-0.23176827
20	0xc147be5d	-12.483975
21	0xc1503021	-13.01175
22	0x408c0b73	4.3763976
23	0xbe27380b	-0.16329972
24	0xc09f7cfd	-4.9840074
25	0xbf6d1f07	-0.9262547
26	0xc0067315	-2.100774
27	0xbe6c9a35	-0.231057
28	0xc194ebfe	-18.61523
29	0xc03c0bfa	-2.938231
30	0xbe4cabc5	-0.199874
31	0xbda9d3e5	-0.08292369
32	0x3fad4f7c	1.3539882
33	0xbf16e71e	-0.58946407
34	0xc0f43af3	-7.632196
35	0xbf70d616	-0.9407667
36	0xbf67e246	-0.9057964
37	0xc0658089	-3.5859702
38	0xc150bf3f	-13.046691
39	0xc0881713	-4.2528167
40	0xc1008a94	-8.033833
41	0xbf353193	-0.7077877
42	0xc085b28a	-4.1780443
43	0xbe66b718	-0.22530782
44	0xbf840849	-1.0315028
45	0xc08dd772	-4.4325495
46	0x3dd3b984	0.10338119
47	0x3fb67e0b	1.4257215
48	0xc192c22d	-18.344812
49	0xbf4f37c3	-0.8094446
50	0xbfb49cce	-1.4110353
51	0xc0171d24	-2.3611536
52	0xbe724a14	-0.23661071
53	0xc03c0099	-2.9375365
54	0xc0b7fa17	-5.7492785
55	0xbf2ed0bd	-0.6828726
56	0xc0f17fb7	-7.54684
57	0x3f23e716	0.64024484
58	0xbf52bcd3	-0.8231937
59	0xbecafe50	-0.3964715
60	0xbe86ffa3	-0.2636691
61	0xc14cd0b9	-12.800958
62	0x3fa0a5e6	1.2550628
63	0xc08637f9	-4.1943326
64	0x4005a7a4	2.088357
65	0x3db9df51	0.09075797
66	0xc0a8bb6f	-5.27288
67	0xc1859ec6	-16.702526
68	0xbf9585fb	-1.1681513
69	0xc088bfcd	-4.273413
70	0xc1058317	-8.344504

network.2.weight f4 [71, 71]
0	0xc283eca0	-65.96216
1	0xbfcb2061	-1.5869256
2	0xbd9660cb	-0.073426805
3	0xc0e0a101	-7.019654
4	0xc0f24422	-7.570817
5	0x4083435e	4.1019735
6	0xc072f824	-3.7963953
7	0xc08ff376	-4.4984694
8	0xbf39789f	-0.7244968
9	0xc06132b1	-3.518719
10	0x3f3bca1e	0.7335528
11	0x40460d4b	3.0945613
12	0xc156affb	-13.417964
13	0xbe8ebfbd	-0.2788066
14	0xbe409a80	-0.18808937
15	0xbf7c3b45	-0.9852794
16	0x3cabc4d5	0.02096788
17	0xbbe21a40	-0.006900102
18	0x404c1baa	3.1891885
19	0x405d1f0c	3.45502
20	0x3ff279d0	1.8943424
21	0xc1ddb1b1	-27.711763
22	0xc0978217	-4.73463
23	0xbe3bf3c3	-0.18354706
24	0x400f041b	2.2346256
25	0xc04d0bb2	-3.2038388
26	0x3f11d961	0.5697232
27	0xbeaf3148	-0.34217286
28	0x3f773664	0.9656737
29	0xbf6a7bf1	-0.9159537
30	0xbe4b655f	-0.19862889
31	0xbe12a88b	-0.14322107
32	0xbf2aee83	-0.6677019
33	0xbd0f82d9	-0.035036895
34	0x3e294864	0.16531521
35	0x3d32d721	0.043662194
36	0xbd8b50ad	-0.06802497
37	0xbdf93b5e	-0.121695265
38	0xc104ee67	-8.308204
39	0x3ed284f8	0.41117072
40	0x40785df2	3.880734
41	0x3eca18b8	0.39471984
42	0xc003fed9	-2.0624297
43	0xbf2dd0ed	-0.6789692
44	0xc12fe16a	-10.992533
45	0xc02916cd	-2.6420166
46	0xc0c8bb3a	-6.272855
47	0xbe8408ec	-0.25788057
48	0x41d9d53f	27.229124
49	0xbcf44630	-0.029818624
50	0xbfdb5de2	-1.7138026
51	0xc05cef91	-3.452122
52	0xbf9e653d	-1.2374645
53	0xc261c94f	-56.44659
54	0xbf306828	-0.6890893
55	0x3fa94b2c	1.3226066
56	0xc0d95f93	-6.792917
57	0xc03f0db1	-2.9852107
58	0xc0262cb7	-2.5964792
59	0xbdc5fc77	-0.096672945
60	0xbdeba473	-0.115059756
61	0xc238a268	-46.1586
62	0xbffcfe87	-1.9765176
63	0xc23fe3fe	-47.97265
64	0x3f5d4e57	0.8644766
65	0x3fe76019	1.8076202
66	0x3fdc16b0	1.7194424
67	0xc08eaf63	-4.4589095
68	0xbef841ce	-0.48487705
69	0xc2ae985b	-87.29757
70	0xc0615e17	-3.5213678
71	0xbf0d5f4e	-0.5522355
72	0xbf208dc2	-0.62716305
73	0xbf0ce105	-0.5503085
74	0xbf0627d1	-0.52404505
75	0xbef70674	-0.4824711
76	0xbef20df8	-0.47276282
77	0xbf0a9c6a	-0.5414492
78	0xbdca6b36	-0.0988373
79	0xbf02432a	-0.50883734
80	0xbef3d7d1	-0.47625592
81	0xbf130570	-0.5743017
82	0xbf09dd36	-0.53853166
83	0xbeceab75	-0.40365186
84	0xbd26a88c	-0.040688083
85	0xbf22b91f	-0.6356372
86	0xbf1b4326	-0.60649335
87	0xbedb0f4f	-0.42785117
88	0x3dce9a88	0.10088068
89	0xbf1654c2	-0.5872308
90	0x3cd88c30	0.026434034
91	0xbf07bc60	-0.5302181
92	0xbf07a9b4	-0.5299332
93	0xbef0ac8b	-0.4700664
94	0xbf1795e2	-0.5921308
95	0x3d95d4fa	0.07316013
96	0xbf0df503	-0.55451983
97	0xbf1379a4	-0.57607484
98	0xbed36c27	-0.4129345
99	0x3d88a5a6	0.0667222
100	0xbef217a8	-0.47283673
101	0xbefcfca9	-0.49411514
102	0xbedb1af2	-0.42793995
103	0xbef412f9	-0.47670725
104	0xbef19548	-0.47184205
105	0xbef5b03f	-0.47986028
106	0xbf14cd05	-0.58125335
107	0xbf062edf	-0.5241527
108	0xbb91e310	-0.004452117
109	0xbedcedee	-0.43150276
110	0xbf2072e2	-0.626753
111	0x3c712e30	0.014720485
112	0xbf174934	-0.59096074
113	0xbf103a63	-0.5633909
114	0xbef60364	-0.48049462
115	0xbee4a76c	-0.44658983
116	0xbde633d9	-0.11240358
117	0xbed826ba	-0.42217046
118	0xbefb696c	-0.49103868
119	0xbf08b84f	-0.5340623
120	0xbf0a9273	-0.54129714
121	0xbefc9d3e	-0.49338716
122	0xbee7e674	-0.4529301
123	0xbefa5aa1	-0.4889727
124	0xbf213967	-0.62978214
125	0xbc4bac78	-0.0124312565
126	0xbf214890	-0.63001347
127	0xbefae0ae	-0.48999542
128	0xbf12efb2	-0.57396996
129	0xbf21ed9a	-0.63253176
130	0xbf078584	-0.52938104
131	0xbf1acba9	-0.6046701
132	0xbf1858a0	-0.5951023
133	0xbefd8bb4	-0.49520648
134	0xbf150163	-0.5820524
135	0xbf070910	-0.52748203
136	0x3db3bcc8	0.087762415
137	0xbf050062	-0.5195371
138	0x3c91e530	0.01780948
139	0xbedf3dc9	-0.43601826
140	0xbeeaafb1	-0.45837167
141	0xbee223ac	-0.4416784
142	0x40ebb4c4	7.365816
143	0x3ffed7ea	1.9909642
144	0xbf02d69d	-0.51108724
145	0xc0bbd7e4	-5.870104
146	0xbf19156e	-0.59798324
147	0x400e4328	2.222849
148	0xc33c768f	-188.46312
149	0xc0ed6fd0	-7.419899
150	0x3e84ccfb	0.25937638
151	0xc0487665	-3.1322262
152	0x3f0c23e2	0.5474225
153	0xc094f654	-4.6550694
154	0xc002b037	-2.0420053
155	0x3eb7847d	0.35843268
156	0xc048d8d9	-3.1382353
157	0x3fbe4ef4	1.4867845
158	0x3f2ede29	0.6830774
159	0x400806a5	2.1254056
160	0x40a0bb68	5.0228767
161	0x40955297	4.666332
162	0xc203fc56	-32.99642
163	0x403fe409	2.9982932
164	0xc0f4e8b7	-7.6534076
165	0xbe2dc6a0	-0.169703
166	0x4008b729	2.1361792
167	0xc034d5c4	-2.8255472
168	0xbf127602	-0.57211316
169	0x3f47ed15	0.78096133
170	0xc0091d42	-2.1424108
171	0xbc163ce6	-0.009169793
172	0xbe8729bd	-0.2639903
173	0xbf065e86	-0.5248798
174	0x40901386	4.502383
175	0x3f3ace1b	0.7297074
176	0xc0fe51e3	-7.947496
177	0xbfc9fa4f	-1.5779513
178	0xbfb559fd	-1.4168087
179	0x414be316	12.742941
180	0x40583612	3.3783002
181	0xc082dc29	-4.089375
182	0xc10dbe16	-8.858908
183	0x3f13b704	0.57701135
184	0xc0eb8f70	-7.3612595
185	0x3f1ad880	0.604866
186	0x3f1a09b3	0.6017105
187	0xc10d0f26	-8.816198
188	0xbc106c11	-0.008814828
189	0x414dd711	12.865006
190	0xc2c981ac	-100.753265
191	0x3f358d8a	0.70919096
192	0xbf0c70ea	-0.54859793
193	0xbfda7a23	-1.7068523
194	0x3f985a1a	1.1902497
195	0x3f9a59a1	1.2058603
196	0xbfc6e0df	-1.5537375
197	0x4020cbbe	2.5124354
198	0xbf6bbce6	-0.9208511
199	0xc1095c62	-8.585054
200	0x3ff7eaae	1.9368494
201	0xbf3f399b	-0.74697274
202	0x3f3f1730	0.74644756
203	0x3f869cad	1.0516564
204	0xbf1e0c27	-0.61737293
205	0xc0c98a8f	-6.298164
206	0x3fc602aa	1.5469563
207	0x3e6716fc	0.22567362
208	0xbfc116d2	-1.5085089
209	0xbf966e6f	-1.1752452
210	0xbdf97e61	-0.12182308
211	0x401661d0	2.34972
212	0xc026de21	-2.6073077
213	0x41a215d4	20.260658
214	0x3f1f8c3e	0.6232337
215	0x3f3c606c	0.7358463
216	0x4082e01c	4.089857
217	0xc1369053	-11.410235
218	0xc05d4e5c	-3.4579077
219	0x3d1598f4	0.03652282
220	0x3fa815a6	1.3131607
221	0x3f7d7411	0.9900523
222	0xc05baa09	-3.4322531
223	0x3fc59ed0	1.5439091
224	0x3fc70f6e	1.5551584
225	0xc1e98731	-29.191011
226	0x3f0cc720	0.5499134
227	0xc0f18a6d	-7.5481477
228	0xbff241a9	-1.8926288
229	0x3f7b0111	0.980485
230	0x40d4f98d	6.6554627
231	0xc1199e4d	-9.601148
232	0xc150d96d	-13.053082
233	0x4073cbe8	3.8093204
234	0xbf634936	-0.88783586
235	0xc0193854	-2.394063
236	0x3f66da61	0.9017697
237	0xbf4a7d18	-0.7909713
238	0xc151907d	-13.097775
239	0x3ffa7002	1.9565432
240	0x3f9f4bed	1.2445046
241	0xc10ccbac	-8.799725
242	0xc0abaa23	-5.3645186
243	0x3f31500d	0.6926277
244	0x3f516a81	0.8180314
245	0xc0bcbc4c	-5.8979855
246	0x3f3511e6	0.70730436
247	0xc0e45bc3	-7.1362014
248	0x3fb9e775	1.452376
249	0x3f72dd13	0.9486858
250	0x3dd6b39b	0.10483476
251	0xc2a202e6	-81.00566
252	0xbfa193a1	-1.2623178
253	0xc23246e8	-44.569244
254	0x3f8a7781	1.081772
255	0xc0c614e1	-6.1900487

network.2.bias f4 [71]
0	0x40d8db5d	6.7767777
1	0xbf0ffd8c	-0.56246257
2	0xc0644b62	-3.567101
3	0x40bcc9c7	5.899631
4	0xbf2167fd	-0.630493
5	0x411ccd20	9.800079
6	0xc02d3472	-2.706326
7	0x41639d86	14.225958
8	0x3dd2e53a	0.10297628
9	0xbf185312	-0.59501755
10	0xc0d75894	-6.7295628
11	0xbf0388cc	-0.5138061
12	0xbf1738f3	-0.5907127
13	0xc110e3d6	-9.055624
14	0x412b3054	10.699299
15	0xbf81c24b	-1.0137419
16	0xc127ced3	-10.487994
17	0xc0af24f6	-5.473262
18	0x4126bb8a	10.420786
19	0xbf14065c	-0.57822204
20	0xc06839c1	-3.628525
21	0x4142f6aa	12.185221
22	0xbf1a4ef7	-0.6027674
23	0xc034ec21	-2.8269122
24	0xbf1d81b2	-0.61526024
25	0xbf03b7cd	-0.5145233
26	0xbef0f0a8	-0.47058606
27	0xc16d1507	-14.817634
28	0xc0a95554	-5.291666
29	0xbef25bcb	-0.47335657
30	0xbed5fb40	-0.4179325
31	0xc11845c0	-9.517029
32	0xc02be479	-2.6858199
33	0xbeebe193	-0.46070537
34	0x41886fee	17.054653
35	0x3eef50a7	0.4674122
36	0x3ffc0b97	1.9691037
37	0xbef74559	-0.48295096
38	0xbfead965	-1.8347594
39	0xc18668f1	-16.80124
40	0xbf3c9cc4	-0.73676705
41	0xbefdf06b	-0.49597487
42	0x410d5f50	8.83577
43	0xc068ebc0	-3.639389
44	0xc0bc30d7	-5.880962
45	0xbefca55f	-0.49344918
46	0x3df32af7	0.11873429
47	0xbfd536a3	-1.6657299
48	0x40b958a6	5.7920713
49	0xc01b02f2	-2.4220548
50	0xbe456f60	-0.19280767
51	0x41048ae0	8.283905
52	0x40e1db40	7.058014
53	0xbf1edff9	-0.62060505
54	0xc10183a5	-8.09464
55	0xbefa2ee5	-0.48863903
56	0xc0f84a12	-7.759042
57	0x3f9c8243	1.2227253
58	0xbf1edf9c	-0.6205995
59	0x404d6bfe	3.2097163
60	0xbf034bfb	-0.5128781
61	0x3f4f3e4b	0.80954427
62	0x40f23bc6	7.5697966
63	0x40cc3364	6.3812733
64	0xbf0315ba	-0.5120503
65	0xbf089c51	-0.5336352
66	0xc0ac6784	-5.387636
67	0xbf12ea86	-0.57389104
68	0xbee1e906	-0.44123095
69	0x40bef25e	5.967086
70	0xbee41813	-0.44549617

network.4.weight f4 [3, 71]
0	0xbf341b96	-0.7035459
1	0xbf02c893	-0.510873
2	0x3f15fa6c	0.5858524
3	0xbf47f6c8	-0.78110933
4	0xbf14472b	-0.57921094
5	0xbfc3ba72	-1.5291274
6	0xc00d85de	-2.2112956
7	0xbfbd8b63	-1.4808162
8	0x3e86de21	0.26341346
9	0x3ee5c29c	0.44875038
10	0x3f6e4973	0.93080825
11	0xbf213434	-0.6297028
12	0xbed45fae	-0.41479248
13	0xbd508e5a	-0.050917007
14	0xbf55ad3a	-0.8346745
15	0x400ab592	2.1673322
16	0x3f1563ee	0.58355606
17	0x3fb73342	1.4312518
18	0x3cc58e83	0.024115806
19	0xbf0bbe11	-0.54586893
20	0x3df908e1	0.12159897
21	0xbdb7c3be	-0.08972882
22	0xbf1a848e	-0.6035851
23	0xbfff8261	-1.9961663
24	0xbf117572	-0.5681983
25	0x3ef879b8	0.48530364
26	0x3efc52f4	0.49282038
27	0xbf6228f2	-0.8834373
28	0x3f589793	0.84606284
29	0xbef43793	-0.4769865
30	0xbf1aa7e8	-0.60412455
31	0x3f9a869b	1.2072328
32	0xbe20d6d7	-0.15706955
33	0xbed896f8	-0.4230268
34	0x3d9bf5a8	0.076152146
35	0xbdd739ff	-0.10509109
36	0x3edcad16	0.43100804
37	0xbf1ca9c9	-0.6119657
38	0x3fe997f5	1.8249499
39	0x3f5ce229	0.86282593
40	0xbf10a8c8	-0.5650754
41	0xbf1f13fc	-0.6213987
42	0x3ee020bd	0.43774977
43	0x3ec43c4c	0.38327253
44	0xbf0a8caf	-0.54120916
45	0xbefd4fe9	-0.4947503
46	0xc002aa3a	-2.0416398
47	0x3f3a3085	0.72730285
48	0xbeefcbf0	-0.4683528
49	0x3ddfd799	0.10929794
50	0x3f3ca915	0.736955
51	0xbfe7c7bb	-1.8107828
52	0x3e104238	0.1408776
53	0xbf207914	-0.6268475
54	0xbe08a4e3	-0.1334415
55	0xbf03de69	-0.51511246
56	0x3d966811	0.07344068
57	0xbdcbdf85	-0.09954742
58	0xbf0ce272	-0.5503303
59	0xbedec496	-0.43509358
60	0x3f197115	0.59938174
61	0x3f6960cf	0.91163343
62	0xbd804f64	-0.062651426
63	0xbf85807a	-1.0429833
64	0x3f073ac4	0.52824044
65	0x3f08b9b9	0.5340839
66	0x3f22ef12	0.6364604
67	0xbeff7534	-0.49894106
68	0xbedaa336	-0.42702645
69	0xbf778f16	-0.96702707
70	0x3ef85c4e	0.48507923
71	0x3e623782	0.22091487
72	0xbf088ea6	-0.53342664
73	0xbe0dc76f	-0.13845609
74	0xc00e2b9f	-2.2214124
75	0x3edd0b9b	0.43172917
76	0x3e9f05ea	0.310592
77	0xc0144562	-2.3167348
78	0x3f9efb64	1.2420468
79	0xbe803081	-0.25037006
80	0x3f212142	0.6294137
81	0xbeed6145	-0.46363273
82	0xbedca9e0	-0.43098354
83	0x3f101a62	0.56290257
84	0xbf15662e	-0.5835904
85	0x400314f6	2.0481544
86	0xbfdda210	-1.7315083
87	0xbe99045d	-0.2988614
88	0x3ecd056b	0.40043196
89	0x3f082eb3	0.5319626
90	0xbf1226d5	-0.570905
91	0xbefbeabb	-0.49202523
92	0xbcdaf2aa	-0.02672704
93	0xbf091638	-0.5354953
94	0x3ffaf423	1.9605755
95	0x3ee443a9	0.4458287
96	0x3eea7a60	0.4579649
97	0xbf18dd08	-0.59712267
98	0xbe8b6621	-0.27226356
99	0xbf46219a	-0.7739502
100	0xbed39348	-0.41323304
101	0x3ee70b2c	0.4512571
102	0xbe5ef470	-0.21772933
103	0xbfbdbce5	-1.4823271
104	0xbeff8661	-0.4990721
105	0xbe1a020c	-0.15039843
106	0xbe22572c	-0.15853566
107	0x3f00d765	0.50328666
108	0xbedbbf9b	-0.4291962
109	0xbf753642	-0.95785916
110	0x3e5c84e7	0.21535073
111	0x3ee1ddb4	0.4411446
112	0xbef0ee7f	-0.47056958
113	0x3f4a5d4a	0.790486
114	0xbeb47cff	-0.35251614
115	0x3eae89ed	0.34089604
116	0x3f1f0617	0.6211867
117	0x3f16cf5d	0.5891016
118	0xbd06d4fa	-0.032917954
119	0xbeb8be18	-0.3608253
120	0xbf90d8a9	-1.131612
121	0x3e81adf7	0.25328037
122	0xbe3b433f	-0.18287371
123	0x3daee863	0.08540418
124	0x3ed72b81	0.42025378
125	0x4011dfa5	2.2792752
126	0xbf1acda6	-0.60470045
127	0xbcc30058	-0.023803875
128	0xbff533ee	-1.9156473
129	0xbef761c1	-0.48316768
130	0x3f05dd92	0.52291214
131	0x3edb2b27	0.4280636
132	0x3f872d84	1.0560765
133	0x40057bfa	2.085692
134	0xbfb93334	-1.4468751
135	0xbf00ca8f	-0.5030908
136	0x3f130431	0.5742827
137	0x3ebfd2d6	0.37465543
138	0xbef1dd0b	-0.47238955
139	0x3f1409d7	0.57827514
140	0xbf66d907	-0.9017491
141	0x3ed80475	0.421909
142	0x3c965604	0.018351562
143	0x3ee0e637	0.4392564
144	0x3c9a7212	0.018853221
145	0x3fecf654	1.8512673
146	0x3eecb95c	0.46235168
147	0xbda0cfe4	-0.07852152
148	0xc039dc98	-2.904089
149	0x3d787ba7	0.0606648
150	0xbf489d20	-0.78364754
151	0x3ed8cb0e	0.42342418
152	0x3a4a38c4	0.0007714147
153	0x3ee2d4e5	0.4430305
154	0x3f045c4d	0.5170334
155	0x3c16a668	0.009194948
156	0xbdabb35f	-0.08383822
157	0x3fa189d7	1.262019
158	0x3c3a7fea	0.011383036
159	0xbca5edcc	-0.020254992
160	0xbe3257d7	-0.1741632
161	0x3eef5462	0.46744066
162	0xbcc6ced8	-0.024268553
163	0x3fba72e4	1.4566312
164	0x3ed8d690	0.42351198
165	0xbffb9a8e	-1.9656541
166	0x3f006ed4	0.5016911
167	0x3ecdcfc4	0.40197575
168	0x3ee5d818	0.4489143
169	0x3d1daf94	0.038497522
170	0xbd375524	-0.04475893
171	0x3ef9eb18	0.48812175
172	0x3ed90c50	0.42392206
173	0xbcd81446	-0.026376855
174	0xbf73d7d7	-0.9525122
175	0x3ee27663	0.44230947
176	0x408ffdaa	4.499715
177	0x3d3c6539	0.04599497
178	0xbe4f1978	-0.2022456
179	0x3ee1a692	0.44072396
180	0x3ceec622	0.029147211
181	0x3c830f86	0.015998613
182	0x3ed8095d	0.42194644
183	0x3eecdf15	0.46263948
184	0xbd7bf741	-0.061515097
185	0xbf241e93	-0.6410915
186	0xbd8616be	-0.065473065
187	0x3ee4e133	0.44703063
188	0xbf0b1e7b	-0.54343385
189	0x3d912139	0.07086415
190	0x3dc7ff87	0.09765535
191	0xbd40fe74	-0.047117665
192	0xbd9c1e81	-0.07623006
193	0xbd7c8e2d	-0.061659027
194	0x3fc8d71b	1.5690645
195	0x3edf785a	0.43646508
196	0x3f68e792	0.9097835
197	0x3ee5bed2	0.44872147
198	0xbf9115bf	-1.1334761
199	0xbd36632c	-0.04452817
200	0x3ee2b433	0.44278106
201	0x3cb660d8	0.022262976
202	0x3ee51f88	0.4475062
203	0x3d3d9c71	0.046291772
204	0x3cae9d60	0.021315277
205	0x3d94652a	0.07245858
206	0x3efc7162	0.49305254
207	0x3ed442bc	0.41457164
208	0x3cba60ce	0.022751238
209	0x3eea48bf	0.45758626
210	0x3ee066f2	0.4382854
211	0xbd43ec9c	-0.04783307
212	0x3ef11fc6	0.47094554

network.4.bias f4 [3]
0	0xc10c9151	-8.785478
1	0x3f3b5f87	0.7319264
2	0x42039731	32.897648
